models_every10epochs/checkpoints/checkpoint_10.pth (torch, 178410 bytes, 101 tensors)

features.layers.0.logic.0.layer.0.mlp.0.weight f4 [8, 18]
00000000: e499 b0bc f6d2 21bd 58c5 b6bd 7254 febd
00000010: 178f 42bd fad2 2c3e 3cca dbbc 7c4c e4bb
00000020: ef31 8f3b ccbe 5a3c dc90 1b3e 6a2b ebbd
00000030: adab 84be 9f45 6a3d 38b1 32be e127 20bd
00000040: b2c9 72be dda5 5e3d 1d1f 073e 3fa7 0d3e
00000050: 8264 0cbe 32b5 4f3e 9560 873d 2ef6 c7bd
00000060: e341 dc3d 82ed 313e bca1 793e 0efc a1bd
00000070: 1b29 113e 1b3f 3abe f8fc 043d ab68 8ebd
00000080: ed60 5dbc 9ed4 e2bd 1ef7 6abc ac86 0d3c
00000090: 72f6 2e3e 4b3b e0bd 8e69 f73d 1fd8 8c3e
000000a0: 6737 023c 2f5c 243e ce36 1e3d 1b7e 483d
000000b0: 4290 0b3e 211d 473e 9f95 b23d 986d b03e
000000c0: 1f0c 81bd df92 1b3e ac88 1f3e 037d bc3e
000000d0: e3e9 c9bd 335d 093e 0497 1e3e 1597 123e
000000e0: 9df3 ee3d ba49 64be 6657 7dbe 5130 c13d
000000f0: 1d3d 79be 592f 263e 874f 86bd 598b 263e
00000100: d9db 813d 5880 3abc 2240 8abe 0cdb 1d3e
00000110: aebd 0bbe 80e8 1b3e aa42 92bd 0341 2a3d
00000120: d65c de3d 9e10 0ebd 8ccb 2d3e 48d2 8e3e
00000130: 5a28 993e c757 b63d 2d51 603e 2cc9 98bd
00000140: c210 5bbd 02b7 663e 6128 b3bc f421 d33d
00000150: 3770 babd 51d6 7f3e 69e5 bd3d 0b42 673e
00000160: 5cc1 533e 2367 683e b71e 0abe b7f4 c43d
00000170: adf8 1b3e 0888 61be 8080 97bb b1fd 91be
00000180: e427 b4bd 0add d4bd 1bc8 75be c0f8 32bd
00000190: c3dc 3c3e 2223 103e b7e6 903d d375 dfbd
000001a0: b4cd 32be 4bb8 4abe 20e8 43be 32d8 123e
000001b0: 01ab 463d 4208 b4bd aa4a b03d 0024 4ebe
000001c0: b323 af3d 6b13 b03d b54e dbbd 8d19 66be
000001d0: b9a9 20be ff25 f23d 53e2 c93d 3d78 50be
000001e0: 04d3 61be b3af 2dbe 0ee7 5a3d e617 cc3d
000001f0: c8ab 3ebe 3268 16be a7f7 f8bd 3fc1 20be
00000200: 3f8e 8e3d 8283 afbc 9054 9b3d 03a3 403d
00000210: e51e 16be e805 13be 607a 1ebe ebfa d6bd
00000220: 9390 733d 9c02 51be 8561 5cbe ccfd 48ba
00000230: 13f8 67be 1988 c3bd d81f edbb 490b 463e
-0.021557756 -0.03950783 -0.08924359 -0.124184504 -0.047499742 0.16877356 -0.026829831 -0.0069671255
0.004369966 0.013351154 0.15191978 -0.1148289 -0.25912228 0.057195302 -0.17450416 -0.03910053
-0.23709753 0.0543574 0.13195463 0.1383333 -0.13710216 0.20283964 0.066102184 -0.09763752
0.107547544 0.17375758 0.24378103 -0.07909404 0.14175837 -0.18188135 0.032467812 -0.069535576
-0.013511878 -0.1107571 -0.014341144 0.008638065 0.17086199 -0.10948809 0.1208068 0.27508637
0.007947779 0.1605079 0.038626485 0.04894839 0.13629249 0.19444706 0.08719944 0.34458613
-0.0630114 0.15192746 0.1557948 0.36814126 -0.098590635 0.13414459 0.15487295 0.14315446
0.11667559 -0.2229375 -0.24740371 0.09433044 -0.24339719 0.16228999 -0.065581374 0.16264094
0.06340761 -0.011383139 -0.27002054 0.15415591 -0.13646576 0.1522541 -0.071416214 0.041565906
0.10857551 -0.034683816 0.16972178 0.27894807 0.29913598 0.08903461 0.21905966 -0.074602455
-0.05348278 0.2253075 -0.02186984 0.103092104 -0.091034345 0.24984099 0.09272272 0.22583787
0.2067923 0.22695594 -0.1348828 0.09616988 0.15231581 -0.22024548 -0.0046234727 -0.28513864
-0.08796671 -0.10393722 -0.24002115 -0.043694258 0.18443589 0.14075902 0.07075255 -0.10911145
-0.17461282 -0.19796865 -0.19131517 0.14340284 0.048502926 -0.087906376 0.08607991 -0.2013092
0.08551731 0.08597454 -0.107083715 -0.22470684 -0.15689744 0.118236534 0.09857621 -0.20358367
-0.22053152 -0.16961555 0.053443007 0.09965496 -0.18620217 -0.14688185 -0.12156611 -0.15698718
0.06960725 -0.021425012 0.075844884 0.04703046 -0.14660223 -0.14357722 -0.1547637 -0.104970776
0.05946405 -0.20411152 -0.21521576 -0.0007667213 -0.22653227 -0.09547443 -0.007236462 0.19340242

features.layers.0.logic.0.layer.0.mlp.0.bias f4 [8]
00000000: ffa6 d33c 2658 5a3c e728 bb3d 9ed8 b0bd
00000010: ff6a 50bd d76d 483e ee69 abbd 4226 123e
0.025836466 0.01332668 0.09138661 -0.086350664 -0.05088329 0.1957315 -0.08369814 0.14272407

features.layers.0.logic.1.layer.0.mlp.0.weight f4 [8, 9]
00000000: 0cbe 373a fc5d 8dbd 7662 b83d a73b 693e
00000010: 85fb 773d 55ba d83d d8d6 ab3d 2cf0 b53e
00000020: c170 643e 0113 453e 4761 663e c8aa 693e
00000030: ceb9 d33d 3d5a 59bc 0c41 e1bc 4f45 14bc
00000040: ffb7 923c cbb0 c93e 7f09 ecbd a9d7 af3d
00000050: f472 dc3c 51de c2be 0949 043e b32a 58be
00000060: e5df 8abe 244f adbe 71f3 02be d47b ccbe
00000070: 6ad6 ddbc 1843 c6be 4721 4fbe 9364 193d
00000080: 1608 b1be 2e69 383e 505b ac3c 8b49 5a3d
00000090: da55 8d3e fdb5 c8be 8400 18be 60c6 9fbe
000000a0: 5c79 c5be 0dc4 eebc a26f 9b3c 3c0c dc3d
000000b0: de85 0a3e a66c b7bd ee60 d43d 270c 833e
000000c0: 7b80 7dbd 183a 2e3e fc35 933e a157 1d3e
000000d0: c945 6f3e f8c6 3cbe d59a 653e d6c1 733e
000000e0: 4435 773e ac5d 04be 6cf0 c4bd cead 523e
000000f0: 416c 453b cfa9 173c 7e4f 943e 7548 e33c
00000100: 6b4c 8abe 7b32 6abe 3229 12be 8b69 86bd
00000110: f074 803e cc89 e4bc 144f 9dbe e2bb 78be
0.0007009215 -0.06902692 0.09003155 0.22776662 0.060542602 0.10582415 0.083905876 0.355348
0.22308637 0.1924553 0.22498046 0.22819054 0.10338174 -0.013266143 -0.027496837 -0.009049728
0.017910002 0.39392695 -0.11525249 0.08586056 0.026910283 -0.3806024 0.12918486 -0.21110038
-0.27123943 -0.33849442 -0.12788178 -0.39938223 -0.02707978 -0.38723063 -0.20227538 0.03744943
-0.34576482 0.18008873 0.021039635 0.053292792 0.27604562 -0.39201346 -0.14843947 -0.31206036
-0.38569152 -0.029146219 0.01897413 0.10744521 0.13527629 -0.0895627 0.1037005 0.2559521
-0.061890107 0.17014349 0.28752124 0.15365459 0.23366465 -0.18435276 0.22422345 0.23804411
0.24141413 -0.12926358 -0.09616169 0.20574114 0.0030124339 0.009256794 0.28966898 0.027744511
-0.27011427 -0.2287082 -0.14273527 -0.065630995 0.25089216 -0.027897738 -0.30724394 -0.24290422

features.layers.0.logic.1.layer.0.mlp.0.bias f4 [8]
00000000: 1db0 b53e 1e5e 433e 3228 e2be cbe9 fdbd
00000010: 1e00 b4be 6f69 ac3e dc37 953c d3d6 5d3e
0.35485926 0.19078872 -0.44171292 -0.12398108 -0.3515634 0.3367419 0.018215112 0.2166398

features.layers.0.logic.2.layer.0.mlp.0.weight f4 [8, 18]
00000000: 1d1a 683e 1c51 683e c665 123e 95af 6b3d
00000010: 846b d3bd a324 0b3e f15e 27b9 b63e 863d
00000020: 27a0 8cbd c6bb 983d 5bca 283e 3270 bdbd
00000030: 3d15 1e3d 1b0d 5e3d 440d 8fbd 2d0e 523e
00000040: 6113 893e 5449 5bbd 3a7b d9bd 6287 0e3e
00000050: ec1e 873e 2405 ddbc ce24 91bd ee5c efbb
00000060: 67f2 1abe dc37 c8bd d0a8 1fbe 95c5 95bc
00000070: 3510 943e c17b d43d ff0f 3c3d c22c 39bd
00000080: 6609 5ebc 2cd7 4d3e 2e18 f9bc 848e 7ebd
00000090: 53d6 b73d eda3 46be 6cba 3a3d 652d a6bd
000000a0: 6304 01be 2b2d f5bd fe8a 0ebd b8f1 37be
000000b0: 7ed2 0d3e a919 b23d 348a acbd 7344 2abc
000000c0: a0e0 6cbd 8d21 fabd 2542 41bd 8ac5 24be
000000d0: 9bf0 fc3d 2938 00bc 1f9f 9ebd 41b1 16be
000000e0: 156c a83d 1514 e3bd cf8a 86bd 6222 fabd
000000f0: 9949 e63d 363e 68be 2640 443e bea2 323e
00000100: 60bd 3fbd 8593 123e 8177 2c3e f6d0 0fbd
00000110: 7e44 96bd b927 5fbe d58f 033d 76e7 1c3e
00000120: 840c 453d 9779 4ebd e6c0 f43d a3b4 253e
00000130: d097 133e 7e2b 5ebe 0720 e83a 1da4 21be
00000140: ca82 86bd 02da 483e ef87 69be 5499 93bd
00000150: 38c7 0e3d 8597 ac3d 5631 adbd 1acc dd3d
00000160: 18bb 983d e15f a03d ee1e 7c3d eb56 49be
00000170: 73ff 643c e45e 34bd c2bd f4bd 5cfb 35be
00000180: 08cc 423e 11b9 de3c c300 93bd 5a9b 55be
00000190: 308d 69bd 2c1f 5d3e fd1f 0cbe d218 9ebd
000001a0: 1af6 0b3d bd56 7c3e 39ac 34be 0d1c 643e
000001b0: 6069 09be 0773 113d e0b7 0abe ed8e 7dbd
000001c0: 3327 b83d 82af 6e3c 2f13 d63d 427e 5abe
000001d0: 696e 473e dec3 0bbe 5ad8 723e 8ad1 b8bd
000001e0: 2e23 283e eef3 513e a40e 033e 7a18 ce3d
000001f0: eb93 e7bd 49e4 96bd a36c 58be 9bda eabd
00000200: ac7e a13c 26be babd a323 e83c 1ff0 3cbe
00000210: 9080 253e 33f9 0dbe 0d70 10bd 756a d3bd
00000220: e9d9 9cbd d2fa aabd 6324 04be ed3e 80be
00000230: f379 713d d0e2 5bbe 247d 683d a074 15be
0.22666211 0.22687191 0.14296636 0.057540495 -0.10323241 0.13588195 -0.0001596173 0.0655493
-0.06866484 0.0745769 0.16483442 -0.09249915 0.038594473 0.054211717 -0.06984952 0.2051322
0.26772597 -0.053536728 -0.10619207 0.13918832 0.2639078 -0.02697999 -0.07087098 -0.0073047793
-0.15131532 -0.09776279 -0.1559174 -0.018282691 0.28918615 0.10375167 0.045913693 -0.0452087
-0.013552045 0.20101613 -0.030407038 -0.062147632 0.08976426 -0.1939847 0.045587942 -0.08114127
-0.1259933 -0.11971506 -0.034800522 -0.17963302 0.13849828 0.086963005 -0.08424798 -0.010392296
-0.057831407 -0.122134306 -0.04718222 -0.1609098 0.12350579 -0.00782589 -0.07745194 -0.14716054
0.0822374 -0.11087815 -0.065694444 -0.12213589 0.112445064 -0.22679982 0.19165096 0.17444894
-0.04681146 0.14314087 0.16842462 -0.03511139 -0.073372826 -0.21792497 0.03211959 0.1532267
0.04810764 -0.050408926 0.11950855 0.16182189 0.1441338 -0.21696278 0.001770974 -0.1578526
-0.06567915 0.19614413 -0.22805761 -0.072069794 0.03485796 0.084273376 -0.08456676 0.10829945
0.0745756 0.078307875 0.061552934 -0.19662063 0.013976919 -0.044035807 -0.11950256 -0.17771667
0.19023144 0.027187856 -0.0717788 -0.20860043 -0.057019413 0.21593922 -0.13684078 -0.07719578
0.034170248 0.24642463 -0.17643823 0.22276326 -0.13419104 0.03551009 -0.13546705 -0.061903883
0.08991852 0.0145682115 0.10452878 -0.21337226 0.19475712 -0.13648936 0.23715344 -0.090243414
0.1641967 0.20503208 0.12798554 0.10063262 -0.1130751 -0.07367761 -0.21135192 -0.11467477
0.019713722 -0.09118299 0.028337305 -0.18450974 0.16162324 -0.13864593 -0.03526311 -0.103230394
-0.076587506 -0.083486214 -0.12904505 -0.2504801 0.05895419 -0.21473241 0.05675997 -0.1459527

features.layers.0.logic.2.layer.0.mlp.0.bias f4 [8]
00000000: 8f7d 8d3e 8789 98bd d7ea 103e 136b efbd
00000010: b260 063e 624e 1a3e 4f3e 17bb f13e 2ebe
0.27634856 -0.07448106 0.14152084 -0.11690345 0.13122824 0.15068963 -0.002307791 -0.17016198

features.layers.1.logic.0.layer.0.mlp.0.weight f4 [8, 42]
00000000: 057f 84bd e351 833d 6d80 ea3c 89b6 00bd
00000010: 0e7f 1a3e a83c 80bd 68cf 103e de34 df3d
00000020: ca50 5fbd b59f febc 5560 1b3e fe42 c93d
00000030: aa33 da3d 7cb3 e63d 8ed6 f43d fdec c6bd
00000040: 144d 1a3e 24c0 1a3e 5310 a83d 1079 26bc
00000050: 485b b33d 3714 f13d 7e33 9bbd 225a 283d
00000060: 5afe 1c3e 8015 0dbc f131 44bd 412c f13d
00000070: 94cd e0bd b88a 0fbd 8a7e 5bbd b849 93bd
00000080: 20b4 d73d a6d4 e83c d4f7 42bd 90ad 6d3d
00000090: 0845 01bc f6f1 94bd 14c9 833d 6e0b 873b
000000a0: 20aa d03b 9dbe febc eee6 36bd e1f4 01bd
000000b0: 5551 183d 726e 063d 63a5 90bd 6236 cf3d
000000c0: 7268 cdbd 8baf c3bd b957 0abe 8342 08be
000000d0: 181f 16be 3c68 c23d dc50 4a3d a623 ea3c
000000e0: ced8 4cbd 846d dd3c 4c18 9bbd 9a03 2c3d
000000f0: d086 6f3d cdbb 883c a681 72bd 0313 81bd
00000100: cede 44bd a4b0 bf3d 2601 9ebd 496b 7fbc
00000110: a41c e8bd 5bd5 2c3d c50d c03d 4c92 e5bd
00000120: be82 b13d fa97 11bd b794 0c3e 34ee 27bc
00000130: 2dae 313d ed10 103e 5b67 05bd 5496 063e
00000140: 137a 49bd 0343 d73c aa6d 2dbd 3a96 d23d
00000150: 0eca 90bd 2095 a73c 0489 763c 3f40 05be
00000160: 12cc 4abb d95c 9b3c 8bdb 1f3e 61bd 0ebb
00000170: de79 d33d 4516 8b3c 974d 8d3d 64fd db3d
00000180: 8a56 cfbd 1172 d3bc 16cf 003e e507 643d
00000190: 3f34 c63d 948a 62bc fb0d 393d c687 9dbd
000001a0: 35fc a53d f531 293e 7f64 043b d82b f6bd
000001b0: d4ce 6a3d cb1f cf3d 694a 843d 3a6a 3f3e
000001c0: f660 053e d3bc 0abd caf4 bc3d 113c 11bb
000001d0: b56e 47bc b824 023e 8604 f43d 4ee8 c2bc
000001e0: a79a 5fbd 6c58 533e 7312 c2bd 3c3a 9f3d
000001f0: 3903 253e 3977 823d d9fc fd3c 80ed 62be
00000200: 71ff 51bd b2ad abbc 4b23 ac3c 16a8 32be
00000210: 6e74 7a3d 8cee b73d 28b3 113c 830e 55be
00000220: 6d24 05be f1d2 353d 334a 50be 04c5 8ebd
00000230: 1695 4dbd 7c72 a03d 921c 3c3d 7e54 20be
00000240: a13b 18bd 1163 24be 5f97 cdb9 1b83 c3bd
00000250: 39ab 653c 842d af3c 9905 07be e88b 6d3d
00000260: 1a14 9ebd c35a 11bd 4766 853c 0929 713d
00000270: 930c 38be 3012 25be 260c 37bd e511 0cbd
00000280: abc3 28be c1f6 823c 3486 9dbd bbdb b2bd
00000290: b547 b5bd 43f9 29be 436a debd cf80 8f3c
000002a0: c468 aa3d 28ba 1c3e 3456 173e e1c9 013d
000002b0: a685 60bd 8947 bc3d 2985 adbd 5294 92bd
000002c0: 427a 2ebd 0a87 513d d501 0d3d 5e83 adbd
000002d0: 7197 4a3e fd83 3f3e 5a90 683d c0d3 6bbd
000002e0: 0f43 7cbd 6d9c 153e 63f9 6c3d 90e1 5f3e
000002f0: 558e 393e 5f52 de3d eaaf 323e 79ec 1c3e
00000300: eeb5 af3d 25a5 5ebd 7ca5 053e 0ec0 f13d
00000310: bf3c 1dbd 79b7 d33d c421 c5bd c698 643d
00000320: 2d09 113e 2a08 dd3b c6a8 b73d a2c8 bcbc
00000330: 99a1 4fbd 2022 e93d e4f9 083e 44f7 8abd
00000340: e6e3 083c 5c4e f9bc 4514 babd 1a0f 9b3d
00000350: 603f e83d 8c4c b3bd a85f bf3d 453b 153e
00000360: 981d e03d 9dcc b73d 4ed6 3e3e dd76 60bd
00000370: 9fc5 133e f52c ce3d fed7 8dbd b089 7abb
00000380: 8c7d df3c 0261 493d e52f aa3d 89ac 9dbd
00000390: 1d04 6cbc c0c4 5e3e 2603 cb3d a241 0fbd
000003a0: 4086 dc3d 8af6 2a3e f1ca 103e e5f9 43bd
000003b0: da7d 4b3e ae7c 273e 777a 153d d874 73bc
000003c0: 2bf0 453c a0f9 24bd a5f3 373d bdc8 75bc
000003d0: 6493 43bd 839a 0c3e 0c0a 193e 28db 10bd
000003e0: 4238 84bc f0ca 98bc 4e1c 4f3d 58dd 493d
000003f0: 60c8 283e 2146 1c3d 073d eb3d 9be3 8bbd
-0.064695396 0.06412103 0.028625691 -0.03142408 0.1508753 -0.06261569 0.14141619 0.108987555
-0.054520406 -0.031082014 0.15173467 0.09827231 0.106543854 0.11264703 0.119549856 -0.09713171
0.15068465 0.15112358 0.082062386 -0.0101606995 0.08757645 0.11771434 -0.07578181 0.041101582
0.15331402 -0.008611083 -0.04789919 0.11776019 -0.10976711 -0.035044402 -0.053587474 -0.07191795
0.10532403 0.028421711 -0.04759963 0.05802685 -0.0078899935 -0.07272713 0.06434837 0.0041212356
0.0063679367 -0.03109675 -0.044653825 -0.031727675 0.03718694 0.032820173 -0.07062795 0.101177946
-0.10029687 -0.095549665 -0.13510026 -0.13306622 -0.14660299 0.094925374 0.04939352 0.028581452
-0.05001145 0.02702976 -0.07572994 0.041995622 0.058478177 0.016691113 -0.059205674 -0.06302454
-0.048064046 0.093598634 -0.07715063 -0.015589544 -0.11333588 0.04219566 0.09377626 -0.112095445
0.08667515 -0.035545327 0.13728605 -0.010249663 0.043378998 0.14068957 -0.03256927 0.13143283
-0.049188685 0.02627707 -0.042340912 0.1028256 -0.07069789 0.02045685 0.0150473155 -0.13012789
-0.003094439 0.018965172 0.15611093 -0.002178036 0.10325979 0.016978392 0.06899565 0.1074169
-0.10123928 -0.025811227 0.12578997 0.05567159 0.09677934 -0.013826985 0.04517935 -0.07691912
0.08104745 0.16522963 0.0020201502 -0.12020081 0.057326153 0.10113486 0.06459505 0.18692866
0.13025269 -0.033871483 0.09226377 -0.0022161047 -0.012172391 0.1270932 0.11914925 -0.023792412
-0.054590847 0.20639199 -0.09476175 0.07774779 0.1611451 0.06370396 0.031004356 -0.22160912
-0.051269 -0.020956848 0.021012923 -0.17446932 0.061146192 0.08981046 0.008892812 -0.20806317
-0.13002177 0.044390623 -0.20340805 -0.069711715 -0.050191008 0.07834336 0.045925684 -0.15657231
-0.03716624 -0.16053416 -0.00039213427 -0.09546491 0.014017873 0.021384008 -0.13185729 0.057994753
-0.07718678 -0.035486948 0.016284121 0.058877025 -0.17973547 -0.16120219 -0.04468932 -0.034196753
-0.16480891 0.015986802 -0.07691613 -0.087333165 -0.08851568 -0.16598992 -0.108601116 0.017517475
0.08320764 0.15305388 0.14778978 0.031686667 -0.054814957 0.09193332 -0.08472664 -0.07157196
-0.042597063 0.051154174 0.034425575 -0.08472322 0.19784333 0.18702693 0.05677829 -0.057574987
-0.06158739 0.14610453 0.05785502 0.21863389 0.18120702 0.10855555 0.17449918 0.15324582
0.08579622 -0.054356713 0.13051409 0.1180421 -0.03838801 0.10337729 -0.09625581 0.05580976
0.14163657 0.006745358 0.08967738 -0.023044888 -0.05069122 0.11383462 0.13376576 -0.067854434
0.0083551165 -0.030432872 -0.09085897 0.0757124 0.11340213 -0.087548345 0.09344417 0.14573391
0.109431446 0.08974574 0.18636438 -0.054800857 0.14430855 0.100671686 -0.06925963 -0.003822904
0.027281545 0.04916478 0.083099164 -0.07698924 -0.014405278 0.21754742 0.0991271 -0.0349747
0.10767794 0.1669561 0.14139916 -0.04784574 0.19872227 0.16356155 0.036493745 -0.014859401
0.012081186 -0.040277123 0.044910092 -0.015001473 -0.047747985 0.13730817 0.14945239 -0.035365254
-0.016140107 -0.018651456 0.050564103 0.049283355 0.16482687 0.038152818 0.114862494 -0.06830522

features.layers.1.logic.0.layer.0.mlp.0.bias f4 [8]
00000000: f79e 213e a9f0 d23c fbeb a7bd f881 643d
00000010: fa1e 5e3d 88fc e93d 4089 193e 477a 6b3a
0.15783297 0.025749521 -0.081993066 0.05578801 0.05422876 0.1142512 0.14993763 0.00089827593

features.layers.1.logic.1.layer.0.mlp.0.weight f4 [8, 41]
00000000: 69aa d4bd be3e 71be fbe0 f6bd 46ea e63d
00000010: 01eb 00bd a9df bb3d 558e 5e3d 2e8e 05be
00000020: 09a4 f0bd 1801 f5bd 205b 91bc 0b0e e2bc
00000030: 8b19 94bb 6ab3 80bd 768b d0bd cc12 083d
00000040: f2aa 82bd ceb6 61be 3eb0 c2bb 7832 973c
00000050: 1910 fabd 06cc e23c eb09 e43d 0f7c 533d
00000060: 8fdb 57bd 2e0c b8bd 03f1 92bd 3beb babc
00000070: aa1e 883d bae3 03be 9bda 05be face 24be
00000080: 2a34 0cbe 95e1 a4bd f455 76bd b41b 90bd
00000090: 717f e0bd 4b02 2c3c dc7e d1bd 0ef6 b9bd
000000a0: 7f0e 1cbe f0db 47bd 81ea a6be 5fe2 a0be
000000b0: 3c1e 2dbe 31b7 ecbd aa1e 1dbe 7f1b 5abe
000000c0: 647b 34bd 4558 84bd c740 87bd cfd6 363d
000000d0: 0cdf cb3d 2d53 40be 1c56 cabd 6023 a13c
000000e0: 7d34 03be 1cc0 16bd bb62 90bd 2e48 07be
000000f0: 893d a5bc 868e f4bd d2aa babd 58af c3bd
00000100: b298 e1bd a251 113d 8623 6bbe 0536 13be
00000110: 0019 343d 3c01 d23d b1e1 4dbd a25d 123d
00000120: 7f2b 2dbe 053d 5ebe 57af a7bc 4891 b1bd
00000130: e66c 5cbd d3a0 0dbe 3f3c 80be 4811 12be
00000140: 0b6b 9e3d 17b1 8cbd 98fe eb3d 1147 c3bd
00000150: 5ba1 53be b302 cf3d 09a9 6bbe ad78 df3d
00000160: 4cf3 fc3c d53b d53d 17ea 963d 1cbd efbd
00000170: 7abe 1d3b 3008 b0bd b396 98bd d770 9f3c
00000180: fb61 323d c780 5ebe 14aa debd e953 9dbd
00000190: 4387 80bd 4dc5 9bbd 77f5 963d 0aab 7cbe
000001a0: 2cdd 113d 657c 77be 6ece b3bd 05be 2cbe
000001b0: ce5b 41be 6083 34bd 1cae 5a3d cf25 5d3d
000001c0: 6eff b73c f10d ffbd 084a 65bd 9403 603d
000001d0: be2f b7bd 7d99 4fbd 3d78 bbbd 40aa e43c
000001e0: 0443 5c3d 86b9 113d 2f40 a6bd 76e9 a439
000001f0: e02c 5b3e c066 ac3e cb15 a43d cb73 8a3e
00000200: 0494 6e3d 7d24 473e ee4a 303e 2bf0 84bd
00000210: efaf 87bd ac62 e7bc c644 d1bc 8d3f 3d3d
00000220: 831e 893d 4c36 f63d 61ef 48bd a72a 403e
00000230: 3b2e 153e af97 a73d ad06 2e3e dfbd d93d
00000240: e541 1bbd 913f b33d c35d 4d3d c6bc a33d
00000250: 1cee 123e 28b5 983d be06 103d e6fe 1e3e
00000260: 01fb d73d edb7 2d3e 0f9a 863e 0303 21bc
00000270: 08cf 083e 80f6 bc3d 1647 313e 38e8 16bd
00000280: 7a10 833e f435 103e 67d3 0e3e 2138 1d3e
00000290: d757 263d caee 8e3e 88fd ee3d d8f1 193d
000002a0: 4640 6b3e 4d0f a6bd 7ce6 e03d 7930 eebd
000002b0: 8cc3 d3bc 95f5 f43d 888f 9f3d 7ba2 57bd
000002c0: a7b7 213e 575d 95bb 4c58 6cbd a6c8 963e
000002d0: a585 563d 7ed6 d93d a275 073e e867 1abe
000002e0: dd41 983c e179 a53d b5d7 843d 451f f3bc
000002f0: fb9b de3d 7210 a63d d951 823d 3843 b2bd
00000300: 644b 493d cfcf e23d fc25 b3bb 88be 3f3d
00000310: f047 dabd 6256 1d3e 9f2f 573d f5db 0d3e
00000320: 0e0d 743d 740f 833e 5ac4 87bd bbf9 2bbe
00000330: fa32 5cbd a831 b53b eaf1 7abd a4a4 4ebd
00000340: d82d a03d c79e 40be b6b7 9dbd d024 ccbd
00000350: c281 05be 4311 6abe 7b0d fb3c aee0 64bc
00000360: 575d 35be 7925 1abe ce6f 61bd 66d2 07be
00000370: 20f0 29bd 320c 21be ce88 68bd cca7 bebd
00000380: 0ee5 b13d e87f 86bd 787a 4c3d 203a 94bd
00000390: fd8e c1bc 1b20 7fbd a03e 563c 919b 2cbe
000003a0: 280a 10be a93d 47be dc8b 713d b67c 933c
000003b0: f285 86bd c7a5 373e 95fb 9cbd 41cc 31bd
000003c0: d593 17be 7310 863d 7aa1 6dbe e4b1 c03c
000003d0: d3b7 e4bd ca38 2a3d a720 0b3e ef8c 333e
000003e0: eb65 be3c 6cc2 773d a64c 9d3d dd8f b6bd
000003f0: 5e5f fcbd 619a 9fbb d1e2 a43d c1f7 f63d
-0.10384066 -0.2355909 -0.1205463 0.11275153 -0.031474117 0.09173519 0.054334957 -0.13042518
-0.11750037 -0.11963099 -0.017743647 -0.027594587 -0.0045196465 -0.062842205 -0.1018285 0.03322105
-0.063802615 -0.2204239 -0.00594142 0.018456683 -0.12210102 0.027685177 0.11134704 0.051631983
-0.05269962 -0.08986698 -0.071748756 -0.022817245 0.06646474 -0.1287984 -0.13071673 -0.1609458
-0.13691774 -0.08050839 -0.060140565 -0.07036534 -0.109618075 0.010498594 -0.10229275 -0.09080134
-0.15239905 -0.048793733 -0.32600787 -0.31422707 -0.16906065 -0.115583785 -0.15343729 -0.21299551
-0.044062987 -0.064621486 -0.06604152 0.04463845 0.09954652 -0.18781729 -0.09879705 0.019670188
-0.12812991 -0.036804304 -0.07050081 -0.13211128 -0.020170944 -0.11941247 -0.09114613 -0.095549285
-0.110154524 0.03547824 -0.2296277 -0.14376076 0.043969154 0.10254142 -0.050264064 0.035733826
-0.16911124 -0.21702965 -0.02046935 -0.08670288 -0.05381479 -0.13830881 -0.25045964 -0.14264405
0.077352606 -0.06869715 0.11523169 -0.09535039 -0.20667021 0.10107937 -0.230137 0.10911689
0.030877732 0.10411803 0.07368868 -0.117059916 0.0024069832 -0.08595312 -0.074506186 0.019462986
0.043550473 -0.21728812 -0.108722836 -0.0768202 -0.06275799 -0.076059915 0.073710375 -0.24674621
0.035611317 -0.24168546 -0.08779608 -0.16869362 -0.18882677 -0.0440706 0.0533887 0.053991135
0.022460666 -0.12453831 -0.055978805 0.054690912 -0.08944653 -0.050683487 -0.09153793 0.027913213
0.05377485 0.03557732 -0.08117711 0.0003145446 0.21403837 0.33672142 0.08011969 0.27041468
0.058246627 0.19447513 0.17216083 -0.06491121 -0.066253535 -0.028245293 -0.025545489 0.046203185
0.06695273 0.12022075 -0.049056415 0.1876627 0.14568417 0.08183228 0.16994734 0.10631918
-0.03790464 0.08752359 0.050138246 0.0799499 0.14348644 0.07456428 0.03516268 0.15526924
0.10545922 0.16964693 0.26289412 -0.009827378 0.13360226 0.09226704 0.17312273 -0.036842555
0.25598508 0.14083081 0.13947831 0.15353443 0.040611114 0.27916557 0.11669451 0.037584156
0.22973737 -0.08108387 0.109814614 -0.11630339 -0.02585008 0.119609036 0.07791048 -0.052645188
0.15792714 -0.004558246 -0.057701394 0.29449958 0.052373547 0.10636614 0.13228467 -0.150787
0.018586094 0.08079887 0.06486455 -0.029677996 0.10869595 0.081086054 0.063632675 -0.08704227
0.049144164 0.110747926 -0.0054671746 0.046812564 -0.10658252 0.15364984 0.05253565 0.13853438
0.059582762 0.25597727 -0.06629248 -0.16794483 -0.053759553 0.005529601 -0.061265863 -0.050449982
0.07821244 -0.18810569 -0.07701056 -0.09967959 -0.1303778 -0.22858147 0.030646076 -0.013969583
-0.17711388 -0.15053357 -0.055038266 -0.13263854 -0.041488767 -0.15727308 -0.056771092 -0.093093485
0.08686267 -0.06567365 0.049921483 -0.07237649 -0.023627752 -0.062286478 0.013076454 -0.16856219
-0.14066374 -0.19457115 0.05897127 0.018003803 -0.06568517 0.17934333 -0.07665173 -0.043407682
-0.14802487 0.06546106 -0.2320613 0.023522325 -0.11167874 0.041558065 0.13586675 0.1753423
0.023241958 0.06048815 0.07680635 -0.089141585 -0.12322877 -0.0048706983 0.08051074 0.12058974

features.layers.1.logic.1.layer.0.mlp.0.bias f4 [8]
00000000: ccaf 33bd c663 33bd 60e7 27bd 127d 9e3e
00000010: 682f 663e 101e cbbd baa2 353e f998 f63d
-0.043868825 -0.043796323 -0.04099214 0.30954796 0.22479022 -0.09917843 0.17737857 0.12040896

features.layers.1.logic.2.layer.0.mlp.0.weight f4 [8, 50]
00000000: 2434 17bc a1e2 2b3d 9e7e c13b e8cd 42bc
00000010: cd56 c2bc 6b84 d9bd 101c 373d b0dc 4b3c
00000020: 39bf a53d 27d9 b7bd 74ae d33c 3604 edbd
00000030: 56fb f03d e7a7 0fbe 86b4 a63d eb20 b3bd
00000040: f724 a43d d76f 45bc 305c 2ebe c8c8 09be
00000050: 8804 fabb 1890 5b3d 74f6 45bd 2bc0 4e3d
00000060: 3e7c 16be 015f 0abe 25c0 50bc d6d8 08be
00000070: 8ba8 27bd 24c7 95bd 1401 20be 9750 10be
00000080: 403b 0cbe 3a4c 67bd 168b 1f3d a1fd 45be
00000090: 5ede 353a 6297 a0bc 4d55 b4bd f309 2f3d
000000a0: adda 7bbd 9391 41bd fe63 953d ca7b cabc
000000b0: 8921 713d 3725 4bbe 68e7 94bd e691 b5bd
000000c0: 6988 8d3d bfbf 7cbb 74f4 e1bd 43fd 0b3e
000000d0: 1c24 6a3d ce69 62bd 9657 bdbd 8db8 debd
000000e0: 4838 083d aa70 483d 0809 34be 0313 7e3d
000000f0: 990d 20be 6ec4 e9bd c359 81bd 82f6 43bc
00000100: 679f 883d df58 25bd babf e23c 14b3 f93c
00000110: 6d70 39bc d096 2ebe 0bb4 9ebd b5b6 65bd
00000120: 8a9a e43b 88f5 ce3d 3cf5 27bd d957 3cbd
00000130: 7acb 1c3d 7f29 95bd 7f2b c3bd 4aab 7fbd
00000140: dbc5 ef3c 2989 9abc 2108 c3bd 4dc3 323d
00000150: b26f e7bd 3f73 5e3d ac86 163e cd99 c93d
00000160: 0b97 e53d b00a 283d 3eb3 97bd 6d69 9bbc
00000170: 4194 ebbd 4373 673d d8d7 adbd 9465 abbd
00000180: 4a6e a33d 8d69 3bbe 74a1 213b d865 043e
00000190: 8837 923d f4fb 6bbd dd9e 003e febf c53d
000001a0: 9199 74bd f1a3 5fbd b1de 2f3e d280 c53d
000001b0: 3d15 c9bc 4095 ac3c 10d7 093e 4f33 5fbd
000001c0: 212f c0bc 441b 35bb e8a8 d6bd b690 b43d
000001d0: 94fc a43c fd2a d3bd 362f 383d cf05 2c3c
000001e0: 8960 963d 856f 99bc 8199 66bd cfc0 303e
000001f0: 8bce 113d 1cb5 a13c 4bb7 2dbd 285b 343e
00000200: d1ed 243d bd6a 013e e0d0 2ebd 5940 c63d
00000210: 2ffb c43d d911 263e d656 2c3e 7a40 173d
00000220: 615e bc3d 17f8 27ba 7de9 c7bd 656e 1d3e
00000230: 7084 9f3d f619 e63d ea9e 773d 2ffe d63d
00000240: 3cf1 1ebe a233 b3bc fcfe fe3d 3839 913d
00000250: 981a 373e bfa4 51bb 6433 0dbe f848 0fbe
00000260: 04ad ba3d d3cb b6bd 9437 12bd cc4a c4bd
00000270: 9fe3 863d 6a7e d0bd 73c8 753d 5c38 a2bd
00000280: 76a6 cebd 588d c7bd bae3 b8bd b10d 1ebe
00000290: a2a9 fabd d417 993c e7ff 303e e2f3 ef3a
000002a0: 8ef4 8f3d 9c4e 933d ac61 043e 80f8 fdbd
000002b0: 40a3 14bc 148b 1fbd cebe ca3d c7e9 fcbd
000002c0: 4c10 babc 01b5 0cbc c0fd 2b3e ce0a d23d
000002d0: 4317 abbd c1b7 b03c b518 2bbe 5ef8 90bd
000002e0: 48bf c2bd 75e6 013d 7408 b13c 0b7c 57bd
000002f0: e91b adbd 5a13 33bc 939c 8a3d 5ee4 b3ba
00000300: c4a5 bebd 0128 003d 92a7 dbbc 838a c1bd
00000310: 05ab c33d 08e4 903d badb e6bd c499 13be
00000320: d56b 0c3d 33a7 cb3d 9a16 ccbc 53ef bc3d
00000330: 8231 d1bd 2b55 a53c e034 cdbd e165 f93d
00000340: 989f cf3d 6d15 6ebd 748d 533e 3b62 f83b
00000350: 1173 a33d ea40 b8bb 4731 33bd 5556 033d
00000360: a9e2 0dbe 6140 d83d c94b f23c 1427 c6bd
00000370: 0215 4c3d aeb9 2e3e b5a9 5c3c c57b 9d3d
00000380: af89 503c ada7 d23d 9b1d 223d 50d6 0d3d
00000390: 500c 94bd 7ab6 cc3c 1a66 fe3c 9dd5 883d
000003a0: 028f 053d 7fa7 303e 57c9 ba3d 0083 853d
000003b0: 5203 c2bd 4a58 023e 3910 1abc b61b a43d
000003c0: 5f4c 0b3e 14c0 3bbc fefe 543d b5dc a53d
000003d0: 619a 183e 272a 29bd eb14 c63d fb51 7a3d
000003e0: d43f bd3d bd4d 803c 1094 233b 73e9 5a3e
000003f0: 7a3e 85bd d9b0 203e d2c3 b2bd 13a6 f23c
-0.00922874 0.041964177 0.0059049865 -0.011889912 -0.02372303 -0.1062096 0.044704497 0.012442753
0.080931135 -0.089769654 0.025840022 -0.11573069 0.117666885 -0.14028893 0.08139901 -0.08746513
0.08014863 -0.0120505905 -0.17027354 -0.13455498 -0.0076299347 0.053604215 -0.04833074 0.050476234
-0.14695832 -0.13512804 -0.012741123 -0.13363966 -0.04093222 -0.07313374 -0.15625411 -0.14093243
-0.13694477 -0.05646918 0.038951002 -0.19335033 0.00069377373 -0.019603435 -0.08805332 0.042734098
-0.061487842 -0.04725797 0.072944626 -0.02471723 0.058869872 -0.19838415 -0.072707 -0.088657185
0.06910784 -0.0038566438 -0.11032954 0.1367083 0.057163343 -0.055276684 -0.09245221 -0.10875044
0.0332568 0.04893557 -0.1758157 0.06202985 -0.15630187 -0.11414419 -0.06315949 -0.0119606275
0.066710286 -0.040367957 0.027679313 0.030480899 -0.011318308 -0.17049718 -0.07749184 -0.056082446
0.0069764303 0.10105425 -0.041005358 -0.045982216 0.038279988 -0.072833054 -0.095297806 -0.062419213
0.02926915 -0.018864231 -0.09523035 0.043643285 -0.11300601 0.054309126 0.1469981 0.09843788
0.1121045 0.041025817 -0.074072346 -0.01897117 -0.115028866 0.056506407 -0.084884346 -0.08368984
0.0798002 -0.18301983 0.0024662884 0.12929475 0.07139498 -0.057613328 0.12560602 0.0965576
-0.059716765 -0.054599706 0.17174794 0.09643711 -0.02454626 0.021067262 0.13460946 -0.05449229
-0.023459973 -0.002763466 -0.10481435 0.08816664 0.02013997 -0.10310934 0.0449669 0.010499432
0.07342631 -0.018729934 -0.056298736 0.1726105 0.035597365 0.01973968 -0.04241113 0.17612898
0.040265862 0.12638374 -0.042679667 0.09680242 0.09618222 0.16217746 0.1683 0.036926724
0.09197689 -0.00064075127 -0.09761331 0.15374143 0.07788932 0.112354204 0.060454287 0.104977004
-0.15521711 -0.021875206 0.12450978 0.07090992 0.17881238 -0.0031989065 -0.13789135 -0.13992679
0.09115031 -0.08925595 -0.035697535 -0.09584579 0.06586384 -0.101803616 0.060005616 -0.07920906
-0.10090344 -0.09743756 -0.090278104 -0.1543491 -0.12239386 0.01868812 0.17285119 0.0018306936
0.07029067 0.07192728 0.12927884 -0.12400913 -0.009072125 -0.038950995 0.09899674 -0.12349277
-0.02271285 -0.008588077 0.16796017 0.10255967 -0.08354046 0.021571996 -0.16708644 -0.07078622
-0.0950914 0.03171392 0.021610476 -0.05260853 -0.08452589 -0.010929907 0.067681454 -0.0013724675
-0.09308961 0.03128815 -0.026813302 -0.09450247 0.09554104 0.070747435 -0.11272378 -0.14414126
0.034282524 0.09944 -0.024913121 0.09225335 -0.10214521 0.020182213 -0.10019851 0.12177635
0.10137862 -0.058125902 0.20659429 0.0075800694 0.079809316 -0.0056229727 -0.043748166 0.032064755
-0.13855995 0.10559154 0.029577153 -0.09675422 0.049824722 0.17063019 0.013468196 0.07689623
0.012728139 0.10285888 0.039579015 0.034628212 -0.07228911 0.024989355 0.031054545 0.066813685
0.032607086 0.17251395 0.09120434 0.06519127 -0.094732895 0.12728992 -0.009403282 0.08013098
0.13603352 -0.011459369 0.052000992 0.08098737 0.14902641 -0.041299965 0.096719585 0.06111334
0.0924069 0.015662069 0.0024960078 0.21378116 -0.06506057 0.15692462 -0.08728756 0.029620206

features.layers.1.logic.2.layer.0.mlp.0.bias f4 [8]
00000000: af99 27be 5eed b43d 8555 253d cd06 193d
00000010: c0f4 61b8 6174 dabb 61cd 61be 71b0 b43d
-0.1636722 0.08834337 0.04036476 0.03736 -5.387212e-05 -0.0066667055 -0.22051002 0.08822716

features.layers.1.logic.3.layer.0.mlp.0.weight f4 [8, 48]
00000000: a37e 3e3e 07b4 ca3d 9e43 973d 90ec b33d
00000010: 0e2e 993d bc1d 103c 2729 8a3c 62b8 a03d
00000020: 9925 fdbc 8383 cf3d d7dd a63d f64d f3bd
00000030: 9ae7 643d 15cf c0bb 89d3 8abd e598 e63d
00000040: 66c5 293e 5dad b6bc bd42 1f3e 657e c53d
00000050: 29a2 903d 52d3 203e e559 aa3d 8d49 323d
00000060: 471c 2f3c 6adf 9d3c 01d9 153e c1a9 c9bb
00000070: 68a1 8fbd 6e17 833d 01cf c03c 0792 aebc
00000080: d90e 8fbb cde1 9fbd 9467 fc3d 2b21 82bd
00000090: 99d6 f03d 9af1 a23d aec5 7fbd 8ddb d73d
000000a0: a6c6 003e 5c68 063e fba1 ebbc f4de 3fbc
000000b0: ed74 903d d26e 723d a405 d83d 8d12 14bb
000000c0: dd11 45bd 1503 a03d c8c8 023e 2e86 d33c
000000d0: d536 15bd 457e 923d 2319 143e d2cf 773d
000000e0: 1568 c73b 0096 f13b 5d20 ccbd 82cc 2c3e
000000f0: 6226 7c3d 231c fe3b e901 13bd d059 b4bc
00000100: f0ca 04be 51e4 0bbe 4d84 da39 6aef 49bd
00000110: 07ae ec3c 255c b3bd f3dd 193d 3197 073b
00000120: 56f8 e53d 619a 0e3e 6d55 e33d fe35 27be
00000130: f92a bfbd 28b2 953d e8cb f03c a7a5 91bc
00000140: bed7 e5bd ea59 0f3e 4a1a 75bd 2888 ae3d
00000150: f9b6 9bbd 322d 153c e5c5 e4bc 5d0a 7fbd
00000160: 45e1 c9bd 1138 17bd 1dbc e7bd a710 0bbe
00000170: 2038 8bbc ac12 d93c 476a e0bd af5e bd3c
00000180: f93a 23bc cade e2bd 433d 54bd 99c7 af3d
00000190: 70d4 0cbb c37e b53d 5199 0c3e 6f69 083e
000001a0: 7ec0 5abd bfd1 c8bc 7f49 c83d 34e2 d93d
000001b0: 2ca3 8fbd 399f b6bd 4e3a d23d ef3c 8f3d
000001c0: 0696 243d 1d35 d13c fdee 773d 5eaf a3bd
000001d0: f282 843d 2c37 c33d 70b0 90bc 9ba9 573d
000001e0: e348 243e 962d f4bc 3522 4c3d 0b94 9c3c
000001f0: f0a1 c63c 86c8 463d 523a 093c dee3 953d
00000200: 6b76 1dbd fb58 c2bd 59c2 00be 7684 ea3d
00000210: 647e 26be 6c82 4bbd d341 a33b 6c88 c63c
00000220: b299 213e 2d85 0cbb 59b8 0cbe 6fe6 cc3c
00000230: c5ea 4dbc 9181 e73d 3fae fd3d 48d4 743d
00000240: e3f8 8a3c 98c2 d7bd c5dd f1bd 5d68 afbb
00000250: 264c 8abd b33a 7a3d 2adf 113e b718 873d
00000260: fece 923d e551 50bd 3e8c 833d 480d 16bc
00000270: c9cc cd3d add0 313e 62ef 58bd 7df3 163e
00000280: 509a 863d 168f 12bc ef77 97bd b119 c3bc
00000290: 197c aebd 6cb0 893d 6bc1 2f3d ab01 a6bd
000002a0: 9204 343e 9c7d 0a3e 99a5 023e a2b5 2d3d
000002b0: baf3 283c d87d 473e ad20 0e3e d592 343d
000002c0: 925f c63d 423c acbd b9f0 b13c 7311 03be
000002d0: 52a2 08be 3963 e53b c22e 05be 2af1 a1bd
000002e0: a02b ea3d b2b9 0abd 4f47 063d 7850 90bd
000002f0: 16c8 37bd c487 a3bc 9cbb 9dbd 2708 2d3e
00000300: e493 5f3c ddd9 4abd 0ca8 70bd a3e2 e43d
00000310: b49c b5bd 2f11 103e cfca 87bd 54e6 153d
00000320: 82af 153d 2a4f 36bd a3ba 553d 4f70 3c3d
00000330: ca0a 1f3d 60ba a8b8 7527 f93d 8332 16bd
00000340: d855 babd 127b 8fbc 5551 babd d786 b23d
00000350: 641d 5a3d 61e8 1e3e bccc 063e 4b9a b4bd
00000360: 2763 a63d c843 f8bd 215f 14bd 4c2a 0cbd
00000370: 5a80 113d 8fc8 0abc 9ce5 08be da11 a3bd
00000380: 2bd5 56bd 6744 0fbe 62a6 d83c 75aa a73d
00000390: 0244 77bd 435f cbbc f180 a53d a65a edbd
000003a0: 5944 98bd e2a0 033e 6379 8c3d 0dd2 16bd
000003b0: 92e3 2cbc e22a 7b3c b734 7e3d efca 913d
000003c0: e667 99bd 88c2 f33d 59a2 3b3d 961a e3bd
000003d0: b3f4 a63d 13ed 01bd 764f a03d d446 f73d
000003e0: ea9f ff3d da79 ec3c 870c 01bd 48c0 a53d
000003f0: 73e1 4cbd a2b9 dc3d 7948 f53d 4d7a d7bd
0.18602996 0.09897619 0.07385944 0.08785355 0.07479487 0.008796152 0.016865326 0.07847668
-0.030901717 0.10132506 0.08147781 -0.11880104 0.055884935 -0.005884061 -0.067786284 0.11259631
0.16579208 -0.022299463 0.15552802 0.096432485 0.070621796 0.15705612 0.08317927 0.043527175
0.010687894 0.019271571 0.14633562 -0.0061542694 -0.07013208 0.06400953 0.023536207 -0.021309866
-0.0043657837 -0.0780674 0.123244435 -0.063539825 0.11759681 0.07956238 -0.06244438 0.10539923
0.12575778 0.13125747 -0.028763762 -0.011710871 0.07053552 0.059187718 0.10547951 -0.0022594065
-0.04811274 0.07813088 0.12771904 0.025820818 -0.036429245 0.0715299 0.14462714 0.060500927
0.0060854056 0.0073726177 -0.0996711 0.16874889 0.061560042 0.007754819 -0.035890494 -0.022015482
-0.1296804 -0.13661315 0.00041678772 -0.04930059 0.028891576 -0.087578095 0.037565183 0.0020689482
0.11229007 0.13926078 0.11100278 -0.1632919 -0.09334368 0.07309371 0.029394105 -0.017779185
-0.1122279 0.13999143 -0.059839524 0.085220635 -0.07603259 0.009105014 -0.027926395 -0.062265743
-0.0985742 -0.036918703 -0.11315177 -0.13580571 -0.016994536 0.026498161 -0.10957771 0.023116438
-0.009962791 -0.1107765 -0.051816236 0.08582992 -0.0021488927 0.088620685 0.1373036 0.1332147
-0.05340623 -0.024514077 0.09779643 0.10638848 -0.070135444 -0.08917088 0.10265027 0.06994044
0.040182136 0.025538022 0.06053065 -0.07992433 0.06470288 0.095320076 -0.017662257 0.052651983
0.16043429 -0.029806893 0.04983731 0.019113561 0.02424714 0.048531078 0.008375721 0.07318853
-0.03844301 -0.09489628 -0.12574138 0.11451046 -0.16259152 -0.049684927 0.004982212 0.024234973
0.15781286 -0.0021441684 -0.13742198 0.025012223 -0.01256818 0.1130401 0.123867504 0.05977276
0.016964382 -0.10535163 -0.11809877 -0.0053530172 -0.067528054 0.061091136 0.14245287 0.06596511
0.07168387 -0.05085935 0.064232334 -0.00915844 0.10048825 0.1736476 -0.05296267 0.14741321
0.065724015 -0.008945247 -0.073959224 -0.023815962 -0.085197635 0.06723103 0.042909067 -0.08105787
0.17579868 0.13524479 0.12758483 0.042409547 0.010312015 0.194816 0.13879652 0.044085342
0.09686197 -0.08409931 0.02172123 -0.12799625 -0.1334317 0.0070003537 -0.13006118 -0.079073265
0.11434102 -0.0338685 0.03278285 -0.07046598 -0.04486855 -0.019962199 -0.07701799 0.16897641
0.0136461 -0.049524177 -0.058754012 0.1117604 -0.088677794 0.14069055 -0.066304795 0.03659661
0.03654433 -0.04450909 0.052179944 0.046005543 0.03882865 -8.045579e-05 0.12165729 -0.036669265
-0.09098405 -0.01751474 -0.09097544 0.08717125 0.053250685 0.15518333 0.13164037 -0.088184915
0.081243806 -0.12122303 -0.036223534 -0.034220025 0.035522796 -0.008470668 -0.13368839 -0.07962389
-0.052449387 -0.13990937 0.026446525 0.08186809 -0.06036759 -0.024825698 0.08081234 -0.115895554
-0.07434911 0.1285434 0.0685909 -0.036821414 -0.010552304 0.015330048 0.06206199 0.07118785
-0.0749052 0.11902338 0.045809124 -0.11089055 0.081521414 -0.031720232 0.07827656 0.12074056
0.12481673 0.028866697 -0.031506088 0.08093315 -0.050019693 0.10777594 0.11976714 -0.10521374

features.layers.1.logic.3.layer.0.mlp.0.bias f4 [8]
00000000: b607 ad3d 8d1c f5bd f3ad 87bc 0699 9fbc
00000010: 3746 4abd 11ee 8abb 835a 183e 799e 843d
0.08448736 -0.11968336 -0.016562438 -0.019482147 -0.04938337 -0.0042398055 0.14878277 0.06475539

features.layers.2.logic.0.layer.0.mlp.0.weight f4 [8, 66]
00000000: f775 92bd 1cd6 043e 7587 0c3e 6fd6 aa3d
00000010: 7842 d33b 090b d53c fac3 f63d d29b 18bd
00000020: e710 97bd aad9 ed3d ed38 03bd 82a3 7e3b
00000030: 6448 1c3e f5e2 b03d 8131 863d 87cf 103c
00000040: 44dd 073d a3cc d93d 9e83 823c 5637 5d3d
00000050: 40c8 9f3c f051 eebb 4dc0 e63c 2b1f 163e
00000060: ef8f fe3c 8dc6 383d 515b 0a3e 3d04 b4bb
00000070: 7d1b a53d 34a3 063e e1eb 90bd 60c1 4d3d
00000080: d817 1e3e 6b60 173e c322 413c 44d7 8ebd
00000090: e285 78bc 24a9 3abd e947 87bd 9ce3 abbd
000000a0: a603 233e 0ef4 5e3a 9353 6abd 0719 8abc
000000b0: 55e6 983d ee12 1a3e cc35 ad3c 1f4c f43d
000000c0: 4dca 6abd 6935 7b3d dfae 9f3d 400e 91bd
000000d0: 44e1 35bd b4a1 83bd 7a96 ca3d c61f 4f3d
000000e0: 98e6 973d f3ce 1c3e 4407 5a3d 5562 373e
000000f0: f86d 11bb 6c9c 073e 25d1 3a3d c6a5 a53d
00000100: 4676 993d 5f9f d53d 0091 5cbd 0d35 b83d
00000110: faf9 bf3d 83ee c23d 04e0 d03c 9e67 33bd
00000120: 7fcf b63d aa3f c33d d109 813d c980 953d
00000130: 52ef 9c3d f91a ea3d d280 75bd 4388 043e
00000140: 2bc5 f73d e5fe 96bd 82f4 d83c 6f0e 343d
00000150: 9ea5 3fbd 6f9b dd3d da34 88bc 59cc 2fbd
00000160: ed8d 253e 9061 943d 2baf 1d3e f5a0 c13d
00000170: 6db3 06bc c184 bf3d 9b04 113e 4715 6ebd
00000180: 27ec f53c c9a3 153e 3324 d73c 6535 db3d
00000190: 717b 213e 1eef 873d 009c ce3d fdbe 8cbd
000001a0: 2ae7 763d 63ae ed3d 91ac 083e 03ce 053e
000001b0: 3413 34bd 89f8 e1bc 6ec6 593d cb6c 113e
000001c0: 0f0f 223c c996 87bd 1aab 0dbd 2fbf e13c
000001d0: 69d3 8ebd 9f71 7cbd 2405 083e 714f 013d
000001e0: bb89 3d3d e5d9 dcbc 5d32 803d 76df 38bd
000001f0: 937c fe3d 0678 aa3d 33ee 973d 93b0 b4bd
00000200: e17f c83d 3ba5 97bb cae0 dc3c b7ac db3d
00000210: 4922 583d ca63 2cbd 0ec4 d73d c742 d1bd
00000220: 9a06 aebd 264a ef3d a9e0 953c ed00 57bd
00000230: 23f0 c93c cfa6 d93c f3dd 0b3e d2d9 a0bd
00000240: aa53 90bd 0bb5 123e be14 2ebb 9752 86bd
00000250: d4d6 ac3b 56d3 c93d b3e4 ff3d 09b6 143d
00000260: 2539 0c3e e797 2fbc 35ca 813d 6ca6 a23d
00000270: eda3 663c a15e fd3d 6936 45bd 2244 92bd
00000280: f071 64bd 12b1 5b3c 362d 01bd f6e3 1b3e
00000290: 9b5e f23d 8a30 febb 7aad ec3d 8314 84bc
000002a0: 8cfe bbbb 5926 e63d 5ea3 853c 199d b23d
000002b0: 130d 3d3d da23 6f3c 7a58 98bd 9ea9 173e
000002c0: 92f3 62bd c4af 6c3c 3f57 17bd 4934 023d
000002d0: 96b7 1d3d c3e0 ce3d 264b 7cbc cf03 8ebc
000002e0: ac37 e33d aeaf ca3b 39f5 ad3d a1a0 c63d
000002f0: d026 7cbd 9f36 ecbb 8806 e73a e770 0f3e
00000300: eb65 a5bd 8c2c 09bd e336 c13d b729 273e
00000310: e4cd b23d 467b 053e f404 00be db06 a4bd
00000320: f199 23bd 917e fcbd bf0d fcbc c851 4abd
00000330: 8d2e 093d b968 29bc c6d6 b1bd 9e8b 813d
00000340: 52e9 6fbd eb06 fb3c 19eb df3b 4715 21bd
00000350: 9fc3 8e3c fb92 f1bc 8e82 c9bb e937 11be
00000360: 4729 bebc f4e2 2dbd 5749 9f3c 39ac 123d
00000370: eef0 a13d feff 12be c227 80bd ba2e 12be
00000380: d6d5 b7bd a7ae b53d cb54 06be d513 e0bb
00000390: 0167 b7bd 3da0 913d df1b 13bd e29a 08bd
000003a0: ecd2 77bc 9a1c bd3d ca45 2abd a632 083d
000003b0: e73f 1abe fcd7 3cbc 11bf 80bd 2444 8f3c
000003c0: dbaa 903d ef7e b33d 0ab3 923d 57e1 3b3d
000003d0: 0cb9 e1bd 38dc 543b 9cb5 843d ed13 8b3d
000003e0: 9dcc bbbd 6e2e 93bd 9738 5d3d f4fe cabd
000003f0: 959d 353d 8185 35ba ba67 a3bd aed3 673c
-0.07151406 0.12972301 0.13723548 0.08341681 0.0064471327 0.026006239 0.12049098 -0.037257977
-0.07376271 0.11613782 -0.03203671 0.0038854782 0.1526199 0.086370386 0.06552411 0.008838541
0.03317 0.106347345 0.0159319 0.05400785 0.019504666 -0.0072729513 0.028167868 0.14660327
0.031074492 0.045111228 0.13511397 -0.0054936693 0.080618836 0.13148195 -0.0707624 0.050233245
0.15438783 0.14782874 0.011788073 -0.069746524 -0.015168639 -0.04557146 -0.06605513 -0.083930224
0.1591936 0.0008504995 -0.05720861 -0.016857637 0.07465807 0.15046284 0.021143816 0.119285814
-0.057321835 0.061330233 0.07797026 -0.07082796 -0.044404283 -0.06427327 0.098919824 0.05056741
0.07417029 0.1531332 0.053229585 0.17908604 -0.002219079 0.13243264 0.045609612 0.080882594
0.07493262 0.10430788 -0.05384922 0.08994494 0.09373851 0.09518149 0.025497444 -0.04379999
0.089262955 0.09533627 0.063007005 0.072999544 0.07662834 0.11430926 -0.059937306 0.12942605
0.12098154 -0.07372836 0.026483778 0.043959077 -0.046788804 0.10820662 -0.016626764 -0.04291949
0.16167422 0.07245171 0.15398853 0.09454528 -0.008221489 0.09351493 0.14161913 -0.05812576
0.030019833 0.1461326 0.026262378 0.107035436 0.15769745 0.06637405 0.100883484 -0.068723656
0.06027905 0.11605527 0.13347079 0.13066868 -0.043963626 -0.027584331 0.053167753 0.14201657
0.009891286 -0.06620557 -0.034587003 0.027556984 -0.06973917 -0.061631795 0.13283211 0.0315699
0.046273928 -0.026959369 0.06259606 -0.045134984 0.124261044 0.08323674 0.0741848 -0.08822741
0.09790016 -0.0046278513 0.026962657 0.10726302 0.052767072 -0.042087354 0.10535441 -0.10217815
-0.08497353 0.116840646 0.018295603 -0.052491117 0.024650639 0.026568798 0.13658886 -0.07854046
-0.07047208 0.14326875 -0.0026562656 -0.065587215 0.005274633 0.09854762 0.12494793 0.036306415
0.13693674 -0.010717369 0.06337396 0.07941899 0.014077169 0.12371565 -0.048147593 -0.071419016
-0.05577272 0.013408916 -0.031537257 0.15223679 0.11834451 -0.007757251 0.115565255 -0.016123062
-0.0057371315 0.11237783 0.016313251 0.0872137 0.046155047 0.01459595 -0.074387506 0.14810798
-0.055408068 0.014446203 -0.03694844 0.031788144 0.03850516 0.10101464 -0.015398776 -0.0173358
0.11094603 0.0061854934 0.08494038 0.09698606 -0.061560452 -0.00720866 0.0017625848 0.14007913
-0.0807608 -0.03348975 0.09434297 0.16324507 0.08730677 0.13035306 -0.1250189 -0.0800912
-0.03994173 -0.12328828 -0.030768273 -0.0493944 0.03349166 -0.010339909 -0.08683543 0.06325458
-0.05857212 0.030642947 0.0068334457 -0.039326932 0.017427264 -0.029489031 -0.0061495965 -0.14181484
-0.023213042 -0.042452767 0.01944415 0.035808776 0.07907282 -0.14355466 -0.06257583 -0.14275637
-0.08976333 0.08871203 -0.13118283 -0.0068383017 -0.08955193 0.07110641 -0.03591525 -0.033350833
-0.015125971 0.09233971 -0.041570462 0.033251427 -0.1506344 -0.011526104 -0.06286443 0.017488547
0.07063838 0.08764445 0.07163055 0.045869198 -0.11021623 0.0032479893 0.06479952 0.0679091
-0.09169886 -0.0718659 0.054009046 -0.0991191 0.044339735 -0.00069244957 -0.07978769 0.014149589

features.layers.2.logic.0.layer.0.mlp.0.bias f4 [8]
00000000: 2e59 cd3d 1cb0 4b3d c745 00bd 7a31 e9bd
00000010: e199 8f3d b0ff 1e3d f69e 5c3d 0a51 6f3d
0.10026775 0.049728498 -0.031316545 -0.1138639 0.07011772 0.03881806 0.053862534 0.058426894

features.layers.2.logic.1.layer.0.mlp.0.weight f4 [8, 73]
00000000: 44b5 0bbe 9646 b4bd 6575 dcbc 1a6d 8d3c
00000010: 08d2 11be 7d1f 4cbd 11ef 83bc 4149 f2bc
00000020: 8454 47be 6c8b 69bd b0b6 43be f107 8abc
00000030: 55d9 4dbe efdd 98bd 6e79 16bd d741 90bd
00000040: 4bf9 1fbc d37e 1ebe e14c 65bc 4ccc e33c
00000050: ca33 87bd 8a26 08bd acf5 8f3d 76f2 b63c
00000060: 9ac3 a4bd c19d e43b e410 5abe 3d04 2e3c
00000070: 73ff a3ba 1116 1ebd 8d9b a03c 0c1c fabc
00000080: 084e 84bc 594f 6dbe 9336 9ebd 190a d53d
00000090: 4cc6 2c3d 27dd 10be 86f4 e13c bbd6 22be
000000a0: 516e eabd af72 0fbe cca3 0dbe 95a1 edbd
000000b0: 4737 55bc af02 dabd 37ac 48bc ac04 23be
000000c0: 72de 04be dd70 b6bd fb6f 3ebc ef3e b9bc
000000d0: 6e22 d43d a7a5 0fbe 62c1 1a3d 1d3b 9c3d
000000e0: d3f3 a43d 9ff3 00bc 10e7 96bd 0b81 35bc
000000f0: 0c2d 06be 3fe5 32be 06e6 24bd abba e6bc
00000100: d0e1 5f3d 5f0c 28be 3fe4 debd 10af 50be
00000110: 8fb0 fabd 5774 2b3d 5496 de3c a68a 92be
00000120: f3a2 1cbe ee8b cc3c 97b7 92bb 7ce4 56be
00000130: 9dd5 c9bd 598e b7bd d880 bbbd 54a9 35ba
00000140: 27ad e9bc 292e d63c 8f9c 9fbc 363b 2ebe
00000150: 9748 ab3d ae33 1fbe 3fca e8bd 8c73 29be
00000160: d15a ea3b d361 943d 6405 83bc d657 c2bd
00000170: 2b5d 90bd 819d ba3c 6955 6ebd 330e 57be
00000180: 057d 75bc 44ce 89bd 0ed1 d7bd a511 e73b
00000190: 5ea7 543d 7da6 363d d433 b43d f08d 58bd
000001a0: 891a 50bd b7b2 3f3d 7121 55bd 9bf5 07be
000001b0: ed91 5b3d 6b91 25be dda2 283d 9b6f bd3c
000001c0: 73f5 1ebe 1b83 4bbc 0d36 babd b86d 10be
000001d0: 57c6 40bd b613 c33d a896 09be 953e 00bd
000001e0: 601b 34be a7d8 9ebd f5f3 2fbc bfb5 80bd
000001f0: 3d72 99bd 8646 853d e556 84bd c74e e23b
00000200: 3a6d 3a3d 65d9 cebd 13e2 e73d 6c86 003e
00000210: 42e4 973b bab1 d4bd 3da8 3bbc 506e f2bd
00000220: 832f fb3c b16a 0abe 3884 2cbe 02b3 283d
00000230: 48b6 13bc 5df0 38be 631b 893c 9e5d 81bb
00000240: 8551 a5bd 1a30 83bd 00a7 1f3d 7cd8 c939
00000250: 0a2c 34be be38 23bd 0555 66bd 4acf 2abe
00000260: d47a 8cbd 284d e93c 89a9 8dbc 6837 d9bd
00000270: 4c41 4ebe bb46 86bc e06d b7bd 695d fbbd
00000280: fa07 ffbd 3c53 3dbd 7a9e 97bd f4cd 86bd
00000290: 3ce5 7a3c 3ab5 0abd 3cdb 79bd 4495 01be
000002a0: 1614 cfbb 89a2 17bc 4677 243d 948a 09be
000002b0: 75bc 1abe 297f 6f3c bfc7 1b3d 10d0 a13c
000002c0: f4e4 72bd 8d6d d9bd 31c0 833d fe2d 35bd
000002d0: 76d7 d53d d702 85bd ee6c c0bc 8222 c0bd
000002e0: 2122 88bb 94f0 02be b038 29be 086f 0bbc
000002f0: e467 d93c b728 f8bd 362b 12be 5f8c c33d
00000300: ddf9 ba3d daa5 943d b2d7 203e acd8 19bd
00000310: f622 8a3d fbf0 fcbd 668d 38bd 77a8 43be
00000320: 7316 5d3d a4e9 2f3d bf3e c03d 33b0 923d
00000330: ff5c 813d fbdd 18bd 367f f3bd 5510 2dbd
00000340: 3444 f93a 6e5b c63d 42cf 883c aa94 a6bd
00000350: 7ef2 cbbd 15d2 b9bd 3cd0 e6bc caea af3d
00000360: 9923 a73d b33d 0fbe 9dbe 2dbe 39c3 bd3d
00000370: 7b98 a9bc 0a62 b63c 8796 8dbd d84d ad3c
00000380: f475 ad3d 8841 8fbd d0c6 49bd fc0f f8bc
00000390: cd46 82bd 42d2 4e3d ef93 d1bd 5406 703d
000003a0: 850c 4b3d 3693 243e 7454 a03c c950 fe3d
000003b0: 7503 0bbc bbb0 903d 1d7b e43d c2b7 483d
000003c0: 23ee 423d f0a5 ab3d e7e8 b73d b677 b1bd
000003d0: 1ffa ea3d eddc 473c 42df b1bb b886 e2bd
000003e0: 7de0 f93d ee3b f03d 4e86 473d e889 153d
000003f0: 3c67 a3bd 76c5 1fbe 4107 a2bd d028 28bd
-0.13643366 -0.08802526 -0.026911447 0.017263938 -0.14240277 -0.049834717 -0.016105207 -0.029575946
-0.19465834 -0.05701773 -0.19112659 -0.01684949 -0.20102437 -0.074642055 -0.036736898 -0.07043808
-0.009764026 -0.15478067 -0.01399538 0.027807377 -0.06601675 -0.03323988 0.0702928 0.022332411
-0.080451205 0.0069768135 -0.21295506 0.010621128 -0.0012512043 -0.038595263 0.019605422 -0.030530952
-0.01615049 -0.231748 -0.07725253 0.104023166 0.042181298 -0.14146863 0.027582418 -0.15902226
-0.114468224 -0.14008592 -0.13832015 -0.11603085 -0.013013667 -0.10645043 -0.0122480905 -0.15919751
-0.12975481 -0.08908246 -0.011623378 -0.022613017 0.103581294 -0.14028035 0.03778208 0.076284625
0.08054318 -0.007870584 -0.073682904 -0.0110781295 -0.13103122 -0.17470263 -0.04025843 -0.028165182
0.05465871 -0.16410969 -0.10883378 -0.20379281 -0.12240707 0.041858997 0.027171291 -0.28621405
-0.15296535 0.024969067 -0.004477452 -0.20985597 -0.098551966 -0.089626975 -0.09155434 -0.0006929834
-0.028524948 0.026145058 -0.019483833 -0.17014775 0.08363455 -0.15547058 -0.113667004 -0.16547984
0.0071519394 0.07245221 -0.015993781 -0.094894096 -0.070490204 0.022780182 -0.058186922 -0.2100151
-0.01498342 -0.06728795 -0.10537921 0.007051664 0.051917426 0.04459237 0.08798948 -0.052869737
-0.050806556 0.046801295 -0.052033845 -0.13277285 0.053605963 -0.16168754 0.041170944 0.023124507
-0.15523319 -0.012421395 -0.090923406 -0.14104354 -0.04706415 0.09525244 -0.13436377 -0.031309683
-0.17588568 -0.07756167 -0.010739316 -0.06284665 -0.07492492 0.06507592 -0.06461886 0.0069063636
0.045514323 -0.101000585 0.11322417 0.12551278 0.0046353647 -0.10385461 -0.011453685 -0.11837447
0.030662304 -0.13517262 -0.16847312 0.04118634 -0.009015627 -0.18060441 0.016736692 -0.0039479276
-0.08072189 -0.06405659 0.038977623 0.00038499 -0.17594925 -0.039849035 -0.056233425 -0.16680637
-0.06859365 0.028479174 -0.017292755 -0.10606271 -0.20142096 -0.016391149 -0.08956504 -0.12273676
-0.12452693 -0.046221957 -0.07403274 -0.06582251 0.015313443 -0.033864237 -0.061000094 -0.12654597
-0.006319533 -0.00925506 0.04015281 -0.1343177 -0.15110953 0.01461772 0.03803229 0.019752532
-0.059300378 -0.10616598 0.06433142 -0.044233315 0.104414865 -0.06494682 -0.023489442 -0.09381582
-0.004154459 -0.12787086 -0.16525531 -0.008510359 0.026538797 -0.12117141 -0.14274296 0.09548258
0.09129689 0.07258196 0.15707281 -0.03756015 0.067449495 -0.12350651 -0.045056723 -0.19107233
0.053976487 0.042947426 0.09386968 0.071625136 0.06316566 -0.037321072 -0.11889498 -0.042251904
0.0019017518 0.096854076 0.01670039 -0.08133824 -0.09958361 -0.09073273 -0.028175466 0.08589704
0.081610866 -0.1398838 -0.16967244 0.092657514 -0.020702591 0.022263546 -0.069134764 0.021155283
0.084697634 -0.06994921 -0.049261868 -0.03028106 -0.063611604 0.050493486 -0.10233294 0.058599785
0.049572486 0.16071782 0.01957152 0.12417752 -0.008484711 0.07064959 0.111562945 0.04900337
0.047590386 0.083812594 0.089799695 -0.08665411 0.11473488 0.012198669 -0.0054282257 -0.11060852
0.12201021 0.11730181 0.048712067 0.03650847 -0.07978675 -0.15602669 -0.0791154 -0.041054547

features.layers.2.logic.1.layer.0.mlp.0.bias f4 [8]
00000000: 073e 44be 3a96 22be 2802 31be 8f56 063c
00000010: d780 183d b03d 70bd d9cc 013e a4e5 2dbe
-0.19164287 -0.1587762 -0.17285979 0.008199348 0.037232246 -0.05865258 0.126758 -0.16982132
