models_every10epochs/checkpoints/checkpoint_100.pth (torch, 178550 bytes, 101 tensors)

features.layers.0.logic.0.layer.0.mlp.0.weight f4 [8, 18]
000000 06 81 8d bc f7 74 04 bd 1e ba 8f bd 75 10 c7 bd
       -0.017273437 -0.03233811 -0.07017921 -0.09719936
000010 d3 66 1a bd f9 29 05 3e c1 8b af bc e6 1a a1 bb
       -0.037695717 0.13004293 -0.021428945 -0.0049165366
000020 58 99 46 3b 5c 75 1b 3c 90 7b f1 3d e2 5a b6 bd
       0.0030303802 0.00948843 0.11791146 -0.08904053
000030 7c 75 4f be ef a4 35 3d 14 e6 0b be c2 45 f9 bc
       -0.2025966 0.044346746 -0.13661987 -0.03042877
000040 b3 de 3d be 68 5a 24 3d 14 66 fb 3d 52 ef ee 3d
       -0.18541984 0.04012528 0.12275329 0.116667405
000050 df c4 b1 bd 79 24 2e 3e 50 70 92 3d 7a 1c 85 bd
       -0.08680128 0.170061 0.07150328 -0.06499572
000060 8b 83 d4 3d 65 90 15 3e b1 c5 56 3e ad 69 52 bd
       0.10376652 0.14605863 0.20973851 -0.05137031
000070 91 9c 05 3e 8e d0 06 be 1b 22 39 3d 7b 9a 3c bd
       0.13048007 -0.13165495 0.04519854 -0.04604576
000080 b2 29 18 3c 8b d2 99 bd 19 80 0e 3c 72 87 b4 3c
       0.009287285 -0.07510861 0.008697533 0.022037242
000090 ef 0b 1d 3e d7 da 98 bd 65 ee e9 3d 8c 45 66 3e
       0.15336584 -0.074636154 0.11422423 0.22487468
0000a0 96 63 d7 3c 2c 4b 09 3e 18 e1 4d 3d b4 bd 44 3d
       0.026292603 0.13407582 0.050263494 0.048032477
0000b0 4b 1b 01 3e 9c 6e 23 3e 2e 7a b4 3d 8c 25 8d 3e
       0.12608068 0.15960163 0.088123664 0.27567708
0000c0 9e 14 ee bc 30 6e fd 3d f4 e2 10 3e 35 63 99 3e
       -0.029062565 0.12374532 0.14149076 0.299585
0000d0 51 3a 69 bd 6a 98 f1 3d 98 7b 13 3e 62 24 ed 3d
       -0.05694038 0.11796649 0.14402616 0.11579205
0000e0 50 a2 e9 3d d4 27 2b be d5 32 2e be 35 2b 9c 3d
       0.11407912 -0.16714412 -0.17011578 0.076254286
0000f0 72 16 2a be 1b eb 0a 3e 72 8b e2 bc 3f 9f 07 3e
       -0.16610125 0.13566248 -0.027654383 0.13244341
000100 a1 ec 94 3d 7a bf d2 bb 25 17 40 be bd 78 fe 3d
       0.07271696 -0.006431517 -0.18758829 0.12425373
000110 09 d6 aa bd 8a 13 fe 3d 08 04 05 bd 71 86 14 3d
       -0.08341605 0.124060705 -0.032474548 0.036261026
000120 c5 03 d2 3d 7d fa bf bc f1 db 19 3e fe 85 62 3e
       0.10254625 -0.023434872 0.15025307 0.22121426
000130 dc a5 80 3e d3 21 94 3d 13 2c 41 3e e1 8d 62 bd
       0.2512654 0.07233014 0.18864469 -0.055311088
000140 c5 b2 c5 bc 00 fe 36 3e 94 30 b2 3a 68 e4 a9 3d
       -0.024133096 0.17870331 0.00135948 0.08295518
000150 fb 6a 59 bd e6 01 49 3e 80 87 b8 3d bc 45 37 3e
       -0.05308054 0.1962963 0.090102196 0.17897695
000160 ae 40 37 3e c0 2d 3a 3e df 97 c1 bd 42 49 9b 3d
       0.17895767 0.18181515 -0.09452795 0.07582332
000170 11 2d 04 3e f1 16 2d be f7 01 d5 3b b1 73 64 be
       0.12907816 -0.16903283 0.0065004784 -0.22309758
000180 61 23 6d bd a2 8c 98 bd 70 c6 34 be d9 0f f1 bc
       -0.057895068 -0.074486986 -0.17653823 -0.029426502
000190 b0 03 1e 3e 42 7e e5 3d 4a 30 86 3d c7 63 a4 bd
       0.15431094 0.112057224 0.06552179 -0.080268435
0001a0 23 62 00 be 3f 54 17 be 95 37 0e be e0 75 df 3d
       -0.12537436 -0.14778231 -0.1388839 0.10911155
0001b0 3e 35 ff 3d a8 51 37 bd 5f b6 1e 3e be 3e f5 bd
       0.12461327 -0.044755608 0.15499257 -0.11974858
0001c0 a1 79 1c 3e fd 5a d7 3d ed 56 6a 3b eb cd 0a be
       0.15280773 0.105154015 0.0035757378 -0.13555114
0001d0 89 ef 13 bd 32 28 f3 3d 1f c4 27 3e 30 26 1d be
       -0.03611711 0.11872901 0.16383408 -0.15346599
0001e0 f8 69 af bd 26 a4 d9 bd dd 22 04 3e 2c 8b 00 3e
       -0.08565134 -0.10627012 0.12903924 0.1255309
0001f0 76 54 72 bd 2d e0 82 bd 8a 50 d7 3c f0 73 e1 bd
       -0.05916258 -0.063904144 0.026283521 -0.110084414
000200 b9 f7 32 3e 88 25 2c bb a6 31 38 3e 61 83 5a 3d
       0.17477311 -0.0026267488 0.1798769 0.05334795
000210 75 3c e8 3b eb 94 b9 bd cc e2 90 3a bb 60 70 bd
       0.007087285 -0.09061607 0.0011053919 -0.058686
000220 f8 46 2b 3e f4 39 1d be cb 8f 42 bd f6 de e3 3b
       0.16726291 -0.15354139 -0.047500413 0.0069540692
000230 07 94 5f bd 84 a4 54 bd 8d 95 e8 3d 31 c2 1d 3e
       -0.05458453 -0.051914707 0.113566495 0.1540611

features.layers.0.logic.0.layer.0.mlp.0.bias f4 [8]
000000 96 04 9e 3c 4a b6 e0 3c 57 1b b3 3d cc 08 72 bd
       0.019289296 0.027430672 0.08745449 -0.05909042
000010 f5 04 0c bd 95 26 23 3e c0 f4 3c bb 04 29 0d 3e
       -0.034184415 0.15932687 -0.0028832406 0.13785177

features.layers.0.logic.1.layer.0.mlp.0.weight f4 [8, 9]
000000 37 6b ed 3d 5e c6 55 3d 24 a3 36 3e 84 4a 9a 3e
       0.11592715 0.05219113 0.1783567 0.30134976
000010 0e d2 f9 3d 33 1c 48 3e b3 f6 39 3e 05 96 b1 3e
       0.12198268 0.19542007 0.18160515 0.34684768
000020 c3 b1 b8 3e 9b ac 10 3e 1e 60 a2 3e 9f 85 9b 3e
       0.3607312 0.14128344 0.31713957 0.30375382
000030 dc 19 15 3e 7b 45 b8 3d ea 8f 04 3e 99 06 09 3e
       0.14560646 0.08997627 0.12945524 0.13381423
000040 cc 10 0f 3e 3a 74 ef 3e 76 cc 13 be 5c 0c ab 3b
       0.13971251 0.4676836 -0.14433464 0.005219979
000050 51 66 27 bd 8d a4 a1 be 8a fe 85 3c 3b 85 a1 be
       -0.04086906 -0.31570855 0.016356725 -0.3154696
000060 09 5b a1 be bf ef d2 be 8d f2 8e be 2d dc cb be
       -0.31514767 -0.41198537 -0.27919427 -0.39816418
000070 4f 95 1e be da d3 d0 be 60 ec 25 be 46 25 b6 bd
       -0.15486644 -0.4078663 -0.16203451 -0.08893828
000080 4b 39 c8 be a0 33 80 3d e2 b9 eb bd 01 6d d2 bc
       -0.3910621 0.06259847 -0.11510064 -0.025686743
000090 79 90 ad 3d ec f1 bc be fe 1f 72 be 4b 65 b1 be
       0.084748216 -0.36903322 -0.23645017 -0.34647593
0000a0 4c a0 b1 be bb 8d fa bd 66 9a 7d bd 70 11 a3 ba
       -0.3469261 -0.12234064 -0.061914824 -0.001244111
0000b0 67 69 59 bd cc 59 44 3d 0d cf 38 3e 87 7c 9f 3e
       -0.053079035 0.0479372 0.18047734 0.31149694
0000c0 5d c0 86 3d ff 8e 6f 3e b2 36 9b 3e 65 ef 94 3e
       0.06579659 0.23394392 0.30315167 0.29088894
0000d0 99 2c 72 3e 4b f1 fd bc c7 85 5d 3e 26 b7 93 3e
       0.23649825 -0.030998847 0.21633063 0.2885067
0000e0 4a 69 6b 3e 6d b0 16 3d f7 f0 4c 3d 61 8c 7c 3e
       0.22989383 0.036789346 0.05003449 0.24662925
0000f0 14 48 1f 3e 32 bf e7 3d f2 d1 97 3e ac 6e 2d bc
       0.1555484 0.113157645 0.29652363 -0.010585468
000100 f2 cb d6 be 2a 03 86 be 61 94 6a be 3a f7 2d be
       -0.41952473 -0.2617429 -0.22908165 -0.1698884
000110 d1 48 c8 3d d4 14 30 be 08 03 b4 be 22 33 bf be
       0.097795136 -0.17195445 -0.35158563 -0.373437

features.layers.0.logic.1.layer.0.mlp.0.bias f4 [8]
000000 d2 69 dc 3e eb ba 9b 3e f1 8d f1 be f9 27 53 be
       0.43049484 0.30416045 -0.47178605 -0.20620717
000010 01 a7 d4 be a7 d2 d8 3e aa ac 39 3e 43 df 27 3d
       -0.41533664 0.42348215 0.18132272 0.040984403

features.layers.0.logic.2.layer.0.mlp.0.weight f4 [8, 18]
000000 86 24 3b 3e da ea 3a 3e 7a b6 f1 3d d9 a8 5d 3d
       0.18275651 0.18253651 0.11802383 0.054116104
000010 d3 65 88 bd 93 75 e7 3d 7d 90 30 3c 96 52 6f 3d
       -0.066600464 0.113017224 0.010776636 0.05842837
000020 d1 6b 29 bd b2 9b 95 3d ec e1 0d 3e d8 15 52 bd
       -0.041362587 0.07305087 0.13855714 -0.051290363
000030 93 22 2f 3d 6b c6 66 3d f5 7a 10 bd a0 53 2b 3e
       0.042757582 0.05634157 -0.03527351 0.16731119
000040 ec e3 63 3e 40 cd be bc f3 ce 77 bd 82 6c 02 3e
       0.22254914 -0.02329123 -0.060500097 0.12736705
000050 6b 8d 62 3e c9 64 42 3b 33 3b d7 bc f8 c9 46 3c
       0.22124259 0.0029662123 -0.026273346 0.012133114
000060 97 a9 bf bd 28 38 64 bd 46 de cb bd 08 a5 ff 3c
       -0.093585186 -0.055717617 -0.09954505 0.031206623
000070 51 30 79 3e aa b6 d6 3d 1a 73 93 3d c3 7b 86 bb
       0.24334837 0.10484059 0.07199688 -0.004104109
000080 3c 5c e4 3c 1c 5b 3f 3e 35 6f 78 3c d6 d5 50 3c
       0.027876012 0.18687099 0.015163233 0.012746295
000090 d8 60 9c 3d d2 89 15 be 79 ad 25 3d e8 f5 62 bd
       0.07635659 -0.14603356 0.04044864 -0.055410296
0000a0 14 8d ae bd 77 fb b3 bd 6e e5 c9 bc c0 6b 09 be
       -0.08523002 -0.087881975 -0.024645533 -0.1342001
0000b0 4d 80 dd 3d 11 f3 a5 3d b6 17 63 bd 6b 9c 6f b9
       0.10815487 0.08103002 -0.055442534 -0.00022851086
0000c0 55 95 13 bd 50 d4 c3 bd 5d 2b e6 bc 44 39 e5 bd
       -0.036031086 -0.0956198 -0.02809685 -0.11192563
0000d0 b3 dd ea 3d b9 9d 5d 3b d8 00 e0 bc b8 df ac bd
       0.11468067 0.0033815934 -0.027344152 -0.084411085
0000e0 ff 38 a2 3d 31 62 68 bd 6c 56 7f bc 78 81 96 bd
       0.079210274 -0.056734268 -0.015584569 -0.07348913
0000f0 c8 6e dd 3d 9e 1d 19 be b6 bd 28 3e aa 4a 2f 3e
       0.108121455 -0.14952704 0.16478619 0.17118326
000100 cb 03 6b 3b 1d df 24 3e 14 34 29 3e 75 81 b5 3c
       0.0035860415 0.16100736 0.16523772 0.022156456
000110 a2 98 b7 bc 17 fb 0b be 49 a9 5d 3d 86 c7 2b 3e
       -0.022411648 -0.13670002 0.05411652 0.16775331
000120 16 c9 a6 3d d8 56 8c bb 77 a6 f1 3d dd 7a 25 3e
       0.08143823 -0.0042828135 0.11799329 0.1616015
000130 03 74 23 3e ba de f1 bd 3e 12 51 3d 65 3e 9b bd
       0.15962224 -0.1181006 0.051042788 -0.0758026
000140 8a 12 7d bc 5b de 3a 3e cc 8f ed bd a0 33 3b 3c
       -0.015446315 0.18248884 -0.11599693 0.011425883
000150 d9 0d c0 3d 14 bf f1 3d f5 10 97 3a 08 6e ff 3d
       0.09377641 0.118040234 0.0011525439 0.12472159
000160 4f bc d6 3d 13 98 03 3e 64 66 b6 3d c0 99 de bd
       0.10485136 0.1285098 0.08906248 -0.10869169
000170 4d fa 64 3d f7 8b c2 3c 22 23 51 bd c6 e8 ce bd
       0.055902768 0.023748381 -0.051058896 -0.10102992
000180 56 38 48 3e a8 54 4f 3d 93 9b ed bb c3 a7 a0 bd
       0.1955274 0.050617844 -0.007251212 -0.07844498
000190 47 29 07 3d 9f ba 5c 3e 63 f2 25 bd 9d 87 82 bc
       0.03299835 0.21555565 -0.04051436 -0.015933806
0001a0 48 02 c3 3d 2f 02 6a 3e d6 37 6c bd 0f 2c 64 3e
       0.095219195 0.22852395 -0.057670437 0.22282432
0001b0 b5 7f 9e bd ef 08 7a 3d 07 52 af bd d4 fa a3 bc
       -0.07739202 0.061043676 -0.08560567 -0.020017065
0001c0 36 6b d6 3d 72 63 02 3d f1 66 ce 3d 48 0d 09 be
       0.104696676 0.03183312 0.10078228 -0.13383973
0001d0 75 46 2e 3e 47 de 9b bd c8 ef 56 3e ae 7a ac bc
       0.17019065 -0.076107554 0.20989907 -0.021054592
0001e0 9b 5c 2f 3e 24 6c 4a 3e b3 a6 03 3e cf 9e f6 3d
       0.1712517 0.19767815 0.1285656 0.12042009
0001f0 b5 68 38 bd 79 de 54 bc 8b c7 2c be b7 39 b4 bd
       -0.04502173 -0.012992495 -0.16872995 -0.08800071
000200 af ef 24 3c f7 7c a4 bd 9d 71 8c 3c fb 0f 1b be
       0.010066911 -0.08031648 0.017144019 -0.15142815
000210 d8 27 f4 3d 51 ac de bd f6 58 e5 bc f1 6e b0 bd
       0.11921662 -0.108727105 -0.027996521 -0.086149104
000220 53 e7 88 bd 0d 12 8d bd fd 2b d0 bd 83 0e 4a be
       -0.066847466 -0.068882085 -0.1016464 -0.19732098
000230 fe c3 23 3d 31 06 33 be 1d 1e 28 3d 68 73 f2 bd
       0.039981835 -0.1748283 0.041044343 -0.11838418

features.layers.0.logic.2.layer.0.mlp.0.bias f4 [8]
000000 8a 40 73 3e 58 8d 31 bc d6 7b ff 3d c0 25 b3 bc
       0.23755088 -0.010836922 0.12474792 -0.021868587
000010 b2 4a 35 3e 89 f2 43 3e e1 6e 71 3d b7 33 0d be
       0.17704275 0.19135489 0.058943633 -0.13789259

features.layers.1.logic.0.layer.0.mlp.0.weight f4 [8, 42]
000000 02 80 4e bd a1 b6 73 3d 28 3f 03 3d cf 3b c8 bc
       -0.050415047 0.05950034 0.032042652 -0.024442581
000010 ef 8a ff 3d 57 d0 46 bd e0 1c e4 3d f5 90 ae 3d
       0.12477671 -0.048538532 0.1113832 0.08523742
000020 9f 07 d3 bc 9b bd 9f bc e8 3a 0a 3e 77 8a a5 3d
       -0.02576047 -0.01949959 0.13499033 0.08083051
000030 3d 53 cc 3d 81 ec bd 3d a3 4e e1 3d f9 83 92 bd
       0.09976814 0.09273625 0.11001327 -0.07154078
000040 b4 3a 09 3e 26 71 f8 3d bf 89 a5 3d a7 6c 75 bb
       0.134013 0.12130956 0.080829136 -0.0037448795
000050 cf 1a ae 3d 09 cc c1 3d 98 c4 2d bd d6 b8 13 3d
       0.08501207 0.09462745 -0.042423815 0.036064945
000060 2c 90 0b 3e 17 88 18 3a 3f 8a f7 bc 62 45 cd 3d
       0.13629216 0.0005818619 -0.030217288 0.10022999
000070 f9 c0 a0 bd 84 31 a2 bc f3 bf 2a bd e9 ba 65 bd
       -0.078493066 -0.019799002 -0.041686963 -0.056086455
000080 93 75 a9 3d 23 a6 b5 3c c3 98 14 bd 12 65 39 3d
       0.08274379 0.022173947 -0.036278497 0.045262404
000090 6e c6 b0 3a b8 92 3a bd b6 23 6e 3d 85 30 81 3c
       0.0013486871 -0.04555008 0.058139525 0.015770206
0000a0 30 8e b3 3b 1c 99 c6 bc 9d 76 0c bd b1 27 34 3d
       0.0054795966 -0.02424293 -0.034292806 0.043983165
0000b0 cc 4e bd 3d b8 a4 d8 3c 19 8f 8f 3b 3e 86 aa 3d
       0.09243545 0.026445732 0.0043810722 0.08326386
0000c0 21 51 80 bd 97 ad 92 bd 85 f0 20 3b 24 d9 8e bd
       -0.06265474 -0.07162016 0.0024557423 -0.0697501
0000d0 d7 6a e8 bb 02 3f ad 3d 39 1e 14 3e 7d 2e 65 3d
       -0.0070928144 0.084592834 0.14464654 0.055952538
0000e0 f8 02 8d 3d 0a 5e e2 3c 2d 7b 3a 3d 2a f2 3d 3d
       0.06885332 0.027632732 0.045527626 0.046373524
0000f0 cb 98 1b 3e 43 69 f9 3c 74 5c 7b 3d ba 02 15 bd
       0.15195005 0.0304457 0.061367467 -0.036379553
000100 7a 72 92 3d a9 53 f6 3d 92 40 3f 3d d8 9f 67 3d
       0.07150741 0.12027676 0.04669244 0.056548923
000110 f6 0d ec bc 1a f1 c6 3d 4d d4 07 3e 9e 14 d4 bc
       -0.02881525 0.09713955 0.1326458 -0.025888737
000120 f0 b2 8b 3d 3e 17 e3 bc d1 48 e7 3d 0b 09 02 bc
       0.06821239 -0.027721044 0.112931855 -0.007936726
000130 44 ef 21 3d c2 b1 e0 3d 4c 65 12 3d 47 aa 3b 3e
       0.039534822 0.109714046 0.035741135 0.18326674
000140 4b 51 cf 3c 37 bd c9 3d 0e 10 01 bd 4b 39 a4 3d
       0.025307318 0.09850543 -0.03150945 0.0801874
000150 1e bf 60 bd 4f 37 0c 3d ee 37 ed 3c 44 e0 ce bd
       -0.054869764 0.034232434 0.028957333 -0.10101369
000160 fa 8f 1d 3c 1c 9c 80 3c 37 3d 03 3e 14 e4 2a 39
       0.009616846 0.015699439 0.1281632 0.00016297429
000170 29 bd c3 3d 5e 73 b4 3c a2 8a 8d 3d 0b 42 bc 3d
       0.09557564 0.022027668 0.06911208 0.09192284
000180 eb e8 82 bd a2 8d 43 bc 5f d0 e7 3d 67 1f 54 3d
       -0.06392082 -0.011935623 0.113190405 0.05178776
000190 73 1e b9 3d 11 5a 93 bb 44 db 4d 3d a4 06 58 bd
       0.09039011 -0.0044968207 0.050257936 -0.052740708
0001a0 38 31 a0 3d fa 94 09 3e 68 e1 87 3c d6 80 ae bd
       0.07821888 0.13435736 0.016586974 -0.08520667
0001b0 b8 da 74 3d 50 73 b7 3d a4 14 80 3d c8 ca 25 3e
       0.0597789 0.08957541 0.06253937 0.16190636
0001c0 23 ba e8 3d 45 8f 44 bc 0f d2 93 3d 47 da e1 ba
       0.11363628 -0.011997049 0.072178 -0.0017231189
0001d0 37 85 0e bc 5e 19 cb 3d d0 34 c1 3d 0e bf 97 bc
       -0.008698753 0.09916948 0.09433901 -0.01852372
0001e0 f2 e8 f2 bc 67 ac 49 3e ec 97 73 bd de 91 da 3d
       -0.029652093 0.19694673 -0.059471056 0.10672353
0001f0 34 fc 01 3e 02 ad 4b 3d 25 85 c5 3c 4e f5 37 be
       0.12693864 0.04972554 0.02411134 -0.1796467
000200 1a 5f 5e bd 48 e6 86 bc 08 c2 4a 3c 74 8d 0b be
       -0.054289915 -0.016467229 0.012375362 -0.13628179
000210 2c 95 3b 3d 94 41 8e 3d c8 aa b1 3a b6 50 28 be
       0.04579656 0.06946102 0.0013554925 -0.16437039
000220 87 15 db bd 53 d5 03 3d b5 2b 28 be ea e5 69 bd
       -0.106974654 0.032185864 -0.16422923 -0.05710403
000230 8a 52 37 bd 04 a4 6d 3d a7 b2 f6 3c db 41 fe bd
       -0.04475645 0.058017746 0.030114485 -0.12414905
000240 09 a9 0d bd ce 44 02 be b8 d3 c1 bb 6c 8e 9b bd
       -0.034585033 -0.1272156 -0.0059151314 -0.07595524
000250 5f b5 ae 3b 69 a3 60 3c 61 0b de bd 9d 5a 29 3d
       0.0053316797 0.013710835 -0.10842014 0.04134618
000260 6a 8d 83 bd ed d3 08 bd 41 2c 0e 3c 76 14 29 3d
       -0.06423457 -0.033405233 0.008677543 0.04127928
000270 f2 97 0f be 14 bd 00 be 08 22 10 bd 36 95 da bc
       -0.14022806 -0.12572128 -0.035188705 -0.026682477
000280 a3 09 04 be de 2b 4c 3c 83 9e 83 bd 85 bf a2 bd
       -0.12894301 0.012461631 -0.06426718 -0.07946686
000290 2e 99 97 bd 6c c7 19 be c5 f0 ad bd f2 a2 5f 3c
       -0.074022636 -0.1501748 -0.08493189 0.013649689
0002a0 02 01 85 3d 09 1f 05 3e c0 7b 04 3e fb 20 cb 3c
       0.06494333 0.1300012 0.12937832 0.024796
0002b0 81 c6 10 bd 6a 87 93 3d 22 29 84 bd fc fd 62 bd
       -0.035345558 0.072035626 -0.06453158 -0.055418
0002c0 a2 df 92 bc 1d 7d 38 3d 26 1c 2c 3d c1 51 7c bd
       -0.017928902 0.045041192 0.042019032 -0.061601404
0002d0 5a 95 2d 3e 66 0f 1a 3e 3a ff 73 3d 24 00 24 bd
       0.16951504 0.15044937 0.059569575 -0.040039197
0002e0 81 df 06 bd 69 ad f0 3d 82 ad 78 3d 58 b1 32 3e
       -0.032927994 0.11751825 0.060712345 0.17450464
0002f0 7f 55 20 3e 7b 67 b3 3d a6 f0 1a 3e 85 88 fd 3d
       0.15657614 0.08759972 0.15130863 0.12379555
000300 14 45 a8 3d 97 97 0f bd 5e bc df 3d 7c 59 d0 3d
       0.082163006 -0.035056677 0.109246 0.10173318
000310 de bb b8 bc 87 96 b5 3d c4 83 99 bd 4a 49 32 3d
       -0.02255052 0.088666014 -0.074958354 0.043526925
000320 c0 87 e3 3d e5 bb ac 3b 50 f8 90 3d 2d 30 93 bc
       0.11109877 0.005271422 0.07078612 -0.017967308
000330 58 1a 02 bd c6 4a d3 3d 27 a2 e6 3d 3b 90 17 bd
       -0.031763405 0.10316996 0.11261397 -0.037002783
000340 09 c8 e2 3b 74 5c c2 bc 33 0d 91 bd 2c a7 88 3d
       0.0069208187 -0.023725726 -0.07082596 0.066725105
000350 4b 35 cd 3d a3 b4 8b bd 9d c3 a0 3d ea 41 e9 3d
       0.100199305 -0.06821563 0.0784981 0.11389525
000360 87 3f b1 3d 2d f2 8f 3d bc d3 21 3e f8 33 1e bd
       0.08654695 0.07028613 0.15803427 -0.03862378
000370 41 67 00 3e 1c bb a8 3d 67 32 29 bd 1a c7 e6 39
       0.12539388 0.08238813 -0.041307833 0.0004401736
000380 12 30 0b 3d 7c c0 29 3d ba ac 9e 3d a9 8f 69 bd
       0.03398139 0.041443333 0.07747789 -0.05702177
000390 ee 37 c1 3a fc 85 30 3e 6a 53 b8 3d d6 ba c8 bc
       0.00147414 0.17238611 0.09000285 -0.024503153
0003a0 d7 fe c5 3d be e2 08 3e c4 e9 fb 3d 90 27 03 bd
       0.096677475 0.13367745 0.12300447 -0.03202015
0003b0 33 7f 24 3e 18 e2 09 3e a7 a0 0b 3d 55 ee b0 bb
       0.16064148 0.13465154 0.034088757 -0.005399505
0003c0 e6 d2 1b 3c 28 a9 00 bd 0f 24 11 3d cf 90 3f bc
       0.009510731 -0.03141132 0.03543478 -0.01169224
0003d0 52 df 15 bd a6 50 db 3d e2 bb fa 3d 2f 9c 8e bc
       -0.036589928 0.10708742 0.12242867 -0.017408459
0003e0 c8 c0 c8 bb 4d 9b 5d bb a7 54 23 3d 89 72 1d 3d
       -0.006126497 -0.003381449 0.039875653 0.038439307
0003f0 de ab 03 3e ad 19 1e 3d 8e 4e d2 3d bc ef 59 bd
       0.12858531 0.038598705 0.10268889 -0.053207144

features.layers.1.logic.0.layer.0.mlp.0.bias f4 [8]
000000 37 50 05 3e 7b e8 a2 3d ef bc 54 bd f0 cc 21 3d
       0.13018881 0.079544984 -0.051937994 0.039502084
000010 06 6c 4b 3d 02 f8 c1 3d 00 21 fc 3d 51 a6 32 3c
       0.049663566 0.09471132 0.12310982 0.010903911

features.layers.1.logic.1.layer.0.mlp.0.weight f4 [8, 41]
000000 d0 8f b9 bd 1a 67 bb be 6a b3 8a be ac 8f 8e 3d
       -0.09060633 -0.36602098 -0.27090007 0.06960997
000010 18 96 13 be c9 06 61 3d da 52 55 be cf 34 74 be
       -0.14412725 0.05493811 -0.20832387 -0.2384827
000020 6e 74 d9 bd 94 f3 f7 bd 53 20 62 bd c5 35 99 bd
       -0.1061791 -0.12107006 -0.055206608 -0.07480959
000030 4b d4 64 bd 9c 16 c3 bd c7 b7 d6 bd 85 1b 2a bd
       -0.05586652 -0.09525797 -0.104842715 -0.04153015
000040 b6 f4 b1 bd b2 9e 92 be 4d cc 01 be 6e 3c 5e 3c
       -0.08689253 -0.286367 -0.12675591 0.013564212
000050 1d 84 c6 bd 98 0e 55 3c 57 3d 2c bc 2e 9a a1 bd
       -0.09693167 0.013003968 -0.010512671 -0.078907356
000060 6e 97 58 bd 69 c6 47 be 4e 4d 3c be 08 ad e8 bd
       -0.05287879 -0.19509281 -0.18388864 -0.11361128
000070 e8 8f 98 bd 24 3f ee bd 97 ad de bd 70 21 68 be
       -0.07449323 -0.11633137 -0.108729534 -0.22669005
000080 6e 8d 33 be 07 7b 2b be 6f 98 21 be fc b7 35 be
       -0.1753442 -0.1674615 -0.15780805 -0.17745966
000090 a2 fd 81 be ff 3c ee bd 32 4e 3b be 74 f0 9e bd
       -0.2538882 -0.11632728 -0.18291548 -0.077607065
0000a0 04 0f f9 bd 46 8f 43 bd 20 71 c4 be 2b d3 b7 be
       -0.12161067 -0.047744058 -0.38367558 -0.35903296
0000b0 65 64 16 be 0e 6e 3f be da 31 0e be 7c 05 a5 be
       -0.14686735 -0.18694326 -0.13886204 -0.32230747
0000c0 9a 61 28 be 31 7e 9e bd 03 84 c0 bd db e0 45 bc
       -0.16443482 -0.07738913 -0.09400179 -0.0120775355
0000d0 26 5d 22 3c cf aa 1f be bb 9c ce bd 68 da 1e bd
       0.009909904 -0.15592502 -0.10088488 -0.038782507
0000e0 5f 45 f8 bd 01 a8 81 bd 85 44 15 be b8 03 46 be
       -0.121226065 -0.06330872 -0.1457692 -0.19337356
0000f0 a9 ce 7f bc 58 1c bf bd d9 d8 94 bd c1 3e 1f be
       -0.015613236 -0.09331578 -0.07267923 -0.15551282
000100 36 19 26 be f4 bf c6 3c c1 00 8b be 2e 93 4b be
       -0.16220555 0.024261452 -0.27149013 -0.19880363
000110 05 f2 43 bd 8c 48 23 bd 46 24 77 bd 7a 0c ba 3c
       -0.04783823 -0.039864108 -0.060337327 0.022711027
000120 31 70 5c be 0c 6c 88 be 42 d5 da bd 90 9c 2b be
       -0.21527173 -0.26644933 -0.10685207 -0.16758943
000130 bf fd 01 be af 12 94 be 45 c7 a0 be ae 37 4c be
       -0.12694453 -0.28920504 -0.3140203 -0.19943115
000140 98 78 4b 3d 11 f4 71 bd 19 07 94 3d ad f1 37 be
       0.049675554 -0.05907065 0.07227916 -0.17963286
000150 4e d9 87 be 73 03 10 3d 05 3d 8a be 32 bf 80 3d
       -0.26532978 0.03515954 -0.2699968 0.062864676
000160 ac 86 36 be 6f 4c 0c be e1 26 81 3b 70 0a f0 bd
       -0.1782481 -0.13701032 0.0039414023 -0.11720741
000170 34 23 4b bd 84 6b e6 bd e1 c3 b8 bd 14 c6 19 bd
       -0.04959412 -0.11250976 -0.09021736 -0.037542418
000180 c0 e5 ed bc dd aa 3d be 6c fc 06 be 14 49 1b be
       -0.029040217 -0.1852221 -0.13182229 -0.15164596
000190 7a 6c 0f be aa c5 77 bd 09 e3 6c 3d c3 db 58 be
       -0.14006224 -0.06049124 0.057833705 -0.21177582
0001a0 87 18 6f bd 3c 24 8d be 25 18 d6 bd d6 5e 64 be
       -0.058373 -0.27566707 -0.10453824 -0.22301802
0001b0 eb 97 76 be dd 51 ea bd df 42 50 bd 07 ac b9 bb
       -0.2408139 -0.114413954 -0.050845023 -0.005666259
0001c0 c6 46 c7 bb bc 64 43 be 33 cf 2f be 13 25 55 bd
       -0.006081435 -0.19081396 -0.17168884 -0.05203731
0001d0 d4 d2 2b be 85 48 1b be f2 27 25 be b1 55 89 bd
       -0.16779643 -0.15164383 -0.16128519 -0.067057975
0001e0 37 69 5a bd 1b 0e 8e bc 96 85 ad bd b6 2a ff 3c
       -0.053322997 -0.01734071 -0.08472745 0.031148296
0001f0 07 b9 7d 3e 63 fb ad 3e 54 0c dd 3d 5e bd 92 3e
       0.24777614 0.33980855 0.10793367 0.286601
000200 ca a8 a2 3d 9c 26 e7 3e ce 37 e9 3e 54 4d b5 bb
       0.0794235 0.45146644 0.45550388 -0.0055329
000210 08 cb f5 ba 6b d0 2f bb d3 58 8f 3c a9 c1 a6 3d
       -0.0018752525 -0.0026827108 0.01749841 0.081424065
000220 09 20 99 3d 32 13 ee 3d 01 a0 db bb 2c 65 20 3e
       0.07476813 0.11624755 -0.0067024236 0.15663594
000230 62 ad 43 3e a5 65 0d 3e d8 3f 08 3e d5 64 a9 3d
       0.19109109 0.13808306 0.13305604 0.08271185
000240 5f f9 05 bd 77 a4 0c 3e 46 46 d6 3d c9 29 83 3d
       -0.032708522 0.13734613 0.10462622 0.06404454
000250 46 2a 40 3e f0 65 05 3e 8e 48 c1 3d bb 25 3f 3e
       0.18766126 0.13027167 0.09437667 0.18666737
000260 6b 58 c0 3d 55 ae 08 3e 9a 50 88 3e fc 17 13 3d
       0.093918644 0.13347752 0.26623994 0.035911545
000270 2e 3f 33 3e bb c9 27 3e c7 98 4e 3e af 9a 9f 3d
       0.1750457 0.16385548 0.20175467 0.077931754
000280 45 38 8f 3e 3b ab 3c 3e 76 d7 dd 3d 80 f9 f2 3d
       0.27972618 0.18424694 0.108321115 0.118639946
000290 39 66 44 3d b1 03 a5 3e ec c8 3e 3e e3 77 7c 3d
       0.04794905 0.3222938 0.18631333 0.06163777
0002a0 2e 59 8a 3e 80 48 11 bd 9d 1a ad 3e 21 e1 43 3d
       0.27021164 -0.035469532 0.33809367 0.04782212
0002b0 85 20 1b 3d e8 a5 03 3e 6c 82 c7 3d e6 75 7a 3c
       0.03787281 0.12856257 0.09741673 0.015286898
0002c0 70 8c 1a 3e e9 e6 6b 3d 80 e6 d8 3c 21 d7 7f 3e
       0.15092635 0.05759326 0.026477098 0.24984409
0002d0 ac f3 a6 3d 12 59 33 3e 25 a4 48 3e d8 76 f0 bd
       0.081519455 0.17514446 0.19593866 -0.11741418
0002e0 0a ca 68 3c 49 fd 92 3d 04 6f 19 3e 6a 61 85 3d
       0.014208326 0.071772166 0.14983755 0.06512721
0002f0 ce b5 e2 3d d6 d2 1d 3e 44 40 0f 3e 35 61 d0 3c
       0.11069833 0.15412459 0.13989359 0.025436977
000300 4e 9b 08 3e 78 f1 ff 3d a5 a0 11 3c 52 e1 0b 3e
       0.13340494 0.124972284 0.008888398 0.13660172
000310 b3 c3 53 3d 35 9e 66 3e 53 cc 24 3e 63 10 62 3e
       0.051700305 0.22521289 0.16093569 0.22076564
000320 3e 05 4d 3e 8c 26 96 3e 90 9d 86 3d 25 68 e6 bd
       0.20021531 0.29326284 0.065730214 -0.11250333
000330 98 75 13 bd 4a bd 00 ba cf 4c 0d be db e1 05 be
       -0.036000818 -0.0004911019 -0.13798831 -0.13074438
000340 40 2f 60 3d 62 a7 58 be 69 a8 96 bd 2e b2 9a be
       0.05473256 -0.21157601 -0.073563404 -0.30214065
000350 d2 be 53 be e7 73 55 be e2 f9 f0 bc c8 8f 71 bd
       -0.20678261 -0.20844994 -0.029416028 -0.05897501
000360 78 33 40 be 27 7d 14 be 28 3b 9f bd 7b c5 06 be
       -0.18769634 -0.14500867 -0.07774955 -0.1316127
000370 7a 4b 91 bd 0a 6f 2c be 44 7e ef bd 08 9b 12 be
       -0.07094474 -0.16839233 -0.11694005 -0.14316952
000380 ef e8 84 3d 20 c4 5b bd 64 be bf 3c 7b 04 f7 bd
       0.06489741 -0.053653836 0.023406215 -0.120614015
000390 9c 6d d6 bd 5d 53 62 bd 32 9c 63 bd d0 02 5d be
       -0.10470125 -0.055255283 -0.05556888 -0.21583104
0003a0 0d 42 41 be e6 71 8c be eb 7b af 3c a5 96 94 3b
       -0.18872853 -0.27430648 0.021421393 0.00453456
0003b0 ca 02 1c be 5a 24 17 3a 84 13 1d be de e0 55 be
       -0.15235439 0.00057656097 -0.15339476 -0.20886561
0003c0 50 ab 5d be 83 19 27 be 67 ae 7f be ad 39 3a bd
       -0.21647382 -0.16318326 -0.24968873 -0.04546516
0003d0 63 03 d6 bd 80 01 f8 3c e6 4f f7 3d 22 96 91 3e
       -0.10449865 0.030274153 0.12075786 0.28434855
0003e0 71 7b 14 3e 65 d6 b0 3d ec 74 28 3e 33 15 4e bd
       0.14500214 0.086346425 0.16450852 -0.050313186
0003f0 21 1e f9 3d eb ba 24 3e c5 19 d9 3d ae f8 0b 3e
       0.1216395 0.16086929 0.10600618 0.13669083

features.layers.1.logic.1.layer.0.mlp.0.bias f4 [8]
000000 6a 2b 1d be c3 f5 05 be e3 a9 fa bd d7 5b a2 3e
       -0.15348592 -0.13082032 -0.122394346 0.31710693
000010 f3 5c 88 3e a9 29 11 be 41 b7 78 3e cb 0f 23 3e
       0.26633415 -0.14176048 0.24288656 0.15923993

features.layers.1.logic.2.layer.0.mlp.0.weight f4 [8, 50]
000000 72 d1 08 bc 6d 6d 0e 3d b7 85 9b 3b 6f b5 1d bc
       -0.008350717 0.034772325 0.0047461647 -0.009625777
000010 f1 c7 89 bc 19 8c a9 bd 9b 6c 1a 3d 24 97 0d 3c
       -0.016818972 -0.08278675 0.03770123 0.008641992
000020 f7 2a 86 3d 40 a3 8d bd 54 94 ab 3c 6b ec b8 bd
       0.06551164 -0.06915903 0.020944752 -0.09029468
000030 99 6c bc 3d aa f3 df bd 34 9d 83 3d da c5 89 bd
       0.09200401 -0.10935147 0.064264685 -0.0672719
000040 13 0f 80 3d 0b 4a 0e bc b0 df 07 be 55 21 d6 bd
       0.06252875 -0.008684645 -0.13268924 -0.10455576
000050 05 03 49 bb e5 2e 2e 3d fd 4d 13 bd 5d 50 27 3d
       -0.0030671966 0.04252519 -0.035963047 0.040848125
000060 a1 b6 ea bd 9c 57 d8 bd b5 21 31 bc 47 d5 d1 bd
       -0.11460615 -0.10563585 -0.010811259 -0.102457576
000070 b1 d0 fe bc 45 7b 69 bd c5 85 f5 bd 95 20 e0 bd
       -0.031105371 -0.057002325 -0.11988405 -0.109437145
000080 22 47 d3 bd 2b e4 30 bd be 42 01 3d b0 69 19 be
       -0.10316302 -0.043186348 0.03155779 -0.14981723
000090 57 38 ce 39 84 bb 7a bc b5 b6 8d bd c3 7c 0c 3d
       0.00039333358 -0.015303496 -0.06919614 0.03429867
0000a0 53 64 3f bd 20 96 18 bd d2 b3 6b 3d 16 90 87 bc
       -0.046726536 -0.037252545 0.057544537 -0.016548198
0000b0 fb ad 37 3d bc e9 1e be ca cf 65 bd d9 76 86 bd
       0.044843655 -0.1551885 -0.056106366 -0.06565637
0000c0 5a 89 61 3d cb e1 47 bb e9 17 ad bd 31 6a c6 3d
       0.05506263 -0.0030499573 -0.08451826 0.09688223
0000d0 65 f2 3b 3d 19 3c 27 bd 02 d5 95 bd b0 ba ac bd
       0.045885462 -0.040828798 -0.07316019 -0.08434045
0000e0 d7 bb f0 3c 89 a4 0c 3d cf 97 0f be ee c8 41 3d
       0.029386444 0.0343366 -0.14022754 0.047310762
0000f0 4b 28 fc bd 55 1c b6 bd 1a 92 4c bd 85 65 12 bc
       -0.12312373 -0.08892123 -0.04994402 -0.008935337
000100 37 5f 52 3d e4 b4 06 bd 45 7c bc 3c 11 83 b7 3c
       0.051360335 -0.032887354 0.023008475 0.022401365
000110 05 49 2d bc cd 90 05 be fb 5d 72 bd d4 e5 31 bd
       -0.010576491 -0.13043518 -0.059171658 -0.04343207
000120 5a 05 a3 3b f1 17 a0 3d 2e d1 ed bc 83 4c 1d bd
       0.004975003 0.078170665 -0.029030409 -0.038403045
000130 48 5f 01 3d 4e 25 78 bd d4 e8 9c bd 52 74 5c bd
       0.031585008 -0.06058245 -0.07661596 -0.05382187
000140 d0 9c 8b 3c 20 4f 3f bc 29 76 8d bd 88 84 f3 3c
       0.017042547 -0.01167658 -0.06907303 0.029726282
000150 6c 2c b7 bd b9 e1 28 3d 3e 68 ea 3d c2 f9 9d 3d
       -0.0894402 0.04123089 0.11445664 0.07713653
000160 74 9f b5 3d ff 20 f7 3c f6 1a 78 bd b9 a3 55 bc
       0.08868304 0.030167101 -0.060572587 -0.013039523
000170 9c 7d b9 bd b3 1b 26 3d d6 15 87 bd 86 1a 88 bd
       -0.09057161 0.04055376 -0.06595962 -0.06645684
000180 9d 7b 75 3d 9a fd 0b be d5 f9 2d ba a8 f8 ce 3d
       0.05993234 -0.1367096 -0.0006636654 0.10106021
000190 09 51 88 3d 43 71 e7 bc fc a8 da 3d 50 26 b4 3d
       0.06656081 -0.02825225 0.106767625 0.0879637
0001a0 67 79 02 bd db a4 0c bd d8 b2 11 3e ba 79 ad 3d
       -0.03185406 -0.034336906 0.1422838 0.08470483
0001b0 fa 77 48 bb 96 bf 25 3d 0b f7 ff 3d 51 72 2d bd
       -0.003058909 0.040465914 0.124982916 -0.04234535
0001c0 84 57 8f bc c9 78 c6 ba 2b 6c 82 bd 95 d4 bd 3d
       -0.017497785 -0.0015142198 -0.06368288 0.092690624
0001d0 51 42 92 3c e5 23 6d bd c5 34 84 3d 87 96 24 3c
       0.017853888 -0.05789556 0.064553775 0.010045654
0001e0 a9 32 94 3d 37 52 a1 3b a1 08 4b bc 1b 26 1b 3e
       0.07236225 0.004923131 -0.012392194 0.15151255
0001f0 db 92 b9 3c cd 21 fe 3c fd 2e 2f bc 80 4c 17 3e
       0.022653034 0.031021977 -0.010692355 0.14775276
000200 82 6b 46 3d 7b 49 ee 3d a9 21 41 bc bc 2f ba 3d
       0.04844237 0.11635109 -0.01178781 0.09091136
000210 01 79 ba 3d 77 ef 10 3e e9 b4 1b 3e 1f c7 43 3d
       0.09105111 0.14153849 0.1520573 0.04779732
000220 45 d8 92 3d b8 d6 96 39 7d 77 9b bd 35 d8 15 3e
       0.071701564 0.00028770207 -0.0759115 0.14633258
000230 21 50 cd 3d 77 80 ad 3d cb 54 8d 3d 4c 66 ef 3d
       0.10025049 0.08471768 0.069009386 0.116894335
000240 16 48 f3 bd ac 77 2f 3a 74 96 f3 3d cf bb a2 3d
       -0.11878984 0.0006693553 0.11893931 0.07945978
000250 23 b7 1f 3e 88 0e a4 ba e1 5d de bd f3 b1 d1 bd
       0.15597205 -0.0012516538 -0.1085775 -0.10239019
000260 28 5a 92 3d e8 b8 8e bd 57 e8 90 bc 03 07 8f bd
       0.07146102 -0.06968862 -0.017688913 -0.06983759
000270 52 fd 5f 3d ac 67 a0 bd db 07 4c 3d 8d e1 66 bd
       0.054684944 -0.07832274 0.04981218 -0.056367446
000280 c0 ce 97 bd 58 9e 9b bd a2 6d 8f bd 68 65 fa bd
       -0.07412481 -0.07598561 -0.07003333 -0.12226373
000290 ca 81 b7 bd 96 bf 9f 3c 08 00 09 3e 17 67 d2 3b
       -0.08960302 0.019500535 0.13378918 0.0064209807
0002a0 2d 72 7b 3d 33 68 62 3d 25 3d da 3d 7e c0 bf bd
       0.061388183 0.055275153 0.10656194 -0.09362887
0002b0 7b 37 ca bb 77 6b b8 bc 90 75 9e 3d 70 0c c1 bd
       -0.0061711646 -0.02251218 0.07737267 -0.094262004
0002c0 fc b2 21 bc 2f 32 3d bb 25 4c 0e 3e ee a4 af 3d
       -0.009869333 -0.0028869023 0.13896234 0.0857638
0002d0 9f b1 7b bd 51 81 c2 3c 6c ad 02 be 2d 00 58 bd
       -0.06144869 0.023743303 -0.12761468 -0.052734543
0002e0 52 4c 89 bd ba f1 f9 3c 01 bf 88 3c 41 e3 28 bd
       -0.0670401 0.030510772 0.01669264 -0.04123235
0002f0 f9 dc 87 bd 71 9e 69 bb 5f 69 72 3d 5c 5e 87 ba
       -0.06633944 -0.0035647417 0.05918252 -0.0010327804
000300 e7 e2 89 bd 54 97 00 3d ca e2 bd bc 87 d5 93 bd
       -0.06732731 0.031394318 -0.02317943 -0.072184615
000310 8a db a6 3d a3 d0 7d 3d 73 6e a3 bd 69 f0 f0 bd
       0.081473425 0.06196655 -0.07980051 -0.117646046
000320 80 f9 01 3d 0a e9 a9 3d 24 a7 66 bc 5e 3b a6 3d
       0.031732082 0.08296402 -0.014077935 0.08116792
000330 56 c9 85 bd 19 f2 ac 3c 1d c1 89 bd 56 e6 cd 3d
       -0.065325424 0.021111535 -0.067262866 0.10053699
000340 b4 34 b2 3d 2c 78 b2 bc 6d 8a 38 3e 0e 11 c3 3b
       0.087014586 -0.021785818 0.18021555 0.005952961
000350 07 02 80 3d 3b 91 63 bb 92 76 9d bc b2 ab 27 3d
       0.06250387 -0.0034724015 -0.019221578 0.040935226
000360 35 fb d9 bd 35 e2 c9 3d 6f 2f 09 3d 3c fd 96 bd
       -0.10643617 0.09857599 0.0334925 -0.073725194
000370 90 bb 6b 3d d4 d2 14 3e a8 a9 0f 3d 06 12 a8 3d
       0.05755192 0.1453355 0.035073906 0.08206563
000380 39 c8 06 3c c1 03 c0 3d a5 29 41 3d 00 89 54 3d
       0.008226448 0.09375716 0.047158856 0.051888466
000390 9d bc 1a bd 7f 16 1e 3d ca 26 10 3d a3 99 86 3d
       -0.037777532 0.038595673 0.035193242 0.06572273
0003a0 d6 1b 27 3d e5 4a 1f 3e 78 2c bc 3d 99 8a 94 3d
       0.04079803 0.15555914 0.09188169 0.07252998
0003b0 0c 4d 97 bd 3a 60 cb 3d 4d 14 e6 bb 4e ee b8 3d
       -0.073877424 0.09930463 -0.007021463 0.09029828
0003c0 08 02 1b 3e 57 67 0e bc dc f2 5b 3d f6 f8 ae 3d
       0.15137494 -0.00869163 0.053698406 0.08543579
0003d0 78 b3 f3 3d 9f 18 b5 bc f1 5f bd 3d 81 46 7f 3d
       0.11899465 -0.022106467 0.09246815 0.062323097
0003e0 2e 80 c0 3d 0c 12 5b 3c bd cc 09 3c 44 11 37 3e
       0.09399448 0.013371002 0.00841063 0.1787768
0003f0 5e d9 3b bd 66 26 09 3e 0f b2 4d bd 5a 21 02 3d
       -0.045861594 0.13393554 -0.050218638 0.031770088

features.layers.1.logic.2.layer.0.mlp.0.bias f4 [8]
000000 18 c5 01 be ca 11 8b 3d bf 78 4a 3d 34 b7 0c 3d
       -0.12672842 0.06790502 0.04943156 0.034354404
000010 35 80 a6 3c 66 39 a0 3c e4 ab 37 be ba 00 b2 3d
       0.020324806 0.01955862 -0.17936665 0.08691545

features.layers.1.logic.3.layer.0.mlp.0.weight f4 [8, 48]
000000 de 85 1f 3e e9 90 ad 3d f1 3f 70 3d 2a c4 98 3d
       0.1557841 0.08474905 0.05865473 0.0745929
000010 08 21 8b 3d 43 81 5d 3c 33 3d ab 3c 89 7d 78 3d
       0.067934096 0.013519588 0.020903205 0.060666595
000020 3d 53 54 bc 5b 7a b0 3d 8d 60 84 3d fa 39 ae bd
       -0.012959299 0.086170875 0.06463728 -0.08507152
000030 fe 4f 50 3d 8a 71 69 3b 68 94 36 bd 0c 63 b3 3d
       0.050857536 0.0035620653 -0.044575125 0.08759126
000040 6e 9d 0d 3e 0e c1 12 bc dc 3d fb 3d 27 c7 a4 3d
       0.13829586 -0.008957161 0.12267658 0.08045798
000050 ea 95 82 3d 82 27 04 3e fe a4 96 3d 76 34 0b 3d
       0.0637625 0.12905696 0.073556885 0.033985578
000060 e1 9e 8e 3c 80 88 c4 3c f4 c0 ec 3d 3b 98 72 3b
       0.017409744 0.02399087 0.115602404 0.0037017006
000070 59 c1 37 bd 24 d7 67 3d cf b5 e6 3c 7c 04 86 bc
       -0.044862125 0.05660166 0.028162865 -0.01635956
000080 fd 50 fb 3b 6e 8d 4c bd 8b c1 c7 3d 1d 2c 27 bd
       0.0076695667 -0.049939565 0.09753712 -0.040813554
000090 e1 a4 d2 3d 07 9b 92 3d e0 c2 22 bd 46 1e a8 3d
       0.102853544 0.07158475 -0.03973663 0.08208899
0000a0 e2 22 dc 3d 6c 17 eb 3d 14 13 a8 bc cc 33 01 bb
       0.10748841 0.11479077 -0.02051691 -0.0019714711
0000b0 c8 67 89 3d 0c 4c 5d 3d 09 66 bd 3d c9 64 d2 ba
       0.06709248 0.054027602 0.09247977 -0.0016051765
0000c0 4e 23 c8 bc 65 a2 8f 3d 5c 0a cf 3d e5 e4 e8 3c
       -0.024430897 0.07013396 0.10109398 0.028429458
0000d0 48 90 8d bc e1 28 86 3d 02 48 fa 3d 39 0e 40 3d
       -0.017280713 0.06550766 0.12220766 0.046888564
0000e0 59 93 6c 3c 7e 81 a1 3c 65 e2 9b bd c7 8e 11 3e
       0.014439427 0.019715067 -0.07611541 0.14214621
0000f0 69 ee 6e 3d 06 4c 89 3c f8 b8 89 bc a7 2d 8f bc
       0.058332834 0.016759884 -0.016811833 -0.017477823
000100 c3 bb b6 bd 07 33 c1 bd 5e a5 fd 3a d9 2e fa bc
       -0.089225315 -0.09433561 0.0019351651 -0.030539917
000110 6a 42 0f 3d 3c b9 72 bd 82 b2 21 3d ef 90 b4 3a
       0.034975447 -0.059258685 0.03947688 0.0013776104
000120 7d 45 ca 3d 7f 51 fa 3d d8 3b b4 3d 04 9b ef bd
       0.09876535 0.122225754 0.08800477 -0.11699489
000130 06 c7 6f bd aa 3d 84 3d 0f 7c 0a 3d 84 0c 5e bc
       -0.058539413 0.06457074 0.033809718 -0.013552789
000140 64 d9 9c bd 6b ca fa 3d 5e 9a 37 bd 3d 7f 9d 3d
       -0.076586515 0.122456394 -0.04482495 0.076902844
000150 24 7f 3c bd 4e ef 8a 3c 39 e4 35 bc 4b d0 48 bd
       -0.04601969 0.016959812 -0.011101776 -0.04902677
000160 e3 19 88 bd e3 3b 93 bc 73 ce b0 bd 24 43 c4 bd
       -0.066455625 -0.017972892 -0.08633127 -0.095831186
000170 76 ee cd 3a 1e 9e e6 3c 23 88 99 bd 32 62 95 3c
       0.0015711326 0.028151568 -0.07496669 0.0182353
000180 df 9a de 3b 50 bd 9c bd 40 e0 1d bd a3 24 9a 3d
       0.0067933644 -0.07653296 -0.03854394 0.07526519
000190 ca ff 41 3c cb c9 a1 3d 7d 11 f1 3d 68 a4 d4 3d
       0.01184077 0.07899817 0.11770914 0.103829205
0001a0 cd d0 d4 bc b2 e4 cb bb 88 72 a0 3d 71 4e c0 3d
       -0.02597847 -0.006222331 0.07834345 0.093899615
0001b0 fd ff 30 bd b9 7a 74 bd 8a 9c b9 3d 54 ad 5e 3d
       -0.04321288 -0.05968735 0.090630606 0.054364517
0001c0 3a 8b 38 3d 67 d7 e7 3c a5 76 48 3d da 0d 5b bd
       0.04505465 0.028300954 0.048941273 -0.053480007
0001d0 f5 e8 83 3d b5 d2 ac 3d d1 66 76 bb ef 22 26 3d
       0.064409174 0.08438627 -0.0037597904 0.04056066
0001e0 ee 40 0d 3e 87 c7 12 bc af 42 26 3d de a8 da 3c
       0.137943 -0.008958704 0.04059094 0.02669185
0001f0 25 f0 03 3d 8c 09 3e 3d 0f 93 8b 3c 46 f3 6a 3d
       0.03221144 0.046395823 0.017037896 0.05736091
000200 e6 77 82 bc 2e 0d 80 bd 16 38 c5 bd c9 b8 cd 3d
       -0.015926313 -0.06252514 -0.09629838 0.100450106
000210 1b 99 ea bd 5f 24 e5 bc bd 24 83 3c a1 1a 99 3c
       -0.11454984 -0.027971445 0.01600873 0.018689455
000220 72 0b 0b 3e 5d b6 58 3c 5a 0c d8 bd 4e c1 fd 3c
       0.13578585 0.013227073 -0.10549231 0.030975964
000230 55 0d 8b 3b f5 dd c4 3d 06 4a dd 3d cb 20 40 3d
       0.0042435327 0.096126474 0.108051345 0.046906274
000240 57 32 d8 3c 96 d7 89 bd 3a 1d b8 bd 32 d7 b7 3b
       0.026391191 -0.06730573 -0.089899495 0.00561037
000250 60 3e 1b bd b7 8e 6c 3d c8 80 01 3e 24 40 52 3d
       -0.037901282 0.05775329 0.12646782 0.0513307
000260 c9 d4 96 3d 40 d5 d6 bc c0 cf 56 3d b4 b8 b7 3b
       0.07364804 -0.026224732 0.05244422 0.005606735
000270 2d 7e c4 3d 34 03 19 3e 26 8e d0 bc 87 23 eb 3d
       0.095943786 0.14942628 -0.025458407 0.11481386
000280 6c 0e 89 3d e1 3a e6 3b d0 ec 64 bd 3a 95 06 bc
       0.06692204 0.007026062 -0.055889904 -0.008214289
000290 dc 31 51 bd 6d 03 81 3d ab 52 42 3d c3 3d 83 bd
       -0.05107294 0.062994815 0.04744212 -0.064082645
0002a0 6e d6 1c 3e 4d 45 00 3e a6 a3 d1 3d c4 1e 46 3d
       0.15316173 0.12526436 0.102362916 0.048369184
0002b0 d3 34 e9 3c cc 59 26 3e bd 9a 00 3e 57 d7 0c 3d
       0.028467571 0.16245192 0.12559028 0.03438505
0002c0 7f 28 c0 3d 0b e9 50 bd 8e 56 a1 3c d2 c1 af bd
       0.09382724 -0.051003497 0.019694593 -0.0858189
0002d0 d3 94 b8 bd 48 c1 a0 3c da 98 b2 bd e2 a5 7d bd
       -0.09012761 0.019623414 -0.0872056 -0.061925776
0002e0 71 8d d2 3d ca 86 19 bc e5 af ea 3c 82 1c 34 bd
       0.10280884 -0.009370515 0.028648326 -0.0439725
0002f0 07 8d 8f bc 01 1f b8 bb 92 d6 32 bd 6b 3d 07 3e
       -0.017523302 -0.0056189303 -0.04366166 0.13207023
000300 bb 48 c8 3c 31 39 f0 bc 64 0e 34 bd 18 4a c6 3d
       0.024448743 -0.029324146 -0.043959036 0.09682101
000310 8a d6 67 bd 5c c8 f3 3d d5 5c 2a bd 84 1a e8 3c
       -0.056601085 0.1190345 -0.041592438 0.028332956
000320 de 4a 32 3d af 97 c0 bc 19 de 2d 3d 30 d2 3c 3d
       0.04352843 -0.023509828 0.042448137 0.046098888
000330 f8 27 2f 3d dd cf 47 3c 84 2f da 3d ec 3c ec bc
       0.042762727 0.012195555 0.10653594 -0.028837644
000340 7a 71 6e bd d2 0e 4d ba 85 e5 8c bd 3f 03 9f 3d
       -0.05821369 -0.0007822338 -0.06879715 0.07764291
000350 36 90 6d 3d 67 41 04 3e 54 cf e9 3d 8a e3 8d bd
       0.05799886 0.12915574 0.11416498 -0.06928165
000360 c2 ae 9a 3d 4a e4 a2 bd f1 c5 d7 bc 94 66 7d bc
       0.07552864 -0.07953699 -0.026339503 -0.015466351
000370 b1 89 34 3d 0c 2d 40 3a 1e 15 bc bd e2 af 7d bd
       0.044076625 0.0007330931 -0.09183715 -0.061935313
000380 98 f5 d3 bc 07 fd c4 bd d3 ed bc 3c 1d e1 9b 3d
       -0.025873944 -0.09618574 0.023062622 0.07611296
000390 f6 d5 03 bd 04 55 c3 bb 07 29 9a 3d 25 8b b9 bd
       -0.03218647 -0.0059610624 0.075273566 -0.09059743
0003a0 84 fe 34 bd fd 36 ea 3d f2 48 65 3d 93 66 80 bc
       -0.044188038 0.114362694 0.05597777 -0.015673911
0003b0 ab 3c f4 3b 21 87 a0 3c d2 61 7d 3d 94 73 64 3d
       0.0074535212 0.019595684 0.061860867 0.055774286
0003c0 bc e9 3d bd 08 fd d3 3d e0 fe 18 3d 9d 69 a0 bd
       -0.046365485 0.10350996 0.037352443 -0.07832644
0003d0 a0 5f 95 3d b1 45 81 bc 0c e0 93 3d 01 34 c1 3d
       0.0729363 -0.015780302 0.07220468 0.09433747
0003e0 36 15 e1 3d c1 f8 09 3d ad d2 b5 bc b7 59 96 3d
       0.10990374 0.033684496 -0.022195185 0.073413305
0003f0 aa 2b dd bc 86 72 c0 3d cf dc d4 3d c1 25 a8 bd
       -0.02699836 0.093968436 0.103936784 -0.08210326

features.layers.1.logic.3.layer.0.mlp.0.bias f4 [8]
000000 2f 22 9b 3d a0 48 a5 bd 32 a9 8a 3a 34 37 9e 3a
       0.075748794 -0.08070493 0.0010578989 0.0012070895
000010 fe 5f ca bc 40 d5 f7 3b f5 41 06 3e 80 23 78 3d
       -0.024703976 0.007563263 0.13111098 0.06058073

features.layers.2.logic.0.layer.0.mlp.0.weight f4 [8, 66]
000000 cb 43 64 bd 01 81 e0 3d b5 07 ea 3d 9f 5f 85 3d
       -0.055728715 0.109621055 0.11427251 0.06512379
000010 13 e4 33 3c d5 ae a8 3c 43 00 c3 3d 66 c9 eb bc
       0.01097967 0.020591179 0.09521534 -0.028782558
000020 c0 20 53 bd 10 16 bd 3d 7f 31 98 bc b7 25 4b 3b
       -0.051544905 0.09232724 -0.01857829 0.0030997822
000030 b0 08 00 3e 00 29 96 3d a4 c4 69 3d b2 48 54 3c
       0.12503314 0.07332039 0.057072297 0.012956785
000040 1d 24 1b 3d bf 12 b1 3d 76 ba c7 3c 11 19 3b 3d
       0.037876237 0.08646154 0.024380904 0.045678202
000050 d2 92 de 3c cd 01 b5 ba 7b 96 0a 3d 6f 82 ee 3d
       0.027169619 -0.0013809741 0.033834916 0.11645972
000060 ca 4c 13 3d fd 44 1c 3d 35 38 f0 3d 1b fe 00 bb
       0.035961904 0.03815173 0.11729471 -0.0019682709
000070 0c 75 99 3d 85 3b d5 3d 84 48 31 bd 69 79 2a 3d
       0.07493028 0.10411743 -0.043282047 0.041619692
000080 30 9b 07 3e 7a b9 fb 3d c0 75 78 3c a0 ec 42 bd
       0.13242793 0.12291236 0.015164793 -0.047588944
000090 34 a9 c0 bb 6d 63 f0 bc 7a d2 52 bd b5 0c 86 bd
       -0.0058795456 -0.029344285 -0.051470257 -0.065453924
0000a0 cb f0 fe 3d 45 4c 30 3a 14 5d 34 bd 4e 48 57 bc
       0.12448271 0.0006725232 -0.04403408 -0.013139797
0000b0 a7 10 84 3d 14 87 03 3e 0d c2 be 3c 3a 0d d7 3d
       0.06448489 0.12844497 0.02328589 0.1050057
0000c0 3c b5 34 bd 86 f1 43 3d 40 2b 7a 3d 54 06 62 bd
       -0.04411815 0.047837757 0.061076403 -0.055181816
0000d0 5e 58 0d bd d1 17 4d bd d8 75 9e 3d 06 b4 21 3d
       -0.0345081 -0.05007154 0.07737321 0.039478324
0000e0 82 b2 83 3d 81 94 04 3e ee 3b 44 3d 54 39 19 3e
       0.06430532 0.12947275 0.047908716 0.14963275
0000f0 24 ee d9 ba cb 8b d3 3d 70 9c 2b 3d 3d 69 93 3d
       -0.0016626758 0.10329398 0.041897237 0.07197807
000100 69 40 84 3d af 38 b6 3d 28 d6 2b bd 60 dd a0 3d
       0.06457598 0.0889753 -0.041952282 0.07854724
000110 04 ea a5 3d db 2a 98 3d 99 73 d2 3c 45 b1 0a bd
       0.081012756 0.07430049 0.025689887 -0.033860464
000120 32 3f 91 3d c2 e2 98 3d ed 33 61 3d 9f 05 71 3d
       0.07092132 0.074651256 0.05498116 0.05884325
000130 ad 88 87 3d 9b b4 b6 3d 3b 75 27 bd 34 a8 da 3d
       0.06617866 0.089211665 -0.040883284 0.106766135
000140 3a 2a cd 3d 3e 3f 53 bd f4 d1 04 3d 09 84 1b 3d
       0.1001782 -0.051573984 0.03242679 0.037967715
000150 30 f5 ca bc 15 70 b4 3d b6 59 a5 ba 44 61 f0 bc
       -0.024775118 0.088104405 -0.0012615237 -0.029343255
000160 53 17 0d 3e fb 74 70 3d 89 bf 06 3e 79 fd 9c 3d
       0.13778429 0.05870531 0.13159002 0.076655336
000170 a3 4b b3 3b fb 98 9a 3d 19 4d fa 3d 18 ea 31 bd
       0.005471663 0.0754871 0.122217365 -0.04343614
000180 7f c0 0f 3d 73 a1 ee 3d 37 e0 03 3d b5 1a b9 3d
       0.035095688 0.11651888 0.03219625 0.09038297
000190 47 e7 03 3e 8a be 6f 3d 14 06 ad 3d e1 6b 42 bd
       0.12881194 0.05853132 0.08448425 -0.047466163
0001a0 dd d1 40 3d 84 5e b9 3d f6 fc d5 3d a3 b8 d0 3d
       0.04707514 0.090512305 0.10448639 0.10191467
0001b0 be 04 0a bd e5 2b b0 bc a1 b6 42 3d a4 c0 f7 3d
       -0.03369593 -0.021505306 0.04753745 0.1209729
0001c0 48 78 6c 3c c1 5c 1f bd 2b b4 d8 bc 56 1d b0 3c
       0.014432974 -0.038906816 -0.026453098 0.021498363
0001d0 5c c0 5d bd 1a 9c 44 bd f7 74 d4 3d 9e 1f ca 3c
       -0.054138526 -0.048000433 0.10373872 0.02467328
0001e0 43 97 14 3d 38 f4 ab bc 12 05 62 3d 2b 15 cc bc
       0.036277067 -0.020990476 0.055180617 -0.024912437
0001f0 fc 4f d3 3d e5 9e 99 3d f1 3d 6d 3d 6d e5 8c bd
       0.1031799 0.0750101 0.0579204 -0.06879697
000200 48 07 a9 3d 6c 71 af 3b 8a fe dd 3c 7b 69 bb 3d
       0.08253342 0.005354097 0.027098913 0.09150978
000210 03 6f 29 3d 4a 38 76 bc 75 a0 d3 3d 4a 71 a2 bd
       0.041365635 -0.015028069 0.10333339 -0.079317644
000220 9c bb 64 bd 89 27 bc 3d 00 fc 9d 3c f2 e6 21 bd
       -0.05584298 0.09187228 0.019285202 -0.039526887
000230 e1 9b f3 3c 7b c5 e9 3c 43 92 f5 3d 83 59 7a bd
       0.029737415 0.028536549 0.11990788 -0.06112052
000240 06 de 35 bd 77 62 fa 3d 84 7e 09 3c eb 7b 25 bd
       -0.04440119 0.12225812 0.00839198 -0.04040138
000250 0c 63 93 3c f7 c9 aa 3d be ef e3 3d 32 5d 08 3d
       0.017991565 0.08339303 0.111297116 0.033292003
000260 5e 00 f7 3d cd 11 5c ba 8b 65 81 3d 1e ba 84 3d
       0.12060617 -0.00083949865 0.06318196 0.064808115
000270 b5 ac c9 3c 19 1d d0 3d 6e d2 bf bc 93 fd 51 bd
       0.024618486 0.101618 -0.02341577 -0.051267218
000280 2d 41 f2 bc f4 12 64 3c 68 07 31 bc ab 96 fd 3d
       -0.029572094 0.013920534 -0.010804988 0.12382253
000290 07 5d d9 3d fc 66 bf 3b 81 12 ce 3d 63 c4 d4 3a
       0.10613447 0.005841134 0.10062123 0.0016232844
0002a0 29 30 c4 3b a1 a0 cb 3d f4 dc 52 3c e7 54 8b 3d
       0.0059871865 0.09942747 0.012870062 0.06803303
0002b0 f7 dc 16 3d 09 05 3b 3c 3f de 68 bd bf a9 ec 3d
       0.036831822 0.011414775 -0.056852575 0.11555814
0002c0 fb f7 03 bd c2 30 26 3d 88 00 80 bc d1 f5 85 3d
       -0.032218914 0.040573843 -0.015625253 0.065410264
0002d0 c0 cb 02 3d 8b 6b a1 3d be e7 3a bc 07 71 59 bc
       0.031932592 0.0788184 -0.011407791 -0.013271577
0002e0 d3 bf b1 3d d9 b7 a3 3b 13 61 88 3d 00 0c 9b 3d
       0.08679166 0.0049962816 0.066591404 0.07570648
0002f0 4c 30 11 bd d3 37 b2 3c a0 dc 5a 3c 94 65 0b 3e
       -0.03544645 0.021755135 0.013358265 0.13612968
000300 64 84 80 bd e4 7a d5 bc b9 06 ae 3d 63 26 19 3e
       -0.062752515 -0.026059575 0.08497376 0.1495605
000310 fa e0 a2 3d 08 2d f1 3d 75 6c c7 bd c3 07 29 bd
       0.07953067 0.11776167 -0.097374834 -0.041267168
000320 76 84 0e bc b5 41 c4 bd b6 3a 81 bb d5 42 18 bd
       -0.008698573 -0.09582845 -0.0039437665 -0.03717311
000330 ef 32 1b 3d a9 b4 af bb be 7c 43 bd a8 e3 7c 3d
       0.03789037 -0.0053621125 -0.047726385 0.061740547
000340 c9 46 ce bc 19 48 c5 3c db 5f d2 3c e2 dc 2c bc
       -0.025180237 0.02408223 0.025680473 -0.010550709
000350 9a 93 0a 3d 50 c8 25 bb fc aa 9a 3d 08 4f ca bd
       0.03383217 -0.0025296398 0.07552144 -0.09878355
000360 a8 f4 7c 3d 89 ac e6 bc 60 99 c5 3d 72 bf 25 3d
       0.06175676 -0.028158443 0.096483946 0.04046578
000370 71 9e 0f 3e 63 1a ef bd 63 4c df 3c 89 5f d2 bd
       0.14025284 -0.11674955 0.027258104 -0.10272128
000380 89 2f 35 3c b6 06 8a 3d b5 01 b4 bc 54 b2 d6 ba
       0.011058697 0.06739561 -0.02197347 -0.001638005
000390 18 87 48 3c 72 d5 8b 3d b3 31 55 3d 33 f3 a7 3b
       0.01223924 0.06827821 0.05204935 0.005125427
0003a0 b2 09 07 3c 02 be be 3d 7e f1 4b bc e5 57 3f 3d
       0.008242058 0.09313585 -0.012447713 0.046714682
0003b0 32 fe f0 bd d7 3f 13 bc 4f e3 44 bd e5 b5 5f 3c
       -0.11767234 -0.008987389 -0.04806834 0.013654207
0003c0 8c c8 65 3d 5b 04 8c 3d b8 96 9b 3d 42 e5 75 3d
       0.05609946 0.06836768 0.07597107 0.06003309
0003d0 05 da 85 bd 05 e7 d1 3c 53 ce 4f 3d 5c f9 58 3d
       -0.065357246 0.025622854 0.050733875 0.052972183
0003e0 70 7b 91 bd 5d be 65 bd 61 ce 2c 3d 18 35 9e bd
       -0.07103622 -0.056089748 0.042189006 -0.077249706
0003f0 d9 fa 0f 3d c6 98 f0 b9 46 6b 2a bd e1 67 04 3d
       0.035151336 -0.00045890192 -0.04160621 0.03232563

features.layers.2.logic.0.layer.0.mlp.0.bias f4 [8]
000000 53 51 ac 3d d5 97 36 3d 55 8a 65 bc 43 fc 8c bd
       0.08413949 0.044578392 -0.014010032 -0.068840526
000010 99 3e 80 3d c0 5d 0b 3d fe 23 a3 3d c5 35 3d 3d
       0.062619396 0.034024954 0.07965849 0.046193857
