models_every10epochs/checkpoints/checkpoint_70.pth (torch, 178410 bytes, 101 tensors)

features.layers.0.logic.0.layer.0.mlp.0.weight f4 [8, 18]
00000000: 2e66 9ebc 534f 0fbd 9ee4 9cbd 3609 d8bd
00000010: c26c 29bd 136a 103e 0423 c3bc c794 c7bb
00000020: ff6a 2e3b 0730 223c 0f3c 023e 6dcd c5bd
00000030: 9644 61be eb35 453d b51f 18be 1fc8 05bd
00000040: 6047 4ebe 2fbc 303d cf8f 013e e952 fe3d
00000050: fbe9 cdbd ba60 393e a964 913d 7679 95bd
00000060: 41f7 d83d 2fdd 1f3e 64f7 613e 88d4 6fbd
00000070: 3a16 0a3e d879 14be 8a37 2e3d 9ab7 55bd
00000080: 5e4b 6e3b 5e90 abbd 02ed 413b c49c ad3c
00000090: 48bc 233e f2a2 a9bd b599 f03d df24 773e
000000a0: e844 b63c 8cbd 123e 116e 453d e873 4d3d
000000b0: 226f 053e 80fa 2e3e a4aa b63d bb0b 983e
000000c0: 9e45 1abd 1150 073e 0496 163e 4df4 a43e
000000d0: c4fd 8abd 53a2 003e 2fd8 0a3e f7e6 fa3d
000000e0: 4aa6 d33d 7838 3ebe 0f6f 51be 10db a33d
000000f0: 0564 4dbe d9b4 0f3e 25d6 4ebd c64c 0e3e
00000100: dbcc 6f3d e1d4 13bc 0fc4 64be 8988 063e
00000110: e991 e2bd cc0c 063e 2e3a 64bd 6ddc 123d
00000120: 93bb db3d 5d63 d2bc eab7 223e 4101 753e
00000130: 4963 893e e8d5 9f3d 8957 4d3e 4162 76bd
00000140: b657 f5bc 01ea 453e f8a4 1cbb 4e75 b73d
00000150: 92ed 7abd 356f 593e d11d c03d e633 463e
00000160: ae9c 423e 6452 493e a9a2 e3bd 75be a23d
00000170: 4660 063e 033d 3ebe 4105 daba 88b2 79be
00000180: d060 92bd 9ca5 b0bd 22dd 4cbe b87a 17bd
00000190: 4f35 223e 5023 f33d f9e5 7e3d 9e1d babd
000001a0: 8710 14be 0eb3 25be a515 23be 9946 ee3d
000001b0: 4916 9a3d 7f03 92bd 9a8d db3d 7790 26be
000001c0: 749a d93d e5ca c73d c111 66bd 12ea 2dbe
000001d0: 34d0 cbbd 9d6d d83d 4da3 ef3d c4f4 3dbe
000001e0: 2b3b 1cbe 4083 0fbe 588b a43d dc0b f43d
000001f0: 4199 fdbd 6840 c0bd bbdf c4bd d8f2 0bbe
00000200: 7579 863d 00d5 85bc 57d8 8f3d c300 1b3d
00000210: 1871 efbd c3b6 edbd e9ad fdbd 49aa b3bd
00000220: d802 6a3d db47 33be 1bb8 33be 7e02 88bb
00000230: 00e2 3cbe 2e1a 93bd 82ed 70b9 4968 233e
-0.019335832 -0.03498776 -0.07660793 -0.10548632 -0.041363485 0.14102964 -0.023820408 -0.0060907337
0.0026614068 0.009899146 0.12718223 -0.096583225 -0.2199882 0.048147123 -0.14855845 -0.032661553
-0.20144415 0.043148216 0.12652515 0.124181576 -0.10054394 0.18103305 0.070992775 -0.072985575
0.10594035 0.15611719 0.22067028 -0.058552295 0.13485041 -0.14499605 0.042533435 -0.05217705
0.003636084 -0.08377145 0.002959073 0.021192916 0.15989792 -0.082830325 0.11748067 0.24135159
0.022249654 0.14330119 0.04820067 0.050159365 0.13030675 0.17087746 0.08919266 0.2969645
-0.03766405 0.13214137 0.14705664 0.32217637 -0.06786683 0.12561922 0.1355903 0.12251084
0.103344515 -0.18576229 -0.20452522 0.08000767 -0.20057686 0.14033832 -0.050497193 0.13896474
0.058544975 -0.009022922 -0.22340415 0.13138022 -0.110629864 0.13090819 -0.055719547 0.035854746
0.10729136 -0.025682146 0.1589047 0.2392626 0.2683356 0.07804471 0.20052923 -0.060152296
-0.02994905 0.19327547 -0.002390204 0.08957921 -0.06126172 0.21233828 0.09380687 0.19355735
0.19005081 0.19660336 -0.11115009 0.07946483 0.13122663 -0.18577962 -0.0016633646 -0.2438451
-0.07147372 -0.086253375 -0.2000623 -0.036982268 0.15840648 0.1187197 0.062231038 -0.0908768
-0.1445943 -0.16181585 -0.15926225 0.11634559 0.07523782 -0.07129573 0.10720368 -0.16266046
0.10625163 0.09755496 -0.056169275 -0.16983822 -0.09951821 0.10567782 0.11701069 -0.18550402
-0.15256946 -0.14014912 0.0803439 0.119163245 -0.123827465 -0.093872845 -0.09612986 -0.13666856
0.06566135 -0.016336918 0.070236854 0.037842523 -0.11691493 -0.11607125 -0.12386686 -0.08772714
0.05713162 -0.1750788 -0.175507 -0.0041506877 -0.18445587 -0.07182728 -0.00022976662 0.1595775

features.layers.0.logic.0.layer.0.mlp.0.bias f4 [8]
00000000: 6f5f aa3c 7821 cf3c 3885 ba3d 7edd 8fbd
00000010: dde7 19bd b59c 2b3e e763 31bd c3cd fa3d
0.02079746 0.025284514 0.09107441 -0.07024668 -0.037574638 0.16758998 -0.043308165 0.12246277

features.layers.0.logic.1.layer.0.mlp.0.weight f4 [8, 9]
00000000: f1cf a83d d428 08bc 330f 013e c42c 813e
00000010: f819 fe3d 3d4d 3b3e 3554 ff3d 6f50 bd3e
00000020: 65fc ad3e d52a 243e c3e8 963e 1862 703e
00000030: ad37 a33d 280c 913d a5aa ac3d 165b b63d
00000040: 0eb0 093e 3cfe e93e f644 e2bd 3f2c 183d
00000050: 35e8 f5bc 1e31 abbe e729 783c 3947 5ebe
00000060: b54c 81be 8cf3 c9be 3f61 63be 9ea8 c9be
00000070: 523b aabd 0708 cdbe 2796 4abe 1279 14bb
00000080: 9059 8abe b0a4 d93d d8a1 0fbd 2272 9c3b
00000090: b7c3 f23d 1d58 bcbe 57c8 4fbe 378c abbe
000000a0: 53e4 bbbe be7a d8bd e8cb a4bd 7344 a93c
000000b0: e7d7 c1bb e6d3 753c 05eb 2f3e d719 8f3e
000000c0: 0bb6 093d 0abf 5a3e 7757 893e 267f 4b3e
000000d0: 2dff 693e 8fe5 7bbd ae56 553e c5d6 893e
000000e0: b031 663e 3c7b 34bc 29d3 a43c 9d73 5c3e
000000f0: 8adb d43d fa2d ca3d 4d5b 983e 6136 513c
00000100: 3d6e a8be 6048 8abe 4528 80be 31a7 a1bd
00000110: a256 f23d 12fd 0cbe 9c51 b8be 6361 adbe
0.08242787 -0.008310515 0.12603454 0.25229466 0.12407297 0.18291183 0.12467233 0.36975428
0.33981624 0.16031964 0.29474458 0.2347492 0.07969604 0.07082397 0.08430985 0.08904092
0.13446066 0.45701778 -0.110483095 0.03715157 -0.030017952 -0.3343591 0.015146709 -0.21706857
-0.25253835 -0.39443624 -0.22205065 -0.39386457 -0.08312096 -0.40045187 -0.19783841 -0.0022655171
-0.27021456 0.10627115 -0.035066456 0.004774348 0.11853736 -0.36785975 -0.20291267 -0.33505413
-0.36697635 -0.10570286 -0.080467045 0.020662522 -0.00591563 0.015004134 0.17179497 0.27949402
0.033620875 0.21361938 0.26824543 0.19872722 0.22851248 -0.06149822 0.20833847 0.2692167
0.22479892 -0.0110157095 0.02012022 0.21528478 0.10393436 0.098720506 0.29757157 0.012769313
-0.32896605 -0.27008343 -0.25030723 -0.07893217 0.1183293 -0.13768414 -0.35999763 -0.33863363

features.layers.0.logic.1.layer.0.mlp.0.bias f4 [8]
00000000: d102 c73e d756 8a3e 6ae8 e6be 5149 26be
00000010: b131 cdbe fe25 cd3e b2b7 013e 099a cb3d
0.38869336 0.2701938 -0.45099193 -0.16238905 -0.40076974 0.40068048 0.1266773 0.09941489

features.layers.0.logic.2.layer.0.mlp.0.weight f4 [8, 18]
00000000: ace2 473e c660 473e cc50 003e 29f5 623d
00000010: f8e8 9fbd 55d1 f53d 0e7a d73b 8178 7a3d
00000020: 2c90 51bd 88d3 953d 1bba 153e 7f9a 7dbd
00000030: 1479 243d 3893 5b3d 29f5 42bd 6d01 353e
00000040: b018 713e 00c1 09bd c4a5 94bd 6192 073e
00000050: b279 6f3e f7b4 91bb ae9e 20bd e25d f43b
00000060: 9c81 e2bd 40ad 87bd 09d4 f0bd 5a73 a93c
00000070: 5c6c 843e 1d16 d83d 9369 853d 6d10 86bc
00000080: 0f33 5d3c 6f25 433e f015 bdba c8dc febb
00000090: 65e6 9f3d 5d69 23be bbc0 2a3d 81c1 83bd
000000a0: a612 c6bd 38e9 c9bd 6334 f8bc 9922 1abe
000000b0: 3cc8 ea3d 47e0 a03d a13a 8cbd 5d1e 16bc
000000c0: 43f7 3dbd efd6 dcbd 2e82 18bd 97cd 04be
000000d0: 4464 e73d c72b 5fbb f16f 27bd ca8e d4bd
000000e0: 89a6 9f3d 7c56 95bd 337b e7bc b11b b8bd
000000f0: c1e2 dc3d 0f02 31be 1c37 2f3e c62e 313e
00000100: a9e1 9ebc 6aa8 233e ffe0 293e 7137 683b
00000110: 8a2c 3ebd c3e2 2fbe fa51 3b3d 0213 283e
00000120: 2a9c a43d 7e6c 3fbc 86a1 f63d c219 2a3e
00000130: 77e2 283e e7f5 0dbe a99e 313d a48c c2bd
00000140: 7cc7 d3bc 3f32 433e 2be1 11be a34c 24bb
00000150: c412 b63d 98c6 ed3d af7b 68bc 26f5 f63d
00000160: 5992 cc3d 33cc 013e c5c2 ab3d 36ee 0cbe
00000170: 62ed 303d a53b 713b 105b 9bbd 2667 00be
00000180: 0900 463e 81ce 3c3d d9b0 d3bc b634 fdbd
00000190: 6af6 db3b 39e2 593e 45dc 9bbd 8340 29bd
000001a0: 6775 943d 86bd 6e3e a80b c7bd 5786 6b3e
000001b0: b0c0 bcbd 86fb 683d 7900 cebd 77b6 f0bc
000001c0: 2402 da3d 03fd e23c ace2 d53d 91c0 20be
000001d0: 8b28 373e 2023 c4bd fb42 623e db09 1cbd
000001e0: bd63 303e 1914 4e3e e487 063e db93 ee3d
000001f0: 74a4 7dbd 17c7 eebc 50ef 3abe bdee c4bd
00000200: 0e39 353c 2686 b2bd 4f48 9f3c f480 28be
00000210: 7a25 043e a4d1 f4bd 359e fcbc a51d c1bd
00000220: 1128 95bd 6a7a 9dbd da63 e2bd c473 5abe
00000230: ceb0 2d3d ec6e 41be 549f 333d fca4 03be
0.19520062 0.1947051 0.12530822 0.055409584 -0.07808107 0.120028175 0.0065758293 0.061150078
-0.051162884 0.07315737 0.14621775 -0.061914917 0.04015453 0.053607196 -0.047597084 0.17676325
0.23544574 -0.033631325 -0.0725818 0.13239433 0.23386267 -0.0044466215 -0.03921383 0.0074574808
-0.11059877 -0.06624842 -0.117591925 0.020684887 0.25863922 0.10551093 0.06514277 -0.016365254
0.013500943 0.19057249 -0.0014426094 -0.007777784 0.07807616 -0.15958162 0.04168771 -0.06433392
-0.09671526 -0.09858936 -0.030298417 -0.1505226 0.11463973 0.078552775 -0.0684712 -0.009162513
-0.046378385 -0.10783183 -0.037233524 -0.12969051 0.11298421 -0.0034053193 -0.04087824 -0.10378797
0.07795436 -0.07291886 -0.028256988 -0.08989657 0.107854374 -0.17285942 0.17110866 0.17302999
-0.019394713 0.15982214 0.16589735 0.0035433436 -0.046429195 -0.17176346 0.045732476 0.16413501
0.080375984 -0.011683581 0.12042527 0.16611388 0.1649264 -0.13863336 0.0433642 -0.09499481
-0.025851957 0.19062136 -0.14246051 -0.0025070093 0.08890298 0.116101444 -0.014189645 0.12058477
0.09988851 0.12675552 0.08386759 -0.13762745 0.043195136 0.0036809233 -0.07585728 -0.12539348
0.19335951 0.046095375 -0.025841163 -0.123635694 0.0067127245 0.21277703 -0.076103725 -0.04132129
0.07248955 0.23314485 -0.0971902 0.23000465 -0.0921644 0.056880496 -0.10058684 -0.029383881
0.106449395 0.027708536 0.10443625 -0.15698458 0.1788656 -0.09577012 0.22095864 -0.038095336
0.17225547 0.20124854 0.13137776 0.11649295 -0.061924413 -0.029147668 -0.18255353 -0.09615848
0.011060966 -0.08716993 0.01944366 -0.16455442 0.12904921 -0.11954048 -0.030837158 -0.09429482
-0.07283033 -0.07689364 -0.110542014 -0.21333224 0.042404942 -0.1888997 0.04385312 -0.12855905

features.layers.0.logic.2.layer.0.mlp.0.bias f4 [8]
00000000: ecba 7d3e 779e edbc 0e7b ff3d 9317 59bd
00000010: 6d75 333e d938 363e 5aef 393d c461 19be
0.24778336 -0.029006226 0.12474643 -0.053000998 0.17525263 0.17795123 0.04539428 -0.14978701

features.layers.1.logic.0.layer.0.mlp.0.weight f4 [8, 42]
00000000: eaa8 5fbd b581 823d 6f32 0b3d d2fa d8bc
00000010: e2ac 093e 097e 57bd 1cb6 f53d fa9f bc3d
00000020: 159a 01bd a4ec afbc a7df 113e 5e97 b23d
00000030: c294 d53d 9a05 cd3d 494d ec3d 8c51 9fbd
00000040: a6c3 103e 451f 063e 3384 ab3d c041 90bb
00000050: 89da b43d caf5 d03d 877f 4bbd eba2 1e3d
00000060: 1153 133e ae4d a739 3ddc 08bd 51de dc3d
00000070: b081 afbd 6b56 b5bc afef 38bd 48cd 78bd
00000080: 417e b73d b9ba c43c 1504 21bd 37c9 483d
00000090: 111a 493a 880c 4dbd 670a 7f3d 54e0 853c
000000a0: 7e30 c23b d815 d7bc 0a65 18bd 59a8 1e3d
000000b0: 3f51 bb3d cbf1 e83c 58a1 70bb fb73 b73d
000000c0: 2c08 9fbd 04df a3bd b27c abbc 420b a3bd
000000d0: ffbc ffbc 3e47 b23d e634 083e c7c3 653d
000000e0: b5c1 503d 6589 d23c 3eb2 d13c 1051 393d
000000f0: be4e 103e 17af eb3c 4573 2f3d 8641 39bd
00000100: 27fe 5c3d 3602 013e 1188 dd3c 2f07 683d
00000110: 4155 22bd 75ad c53d a77b 0a3e 80c3 15bd
00000120: 1934 973d f9f1 f5bc 26f6 f93d 94d9 0cbc
00000130: 3406 2e3d c058 f33d 9648 f73c 03d0 413e
00000140: 078d 993c 429c c73d b43c 0cbd 70db b13d
00000150: fc89 73bd 987e 093d 6215 e53c 7748 e0bd
00000160: 9c87 fb3b e745 893c 895b 093e 0db5 c4ba
00000170: 7136 ca3d d1b2 b93c a846 8f3d e97e c83d
00000180: 99a9 97bd 6bbd 6ebc 1138 f13d 1055 5f3d
00000190: d790 be3d 135f d8bb da2c 4b3d bcde 6fbd
000001a0: 4aa2 a33d 3c53 133e d9b4 573c 4272 c0bd
000001b0: 1470 753d 2a8c c33d e00f 853d 3431 303e
000001c0: 076e f63d 08b6 83bc 7b11 a03d 32a1 f4ba
000001d0: f870 1bbc c2f5 db3d d407 d13d cb59 a4bc
000001e0: d649 0fbd 2492 553e 4032 8abd e93d e23d
000001f0: 68b8 0c3e ab95 5c3d 1000 d63c d5df 45be
00000200: 820e 6abd 03d0 91bc b053 6c3c eb10 17be
00000210: 8f22 513d 2c33 9b3d ec49 6c3b 8d0d 36be
00000220: 5fd8 e8bd 1767 113d a0ec 33be b051 7abd
00000230: f4b8 3dbd 4828 823d 8aa8 0e3d 9015 09be
00000240: e7a4 10bd 889f 0cbe 016e 8bbb d763 a7bd
00000250: 62b1 013c 5f04 7f3c 2c14 ecbd c86d 3a3d
00000260: b65f 8cbd 0025 0fbd 61bd 2a3c 55aa 3b3d
00000270: 6083 1bbe 256d 0bbe 9806 1cbd a3ba ecbc
00000280: 44f7 0ebe 0120 5d3c 1560 8cbd c507 adbd
00000290: 57d4 a1bd 1cbf 24be cc58 bcbd e033 723c
000002a0: 6808 903d e7fd 0e3e 7340 0e3e c0c9 db3c
000002b0: 312e 21bd 71a3 9f3d 5d56 91bd 8c60 77bd
000002c0: 2ab8 c5bc 77c2 453d a813 273d 0cd7 89bd
000002d0: 9825 373e 744f 263e f6dc 743d 40d3 33bd
000002e0: 238e 25bd 02b1 013e b492 793d d50a 413e
000002f0: f6cb 283e 92e8 c03d eefd 223e bfc1 083e
00000300: 8b94 ac3d 15c8 1dbd d11c f03d fb51 df3d
00000310: 86d6 d0bc 616d c23d 5a44 a6bd 5f16 413d
00000320: df5c f63d 3712 bb3b 5ef0 9c3d 5168 9fbc
00000330: 2358 11bd fd5f e23d a586 f73d 991f 29bd
00000340: 552d f53b 2b7f d2bc 1f1a 9dbd 7a1c 923d
00000350: 3440 dc3d ea57 97bd bd56 ac3d 9683 fc3d
00000360: 7936 be3d 8c53 9b3d d923 2b3e c9fe 2cbd
00000370: 17e6 063e 58c6 b53d cfe5 47bd f645 8037
00000380: 6d2a 063d 2130 363d 2d7d a33d 7d37 7fbd
00000390: 1d95 23bb c4c9 3e3e 754f bf3d 1f14 debc
000003a0: db28 ce3d 63d4 133e 8444 043e 1403 10bd
000003b0: 1e44 313e c165 143e d7ac 133d 569c dcbb
000003c0: b6b4 283c 8957 0bbd 4219 1d3d 3778 4fbc
000003d0: 366d 22bd ae85 ed3d 14e1 063e 6e4b a2bc
000003e0: d0b3 f6bb b7bb 97bb 0fd8 303d bb84 2a3d
000003f0: 4999 0e3e 8717 273d 8295 e13d 811e 6cbd
-0.05460445 0.06372396 0.033983644 -0.026486788 0.13444856 -0.05261043 0.11997625 0.092102006
-0.031641085 -0.021475144 0.14245473 0.08720277 0.10428764 0.10010834 0.115381785 -0.07779226
0.14137134 0.13097866 0.083748244 -0.0044023693 0.08830745 0.102031305 -0.049682166 0.03872959
0.14387156 0.00031910598 -0.03341316 0.10784591 -0.08569658 -0.022135934 -0.045150455 -0.060742646
0.08959628 0.024014818 -0.039310534 0.04902002 0.00076714257 -0.05006078 0.06226578 0.01634232
0.005926191 -0.026255533 -0.037205733 0.038734768 0.09146356 0.028435608 -0.0036717262 0.089576684
-0.077652305 -0.08001521 -0.020933483 -0.07961132 -0.03121805 0.087049946 0.13301429 0.05609491
0.050965983 0.02570028 0.025597688 0.045243323 0.14092538 0.028770013 0.04283454 -0.045228504
0.053953316 0.125985 0.02704242 0.056647476 -0.039632086 0.09652225 0.13523732 -0.036563396
0.07382984 -0.030022608 0.12205152 -0.008596797 0.042486385 0.11882162 0.030185979 0.18927006
0.018744005 0.09746601 -0.03423758 0.086844325 -0.059457764 0.033567995 0.027964298 -0.109513216
0.007676078 0.016756965 0.13413824 -0.0015007571 0.09873665 0.022668274 0.069958985 0.09789831
-0.07405395 -0.014571528 0.11778272 0.05452448 0.0930497 -0.0066031306 0.04960332 -0.058562025
0.079899386 0.1438722 0.013165676 -0.09396793 0.05992134 0.095482185 0.064971685 0.1720627
0.12032705 -0.01607801 0.07815834 -0.0018663763 -0.009487383 0.10740234 0.10206571 -0.020062348
-0.034982525 0.2085653 -0.06747866 0.11046965 0.1374222 0.053853672 0.026123077 -0.19323666
-0.057142742 -0.017799383 0.0144242495 -0.14752547 0.05105835 0.0757812 0.0036054803 -0.17778607
-0.113693945 0.035498705 -0.17570734 -0.06111306 -0.046318963 0.06355339 0.0348287 -0.13387132
-0.035313513 -0.13732731 -0.004255057 -0.0817334 0.0079158265 0.015565007 -0.11527285 0.04551485
-0.06854193 -0.034947395 0.010421128 0.04581674 -0.15186834 -0.13615854 -0.038092226 -0.02889759
-0.13961512 0.0134964 -0.06854264 -0.084487475 -0.07901829 -0.16088527 -0.09196624 0.014782876
0.07032853 0.13964044 0.13891773 0.0268296 -0.039350692 0.07794846 -0.070965506 -0.06039481
-0.024135668 0.04828116 0.04079023 -0.0673047 0.17885435 0.16241246 0.059781037 -0.043902636
-0.040418755 0.1266518 0.060930923 0.18851788 0.16484055 0.09419359 0.15917179 0.13355158
0.0842677 -0.03852089 0.11724246 0.109043084 -0.025492918 0.094935186 -0.08118506 0.047140475
0.120294325 0.0057089585 0.07663034 -0.019458922 -0.035484444 0.110534646 0.12086228 -0.0412899
0.0074822106 -0.025695404 -0.07670998 0.07134338 0.10754433 -0.07389815 0.084149815 0.123297855
0.092877336 0.07584295 0.16712894 -0.04223517 0.1317371 0.08875722 -0.048803147 1.5291367e-05
0.032755304 0.044479493 0.0798286 -0.062308777 -0.0024960705 0.18631655 0.09341327 -0.027109204
0.10066386 0.14436488 0.12916762 -0.035159186 0.17311141 0.14491941 0.036053505 -0.006732504
0.010296991 -0.034019027 0.038354166 -0.012662939 -0.039654933 0.11597763 0.13171798 -0.019811358
-0.0075287595 -0.0046305317 0.0431748 0.041630488 0.13925661 0.04079392 0.110148445 -0.05764628

features.layers.1.logic.0.layer.0.mlp.0.bias f4 [8]
00000000: 7ead 0f3e 4331 9f3d 209b 71bd 186a 333d
00000010: daed 573d 194d d03d 8a92 073e 8c12 273c
0.14031026 0.07773068 -0.05898583 0.04380235 0.052717067 0.10170955 0.13239494 0.010197293

features.layers.1.logic.1.layer.0.mlp.0.weight f4 [8, 41]
00000000: cfce c2bd d76a a9be fc1c 6bbe 1078 ae3d
00000010: 9a0f e4bd b2d5 8b3d 1c8b a0bb c6ba 01be
00000020: eceb e3bd 3b61 ffbd 5bfd 31bd f49b 82bd
00000030: f7cb 27bd ba8c b8bd eb4d d2bd e095 b9bc
00000040: b15e a3bd fbc0 88be 7a43 bbbd 0a01 743c
00000050: 4a55 d5bd 0d2d 8a3c 94fe ce3c ffae 23bd
00000060: f01f 66bd a0b1 28be 84e8 1bbe 884b b0bd
00000070: 17c5 dfbc 54d1 e4bd 11c1 e5bd afd4 4ebe
00000080: 3a71 06be cbdc 10be 7267 00be bd95 14be
00000090: 4518 34be f85c 9fbd 7a61 1cbe 2174 98bd
000000a0: 9337 05be 958c 4abd 8ee5 bdbe c6b3 b2be
000000b0: e397 1bbe 0633 2cbe 89cd 10be df7c 74be
000000c0: ceec 6dbd edfe 9cbd 4feb a5bd 8826 59bb
000000d0: 250a 153d 7d36 26be 67f3 cebd 27e8 aebc
000000e0: 0fa3 fcbd b98d 65bd ef77 00be 5e7c 35be
000000f0: c003 8bbc fd36 cfbd 2035 a1bd b31d 0ebe
00000100: 30cc 17be dbd4 df3c 80b9 85be 17d1 3cbe
00000110: 6690 b6bc c538 b3ba 0e5d 6ebd 0995 d33c
00000120: e019 4fbe 533a 7cbe c34d aabd 2bf3 13be
00000130: d47c d9bd 9c6e 6cbe e466 98be 4a42 33be
00000140: aa3c 6c3d 6c8b 80bd 12fd ae3d 34bf 24be
00000150: 410d 82be 7b0b 813d a988 86be 6ead a13d
00000160: e612 fdbc ac0f 2f3d 54ec a83c 0659 e5bd
00000170: 6089 1abd 04fa e8bd f2f6 a9bd c9d5 ecbc
00000180: f71e 81bc cc91 4fbe f726 01be 6807 09be
00000190: 9030 f9bd 845b 85bd f4bc 803d 5304 6abe
000001a0: 67d0 0dbd bb0a 8abe 24f3 e6bd 13b9 58be
000001b0: d8e2 6bbe ce7e c3bd 9acc 89bc 39bc 763c
000001c0: 90e7 9b3b 746e 32be 202c 0ebe 38d9 d0bc
000001d0: 557e 11be ef07 05be 57ab 01be 93de 2ebd
000001e0: 0fac c6bc 0f5c 52bb ee36 afbd 6675 d83c
000001f0: dcb0 7b3e 945c b13e 9f44 be3d 570f 943e
00000200: defa 923d 2e50 533e 72bd 383e ab8c 8abc
00000210: 2935 80bc a7d8 3ebc f1e5 113c 2147 aa3d
00000220: 41d1 9c3d a1c3 f83d cdda b2bc fcc6 2a3e
00000230: fcc9 3d3e ada4 033e e787 133e 9856 b73d
00000240: 6374 12bd 1c4a 043e 6170 c13d 163f 8d3d
00000250: 5e62 3a3e df74 f73d 52a5 a93d d6a8 363e
00000260: 07ce c53d b6e4 123e 1028 873e fc3b 673c
00000270: 8652 2d3e 8106 183e bd74 493e 1693 fb3c
00000280: dd5c 8f3e fb42 313e 244d ee3d 3b15 033e
00000290: ac25 483d 10d0 a03e 3bdc 2d3e 448e 663d
000002a0: d824 863e 24d9 51bd c35e 303e c0db 82bd
000002b0: d512 9b3c fc80 f43d b8c4 c33d 7e0d 06bb
000002c0: e265 1a3e f0b9 283d 69f7 8f3b 0453 893e
000002d0: a50a 9f3d 3c44 223e 213d 393e ff2b 02be
000002e0: 8a1d 803c 2ee9 9f3d 4793 033e 5d44 263d
000002f0: 8aec f13d 2d99 0b3e 059a f73d e5ea b0bb
00000300: 3c1f d43d e26b fa3d e2ef aa3b 0b77 e83d
00000310: 9e32 313b bc67 553e 66d6 013e 7469 4e3e
00000320: fb05 0e3e 0646 923e cdb4 ca3c b6ce ffbd
00000330: a3fd 24bd ecec a83a 0eba e8bd 40ca d7bd
00000340: d67d 823d 09e8 4fbe 7fd1 93bd 5780 08be
00000350: ea4c febd 541a 62be 507a 32bc 87d2 4abd
00000360: 9cd0 38be 4b3c 16be 4453 96bd 2b04 ffbd
00000370: 5085 77bd 449f 20be 3b18 c7bd affd 01be
00000380: abf1 903d d531 6abd 9ff4 dd3c 094c d6bd
00000390: 9b78 a2bd 2410 6bbd a83c 0abd 9343 4dbe
000003a0: 9700 31be 5e62 80be 4d25 113d 6599 0e3c
000003b0: 3a16 f8bd 21b9 b13d cac3 03be c9f4 1ebe
000003c0: 1657 44be 615c 2bbd 478e 77be 8e79 7fbc
000003d0: 1037 d6bd cac1 0a3d 8648 013e 92de 803e
000003e0: 579d dc3d 9b36 a13d 7cfd 0b3e 1717 84bd
000003f0: ffa0 54bd 960f b23c 7b36 d03d 93f2 023e
-0.09512102 -0.33089325 -0.22960275 0.08518994 -0.11135788 0.068278685 -0.0048993956 -0.12668905
-0.11128983 -0.12469717 -0.04345451 -0.06377402 -0.040966 -0.090112165 -0.10268768 -0.022654474
-0.07977045 -0.26709732 -0.091437295 0.014892826 -0.10416658 0.016867185 0.025267877 -0.03996181
-0.0561828 -0.16474009 -0.15225416 -0.086081564 -0.02731566 -0.11172739 -0.11218465 -0.2019832
-0.1312913 -0.14146726 -0.12539461 -0.14510246 -0.17587383 -0.07781404 -0.1527156 -0.07444025
-0.13009481 -0.049450476 -0.370892 -0.3490278 -0.15194659 -0.16816339 -0.14140905 -0.2387576
-0.058087163 -0.07665811 -0.08101522 -0.0033134539 0.036386628 -0.16231723 -0.10105019 -0.021350933
-0.123357885 -0.05604336 -0.12545751 -0.17723224 -0.016969562 -0.1011791 -0.07871461 -0.13878517
-0.14823985 0.027323177 -0.26118088 -0.18439136 -0.022285651 -0.0013673535 -0.058194213 0.025827901
-0.20224714 -0.24631624 -0.08315613 -0.1444823 -0.10619512 -0.23089069 -0.29766 -0.17505756
0.05767504 -0.062765926 0.08544363 -0.16088563 -0.25400737 0.06301018 -0.26276138 0.07894407
-0.0308928 0.042739555 0.020620503 -0.111986205 -0.037728667 -0.11375812 -0.08299054 -0.028910534
-0.015761836 -0.20270461 -0.1261252 -0.13381732 -0.12167466 -0.06511596 0.0628604 -0.22853212
-0.034622576 -0.26961312 -0.11276844 -0.2116435 -0.23035753 -0.095456704 -0.016821194 0.015059524
0.004757829 -0.17424947 -0.1388402 -0.025494203 -0.14208348 -0.12991308 -0.12663017 -0.042692732
-0.024251966 -0.0032098328 -0.08555399 0.026423167 0.24579185 0.34640944 0.09290432 0.28917953
0.07176755 0.20636055 0.18041018 -0.016912779 -0.015650349 -0.011648334 0.00890492 0.08314348
0.076570995 0.12146688 -0.021832848 0.16677469 0.18534082 0.12855788 0.14407311 0.08952063
-0.035755526 0.12918895 0.09445263 0.06896798 0.18201587 0.12082838 0.082834855 0.17837843
0.09658437 0.14345059 0.26397753 0.0141134225 0.16926011 0.14846231 0.19673438 0.030709784
0.28000537 0.17310707 0.11635807 0.12801068 0.04886405 0.3140874 0.16978543 0.05628802
0.26199985 -0.051232472 0.17223649 -0.0638957 0.018929878 0.11938664 0.095590055 -0.002045482
0.15077928 0.04119295 0.0043935073 0.26821148 0.07765702 0.15846342 0.18089725 -0.12712096
0.015639085 0.07808147 0.1284915 0.04059254 0.11812694 0.1363265 0.12089924 -0.0053990954
0.1035752 0.12227608 0.0052165845 0.11350831 0.0027038227 0.20840353 0.12679443 0.20157415
0.13869469 0.2856905 0.024744416 -0.12490599 -0.04028095 0.0012887991 -0.11363612 -0.10536623
0.063716576 -0.20303358 -0.072176926 -0.13330208 -0.12417014 -0.22080356 -0.010893419 -0.04951718
-0.18048328 -0.14671437 -0.073401004 -0.12451967 -0.06042987 -0.15685755 -0.097214185 -0.12694429
0.070773445 -0.05717643 0.027094183 -0.10463721 -0.0793316 -0.05738844 -0.033749253 -0.20045309
-0.17285381 -0.25075048 0.035435963 0.008703564 -0.121136144 0.08677889 -0.12867656 -0.15523066
-0.19173846 -0.041836146 -0.24175368 -0.015592946 -0.10459721 0.033876218 0.12625322 0.25169808
0.10772198 0.07871743 0.13670915 -0.064497165 -0.05191135 0.021735948 0.10166641 0.12787847

features.layers.1.logic.1.layer.0.mlp.0.bias f4 [8]
00000000: 5908 f9bd 2f01 dcbd 09cd d2bd 5ffa a43e
00000010: effe 833e aca9 02be d8ee 623e f646 113e
-0.12159795 -0.10742413 -0.102930136 0.32222268 0.25780436 -0.12760037 0.22161424 0.14187226

features.layers.1.logic.2.layer.0.mlp.0.weight f4 [8, 50]
00000000: 3020 0bbc d2c9 153d 3c31 a73b 19a8 2bbc
00000010: 5f33 a6bc 15c6 b7bd 3471 213d c88d 263c
00000020: c2ce 8e3d 3193 9abd 916e b53c 0548 c8bd
00000030: f805 cc3d 9c77 f2bd 217e 8d3d 127a 96bd
00000040: a6ae 8a3d 5e3f 22bc 8a8b 13be 3c5e e8bd
00000050: 10b9 8abb c655 3b3d c87c 21bd 79a3 313d
00000060: 3b6e febd f167 ebbd 3676 41bc 57b2 e5bd
00000070: fb65 0cbd 1687 7ebd be80 06be 84ea f2bd
00000080: be18 e8bd b5a9 3cbd 5132 093d a8d7 26be
00000090: 7d76 e139 0cb3 87bc 608a 99bd c7c0 153d
000000a0: 9418 53bd 6744 25bd ff54 7d3d ad7c 9cbc
000000b0: 09cf 493d f6dc 2bbe aedf 7abd 4e06 94bd
000000c0: 7f5e 713d e4e1 53bb ac0b c2bd 6e25 da3d
000000d0: fd82 413d 9e91 42bd aae1 a6bd d387 bcbd
000000e0: 6e14 e53c e4f8 153d 7596 1abe ec68 433d
000000f0: c154 0cbe f24e c5bd ee05 5ebd d1b2 1ebc
00000100: a560 573d 49f1 22bd 49f7 ca3c fbff a73c
00000110: fb02 74bc 34fb 11be 8fce 88bd bcd3 4fbd
00000120: 114b 7939 ce8b a63d b952 03bd 2a32 30bd
00000130: 7f86 de3c 4830 8ebd 17e2 aebd 33d0 69bd
00000140: c509 843c 90b6 97bc eff5 9ebd 948e ed3c
00000150: e623 cebd 5c03 283d 3ae3 fd3d 1de0 aa3d
00000160: 0e8c c43d 940d e93c d211 91bd e2de 68bc
00000170: f128 cfbd 91dc 233d 238f 93bd 40a7 9abd
00000180: cf67 763d 7be9 1cbe f34c 89bb de8d df3d
00000190: 9b54 8c3d c50f 12bd 5bf7 e63d 8542 bc3d
000001a0: 2779 21bd f173 21bd 24c9 1a3e f7a5 b53d
000001b0: 013e 08bc 8008 1c3d 0779 053e aff1 3bbd
000001c0: 41eb 9bbc 494b e2ba 67eb 96bd 72e5 c13d
000001d0: c0c9 9d3c a77f 8bbd 9800 823d 5c44 213c
000001e0: 9d57 953d d1f5 d3b7 fb7d abbc 956f 233e
000001f0: 2a98 c73c 96e2 e33c e9c0 92bc 68fc 1f3e
00000200: 250f 413d 82bf f73d cd0c a0bc 4ddf c03d
00000210: b36a c03d 1e8a 173e c25b 233e 1a18 403d
00000220: 5e02 9f3d b92e 8e39 a990 a8bd 2816 1c3e
00000230: 6d6b ce3d 01ab bb3d fe20 8e3d 951f f43d
00000240: 0490 04be d361 97bb 99a2 fb3d b576 a13d
00000250: 9191 283e d46c b9ba dbe1 f1bd 4baa eabd
00000260: 6448 9c3d f737 9dbd 28ec cbbc 79b3 a1bd
00000270: 89d2 613d 3982 b2bd 2f61 4f3d ee49 89bd
00000280: c2ef aebd e88b a8bd 0f77 9bbd 74aa 07be
00000290: f1a4 d3bd 5fbb 7d3c 7249 143e 231a b93a
000002a0: 62a1 793d cd07 743d b7aa e03d ea4b d6bd
000002b0: e1b9 54bc 640a 01bd 4b7e ab3d 62da d4bd
000002c0: 67be 86bc f68f 1bbc 0cf2 133e 860b b23d
000002d0: d6c7 90bd 8404 903c dc42 14be b42f 7ebd
000002e0: 1831 a5bd cb72 d93c c0ff 933c d11c 37bd
000002f0: 1315 93bd ad3c 15bc 73de 683d 407b 93ba
00000300: f68d a1bd d55c e73c cbd5 cebc 8fdd a5bd
00000310: b51d a63d 534f 763d e171 bdbd c79f 02be
00000320: 1793 053d 437d b23d 1fef 88bc 18cc af3d
00000330: e8d9 9abd 269d b73c be45 9cbd cd2b dd3d
00000340: 621b b93d f947 fabc 47e8 413e 4786 d23b
00000350: 776b 8a3d 020b 79bb 302c d0bc 1540 213d
00000360: 782c ecbd 6677 d03d 0938 043d 60e9 a5bd
00000370: f068 643d d7f2 1c3e b6ee f53c 5618 a83d
00000380: bd24 0c3c f653 c83d 03cb 3c3d 7f79 493d
00000390: f890 3cbd 6020 103d ec96 0d3d 7fd1 883d
000003a0: d13b 193d 7e3c 253e 2403 bf3d e4a6 933d
000003b0: 15d9 a3bd 2ef6 db3d 1a11 fcbb 4fb5 b73d
000003c0: 26c5 1b3e bf6f 1bbc 9a6e 5d3d 0608 af3d
000003d0: 0c1c 033e 6ca3 e6bc fc10 c23d 4823 7b3d
000003e0: 5102 c33d bdf8 6a3c f4a3 cb3b 749d 413e
000003f0: c559 56bd ba9f 123e 6adf 72bd cb4e 033d
-0.008491561 0.036569424 0.0051023047 -0.010477089 -0.020288168 -0.08973328 0.0394146 0.010165639
0.0697303 -0.07547606 0.022147449 -0.09779362 0.09962076 -0.1183922 0.06908823 -0.07347502
0.06771593 -0.009902803 -0.14408699 -0.11346099 -0.004233487 0.045736097 -0.03942564 0.04336879
-0.124233685 -0.114944346 -0.011807969 -0.11215656 -0.034276944 -0.062140547 -0.13135049 -0.118611366
-0.11332844 -0.046060283 0.03349525 -0.16293204 0.00043003625 -0.016564868 -0.07497096 0.0365608
-0.05153711 -0.040348437 0.061848637 -0.019102419 0.04926971 -0.16783509 -0.061248474 -0.07227765
0.05892801 -0.0032330686 -0.094748825 0.106516704 0.04724406 -0.047502153 -0.08148511 -0.09205594
0.027963843 0.036614314 -0.15096457 0.047707483 -0.13704206 -0.09634198 -0.054204874 -0.009686188
0.0525824 -0.03978089 0.024776118 0.020507803 -0.014893289 -0.14255983 -0.06680023 -0.050739035
0.00023774455 0.081321344 -0.032061312 -0.04301659 0.027163742 -0.06942803 -0.08539217 -0.05708332
0.01611794 -0.01851967 -0.07761752 0.02899865 -0.10065441 0.04101883 0.12396856 0.083435275
0.09597026 0.028448857 -0.07083477 -0.014213296 -0.10115231 0.04000527 -0.072050355 -0.07551432
0.060157593 -0.1532344 -0.0041900813 0.10915731 0.06852075 -0.03565957 0.11277648 0.09192375
-0.03942218 -0.03941721 0.15115792 0.08869546 -0.008315564 0.038094044 0.1303445 -0.045884784
-0.019033076 -0.0017264868 -0.07369118 0.09467591 0.019261241 -0.06811457 0.063477695 0.009842958
0.072921015 -2.5267627e-05 -0.020934096 0.15960534 0.02436455 0.027818006 -0.017914252 0.15623629
0.047133584 0.12097074 -0.019537354 0.09417591 0.09395351 0.14798781 0.15952972 0.046897985
0.077641234 0.00027119162 -0.08230717 0.15242827 0.100790836 0.09163476 0.069398865 0.11920086
-0.12945563 -0.004619816 0.122868724 0.0788397 0.16461779 -0.0014146813 -0.11810657 -0.11458262
0.07630995 -0.0767669 -0.024892882 -0.0789556 0.055132423 -0.08716244 0.05062979 -0.06703554
-0.08541824 -0.0822981 -0.07591068 -0.13248616 -0.103341945 0.015486567 0.14481142 0.0014122169
0.060944922 0.059577752 0.10970061 -0.10463698 -0.01298377 -0.03150405 0.08373698 -0.10393216
-0.016448213 -0.009494772 0.14447802 0.08693604 -0.07069366 0.017580278 -0.1447863 -0.062057212
-0.080660045 0.026543995 0.018066287 -0.044705216 -0.07181754 -0.0091087045 0.05685277 -0.0011251941
-0.07888405 0.028242508 -0.025248429 -0.080988996 0.08111135 0.060134243 -0.09250236 -0.12756263
0.03261098 0.08715298 -0.016715584 0.0858385 -0.075610936 0.022413801 -0.0763049 0.1079937
0.09038426 -0.030551897 0.18936263 0.0064246985 0.067587785 -0.0038000946 -0.025411695 0.039367754
-0.11531919 0.101790234 0.03228 -0.081011534 0.05576414 0.15327011 0.030021053 0.08207767
0.008553681 0.09781639 0.046092045 0.049188133 -0.04603669 0.035187125 0.03456776 0.06680583
0.03741056 0.16136357 0.09326771 0.07209566 -0.080003895 0.107403144 -0.0076924684 0.08970129
0.15211925 -0.009487092 0.054060556 0.08546452 0.12803668 -0.028154097 0.09475896 0.061312944
0.09521926 0.01434153 0.006214613 0.1890772 -0.052331705 0.14318743 -0.059295096 0.032057565

features.layers.1.logic.2.layer.0.mlp.0.bias f4 [8]
00000000: b32b 0dbe 927d 8f3d 8245 483d ae73 003d
00000010: 3e30 823c 221e 6b3c 8599 45be 558a b43d
-0.13786201 0.070063725 0.048894413 0.03136032 0.015892144 0.014350446 -0.19296844 0.08815447

features.layers.1.logic.3.layer.0.mlp.0.weight f4 [8, 48]
00000000: 71b2 2a3e f351 b83d 487d 813d 10df a13d
00000010: 6a9f 923d db70 4f3c 340b aa3c 7783 863d
00000020: b0e2 83bc a775 bb3d ffac 8e3d 1f66 c0bd
00000030: f980 5a3d 3c24 003b df8b 4dbd ef37 c23d
00000040: 3276 173e 6b5d 3ebc 11c9 073e fc6d af3d
00000050: bb9c 893d d912 0d3e 2526 9f3d 11b1 163d
00000060: 9f05 8b3c 55eb c43c b20d 003e 9811 263b
00000070: add6 4ebd b759 723d 860f e93c 062b 91bc
00000080: 3da8 cc3b e476 66bd 4ebb d73d 2c75 3cbd
00000090: d0cc df3d 2aa5 9a3d 7a35 38bd 8209 b63d
000000a0: 717b ea3d 8824 fa3d df77 b7bc 7cd4 68bb
000000b0: 0f86 903d 4b94 663d afd9 c83d 06ac e4ba
000000c0: f72f efbc 3098 963d 2269 df3d 3fb0 e93c
000000d0: 0470 aebc ae74 8b3d d7e4 043e 1ee8 4f3d
000000e0: 777a 593c ca5e 983c f7b5 a9bd 180f 1b3e
000000f0: 4a5a 783d 3881 813c 146a acbc 9b8c 9bbc
00000100: 2744 cbbd 7cff d6bd 8ef2 e03a 2343 10bd
00000110: 000c 103d 9f7f 89bd 667f 243d 9ae7 c03a
00000120: 17d4 d53d f5b0 043e d7f0 c23d 7087 03be
00000130: 6b97 87bd 43a6 893d 35b3 0a3d af9b 70bc
00000140: 970c afbd 03d1 043e d69e 48bd 59a6 a53d
00000150: 1aec 57bd 0e51 833c 2c05 72bc 3db5 59bd
00000160: 0d6f 98bd 1ff5 b3bc 9dc6 bfbd 0155 d8bd
00000170: 1dad 93ba 0418 e53c 97d5 abbd b7b5 a13c
00000180: dc18 9c3b be7e aebd 0552 2cbd 0509 a33d
00000190: c3bf 283c 3f65 a93d 1b0f 003e 5444 e63d
000001a0: 9d74 fcbc 4b6b 16bc 3fd3 ac3d 6ab8 cb3d
000001b0: 7eae 49bd 932a 89bd 323e c43d 2d05 713d
000001c0: 1c89 3d3d bf56 ea3c fe6b 573d 3fef 75bd
000001d0: aa87 893d d30d b63d fb57 d5bb f0ce 333d
000001e0: c973 163e d187 48bc e5e4 323d 8cd3 dc3c
000001f0: f8b9 043d 9c80 433d fa39 833c fc68 7e3d
00000200: 3b55 a2bc 6f58 8fbd 818a d6bd 0ef2 d93d
00000210: 8a9c 01be a7e0 05bd b83f 723c 6b6f a53c
00000220: fb11 143e 2d10 3e3c ce4d eabd 5ca9 013d
00000230: 3b47 083b 9093 cf3d bc81 ea3d f80e 503d
00000240: ab8e d03c c0a3 9cbd 8d3c c8bd b765 573b
00000250: b2ca 35bd 1d21 723d 4594 083e 6896 633d
00000260: 1be8 9b3d e91d 03bd ad81 663d c53d 3f3b
00000270: 8638 cd3d 1d32 223e a054 ffbc 6e99 fe3d
00000280: 1e72 8d3d 9b11 8c3b cf3b 7abd 0522 43bc
00000290: 34d0 70bd ebe8 843d 7a52 443d 2e36 8ebd
000002a0: bc4a 263e 5a1d 073e 6325 e23d 27c5 4b3d
000002b0: 8cc4 dd3c 5858 303e 8067 073e 267e 183d
000002c0: 0a8b c83d 2af5 71bd 50da a83c cf67 c5bd
000002d0: 97b5 cebd 031e 933c 1670 c8bd d76f 89bd
000002e0: c57c dd3d 8f42 63bc 766a fb3c f9b7 4cbd
000002f0: 0984 b8bc 1d9f 21bc 31fb 50bd 0177 123e
00000300: 0171 c23c 9902 0cbd c188 44bd d5fb d13d
00000310: 0dfa 82bd e62c 013e e97a 43bd 432e fb3c
00000320: ae5b 353d e9c3 e6bc 4edc 393d cb85 423d
00000330: 3cc1 323d 663a 303c 78cb e63d 5522 00bd
00000340: cf90 86bd 8301 77bb e369 99bd 6a94 a73d
00000350: 0c21 753d 0c63 0c3e b0a1 f73d 42b4 99bd
00000360: 5325 a23d 8f6f b6bd b7f6 eabc c42f 97bc
00000370: 53ef 373d 56cf 05bb 5852 d1bd 3c61 89bd
00000380: 69f6 fcbc 683d dbbd 5276 c63c 0e69 a33d
00000390: bd68 1abd d377 14bc ad6b a13d 6011 c9bd
000003a0: 185c 4fbd 09a8 f73d de58 773d a777 9abc
000003b0: 2f27 ac3b b255 953c b0a4 833d 8166 773d
000003c0: 90f1 57bd 7680 e03d 9c66 243d a077 b2bd
000003d0: 8922 9d3d b47c a2bc fbed 9a3d 0332 d13d
000003e0: 058d ee3d 74e2 0a3d cd8e c9bc 03da 9d3d
000003f0: 783c 02bd 171b cb3d 006b e13d 2831 b6bd
0.16669632 0.090000056 0.063227236 0.07903874 0.07159312 0.012661184 0.020757295 0.06568044
-0.016099304 0.091533 0.0696659 -0.09394478 0.053345654 0.0019552847 -0.05018222 0.09483325
0.14791182 -0.011618952 0.13260294 0.085659 0.06719347 0.13776721 0.07770947 0.036789957
0.016970454 0.024037996 0.12505224 0.0025340077 -0.0504977 0.05916759 0.028449785 -0.01772071
0.0062456415 -0.056265727 0.105337724 -0.04601018 0.10927737 0.07551034 -0.044972874 0.08888532
0.11449326 0.12213999 -0.022396026 -0.0035527041 0.0705682 0.056293767 0.09807145 -0.0017446287
-0.029197676 0.07353246 0.10908724 0.028526423 -0.021293648 0.06809364 0.1297792 0.050758474
0.013273827 0.018599886 -0.0828666 0.15142477 0.06063298 0.015808687 -0.021046676 -0.018987944
-0.099251084 -0.104979485 0.0017162131 -0.035220277 0.035167694 -0.06713795 0.04016056 0.001471746
0.104408436 0.12958129 0.09518593 -0.12844634 -0.066206776 0.06721165 0.03386231 -0.014685555
-0.08547323 0.12970357 -0.048979603 0.08088369 -0.0527154 0.01602986 -0.014771741 -0.053151358
-0.07443056 -0.021967469 -0.09364054 -0.10563088 -0.0011266802 0.027965553 -0.083903484 0.019739969
0.0047637057 -0.08520268 -0.042070407 0.07960705 0.010299626 0.08271264 0.12505762 0.11243501
-0.030817324 -0.009180854 0.084387295 0.099472836 -0.049238674 -0.066975735 0.09582175 0.058842827
0.046273336 0.028605817 0.052593224 -0.060042616 0.06715329 0.088893555 -0.006510732 0.043898523
0.14692606 -0.012239412 0.043675322 0.026956342 0.032403916 0.047730073 0.016018856 0.06211184
-0.019816032 -0.06999289 -0.10475636 0.106418714 -0.12657371 -0.03268495 0.0147857 0.02019473
0.14459984 0.011600536 -0.11440621 0.031655654 0.002079441 0.10135567 0.11450526 0.050795525
0.025458654 -0.0764842 -0.09777174 0.0032867023 -0.04438276 0.05911361 0.1333781 0.05556336
0.0761263 -0.032010946 0.056276012 0.0029181105 0.100205466 0.15839429 -0.031168282 0.12431608
0.06906532 0.0042745597 -0.061092194 -0.011909966 -0.058792308 0.06489738 0.04793022 -0.06943928
0.16239446 0.1319479 0.11042287 0.049748566 0.02707126 0.172212 0.13223076 0.03722968
0.097921446 -0.059071697 0.020611912 -0.096389405 -0.10093229 0.017958647 -0.09787004 -0.06710785
0.108148135 -0.013870849 0.030690413 -0.049980137 -0.022523897 -0.009864596 -0.051020805 0.14303209
0.023735525 -0.034182165 -0.04798198 0.10253111 -0.0639535 0.12614784 -0.047724638 0.030661708
0.044276886 -0.02816959 0.045376115 0.047490876 0.043641314 0.010756111 0.11269277 -0.03128274
-0.06570589 -0.003769011 -0.074908994 0.081826046 0.05984597 0.13709658 0.12091386 -0.075050846
0.07917275 -0.08907997 -0.028682096 -0.018455394 0.04490597 -0.0020417771 -0.10220784 -0.06707999
-0.030879216 -0.10705072 0.024226341 0.07979022 -0.037697542 -0.009061771 0.07881866 -0.09817767
-0.050624937 0.12092597 0.060387485 -0.018855883 0.0052536945 0.01822934 0.06427896 0.06040049
-0.052720606 0.10962002 0.04013692 -0.08714223 0.07672603 -0.019834854 0.075649224 0.10214617
0.11647991 0.03390737 -0.024604226 0.07707598 -0.03179595 0.09917276 0.11006737 -0.088960946

features.layers.1.logic.3.layer.0.mlp.0.bias f4 [8]
00000000: e8fa a33d 2a93 b8bd 2fa8 bbba 0eac 10bb
00000010: 59ef f1bc a451 bd3b 30ea 0e3e c4d1 823d
0.08006841 -0.09012444 -0.001431709 -0.0022075209 -0.029533075 0.0057775546 0.13956523 0.06387666

features.layers.2.logic.0.layer.0.mlp.0.weight f4 [8, 66]
00000000: 123d 77bd b043 f13d fda3 fb3d 9067 903d
00000010: 19fe 343c 4738 b63c cc71 d13d a7a6 00bd
00000020: 201e 68bd 4fc6 ca3d 0ade abbc 0079 5b3b
00000030: eacb 093e 0ce6 a03d 4cb7 793d d803 583c
00000040: fcc2 193d cab4 be3d 0197 bb3c eec0 483d
00000050: b069 d43c 47ac f2ba e1d4 073d 2600 013e
00000060: ec26 113d 98e2 263d 8fe1 fc3d 247f 26bb
00000070: f9ff 9e3d f1b1 e53d 4b4c 4ebd 552b 373d
00000080: 6053 0f3e 440b 083e 593d 7f3c a3b1 56bd
00000090: 7952 ecbb 3dac 05bd d156 64bd b12d 91bd
000000a0: 1f06 0a3e 09e8 3e3a 5e69 43bd 2028 69bc
000000b0: 5f46 8d3d e476 0d3e eb6c c73c a6ea e63d
000000c0: 2bc4 43bd de35 543d 9475 873d f0ca 74bd
000000d0: ef17 19bd 2d1f 5ebd 499a ab3d d11f 2f3d
000000e0: 01dc 8c3d 949d 0e3e 87fe 503d c4f9 243e
000000f0: ad4e ecba c11b e53d 9c56 363d 68c1 9d3d
00000100: 567c 8d3d b582 c33d 8c20 3abd 0e3a ac3d
00000110: 17b8 b13d 66c1 a43d d1a2 dc3c 1475 16bd
00000120: fc73 9b3d 9107 a53d ed3f 703d 1d63 803d
00000130: 93ea 903d f8da c53d 1503 39bd 6efc ea3d
00000140: 2b60 dc3d 4b72 68bd df0d 013d 9b35 263d
00000150: 9f67 f9bc 0679 c23d 507b a3bb c9b7 03bd
00000160: 661b 153e 95bd 813d 883d 0e3e bccd a83d
00000170: 0f97 0f3b 5592 a63d b4d0 033e b062 43bd
00000180: 2fdf 0c3d dbde 003e e91d 003d b2ca c73d
00000190: 5ff1 0d3e a3d8 7f3d c390 b93d 2343 56bd
000001a0: f3cf 503d 18c2 c83d 96af e73d 8e0c e23d
000001b0: 7890 15bd 41cc bebc 3a2f 4f3d 5d21 053e
000001c0: 95eb 703c 02d7 30bd 47d3 eabc 3dbc be3c
000001d0: 0c2e 70bd bfef 54bd 7616 e63d 05e6 da3c
000001e0: c6e5 203d 9c3c babc 220a 713d 0f4d e5bc
000001f0: 05fe e23d 0850 a43d d176 803d eb97 98bd
00000200: 8c34 b53d ebc3 9d3b 220a e93c 1501 c93d
00000210: 9963 373d d6f1 9fbc 660a de3d e920 b0bd
00000220: 32e8 80bd 1050 cb3d ef28 8d3c 5460 34bd
00000230: a88d f33c 2909 d83c a714 023e 31a0 87bd
00000240: 5321 4fbd a50c 053e 6bef d83b f77e 3dbd
00000250: bb8e 703c 1ee8 b53d c4f1 ec3d 4da7 0e3d
00000260: 60d3 003e 9b36 0abb 0555 823d 72dc 8e3d
00000270: 08af b23c d025 de3d 53d8 f8bc ccad 68bd
00000280: f11e 17bd e7b7 573c 114b 87bc c865 083e
00000290: b5a1 e13d 58fc ab3b 0d1d da3d 0819 9aba
000002a0: 8090 833b 1918 d73d fb40 643c 17e6 963d
000002b0: d510 233d 3889 4a3c 396d 7cbd 9127 003e
000002c0: 3a57 19bd 9df3 233d 4dae a1bc 8a68 883d
000002d0: 4d61 0d3d 13d2 ae3d 80af 4abc ae93 6bbc
000002e0: 617b c03d 7f39 b13b 79a8 933d 92e9 a73d
000002f0: 8e7e 28bd 046e a13c d842 413c 6f10 133e
00000300: 1735 8bbd 9535 e7bc c326 b73d 2239 223e
00000310: c511 ab3d e1cf fe3d 1c26 d8bd f0fe 69bd
00000320: f3db b3bc b21a d5bd 13b7 87bc 496b 28bd
00000330: 35b0 f03c 6123 0dbc 4702 83bd be18 5e3d
00000340: be3f 22bd b6bd d43c 5a67 7d3c 7c63 c2bc
00000350: 932c c73c 335d 77bc 5052 c83c 5f4c eabd
00000360: f4fc 223c b028 14bd 217e 3c3d 4f0f 283d
00000370: 54f3 c03d b1f9 01be e59d e1bc bc0a f2bd
00000380: 54d6 42bd 6084 8b3d c51e a8bd 4f4d 7abc
00000390: 85cb 37bd 1526 8f3d 835f 13ba ef9c 383b
000003a0: 78b3 5cbb c22b b53d cf0b d3bc 51c2 1c3d
000003b0: 9b99 02be 737b 1fbc 7853 57bd 6c3e 723c
000003c0: dceb 763d 07a3 973d 624a 8f3d 4961 573d
000003d0: 6156 aabd 34b3 793c 8805 603d 42fb 6a3d
000003e0: 0ab7 9dbd 43e2 78bd 30e8 3a3d 875b abbd
000003f0: e673 1b3d b3a6 06ba e95a 6bbd 7abb b83c
-0.060360976 0.117804885 0.12287138 0.07051003 0.01104691 0.022243632 0.10226783 -0.031408932
-0.056669354 0.099011056 -0.0209799 0.003348887 0.13456693 0.07856378 0.06096582 0.01318451
0.037539467 0.093118265 0.022899153 0.049012117 0.025929302 -0.0018514477 0.033162 0.12597713
0.03543751 0.04074344 0.123477094 -0.0025405372 0.07763667 0.1121558 -0.050365727 0.04471906
0.13996649 0.13285547 0.015578591 -0.0524155 -0.00721198 -0.032634962 -0.055746857 -0.07088793
0.13478898 0.0007282501 -0.047707908 -0.014230758 0.06898188 0.13814884 0.024343928 0.112752244
-0.047794502 0.051809184 0.06614223 -0.05976385 -0.03737634 -0.05422895 0.08379037 0.042754952
0.068779 0.13927299 0.051023986 0.16110903 -0.0018028818 0.11186934 0.04451619 0.07702905
0.06908481 0.09546415 -0.045441195 0.084095106 0.086776905 0.080447 0.026933106 -0.03673275
0.07590482 0.08058084 0.058654714 0.06268904 0.070759915 0.096609056 -0.045168955 0.114739284
0.1076053 -0.056749623 0.03150737 0.040578466 -0.030444918 0.0949574 -0.004989065 -0.032157693
0.14561233 0.06334988 0.1389066 0.08242366 0.0021910106 0.08133379 0.12872583 -0.047701538
0.034392532 0.12585013 0.031278525 0.09755458 0.13861607 0.06246246 0.09060814 -0.05231012
0.050979566 0.098026454 0.11312787 0.11037551 -0.03651473 -0.023290755 0.050582148 0.13001008
0.014704605 -0.043173797 -0.028665198 0.023283118 -0.058637664 -0.051986452 0.11234753 0.02672101
0.03928163 -0.022733979 0.058847554 -0.027990846 0.11083607 0.08023077 0.062726624 -0.07450851
0.08847913 0.004814615 0.028447215 0.098146595 0.044772718 -0.019524496 0.10841827 -0.08600027
-0.06294288 0.0992738 0.017231433 -0.04403718 0.029730633 0.026371555 0.1270319 -0.06622351
-0.05056889 0.12993105 0.0066203377 -0.04626366 0.014682467 0.088821635 0.11569551 0.03482752
0.12580633 -0.0021089676 0.063638724 0.0697564 0.021811977 0.10847056 -0.030376589 -0.05680637
-0.036894742 0.013166404 -0.016515287 0.13320076 0.11017171 0.0052485876 0.10650072 -0.0011756727
0.0040150285 0.10502643 0.013931508 0.07368105 0.039810974 0.012361817 -0.0616276 0.12515093
-0.0374367 0.04002725 -0.019736433 0.06660564 0.03451662 0.08536162 -0.012370944 -0.014378471
0.09398533 0.0054084654 0.07209868 0.08198847 -0.041136317 0.01970578 0.011795722 0.14361738
-0.067972355 -0.028223792 0.0894294 0.15842107 0.08352999 0.124419935 -0.10554144 -0.057127893
-0.021955466 -0.10405482 -0.016566789 -0.04111794 0.029380897 -0.008614392 -0.06396919 0.054222815
-0.03961157 0.025969367 0.015466535 -0.023729078 0.024313247 -0.015097904 0.024453312 -0.11440348
0.009948004 -0.036171615 0.046018723 0.041030224 0.09421411 -0.12692906 -0.02754111 -0.11818454
-0.04756768 0.06812358 -0.08208994 -0.015277221 -0.044871826 0.069896854 -0.00056218373 0.0028169712
-0.0033676308 0.08846237 -0.025762467 0.038271252 -0.12753908 -0.009734022 -0.052569836 0.01478539
0.060283527 0.07404142 0.06996609 0.052583013 -0.08317257 0.015240479 0.054692775 0.057368524
-0.077009276 -0.060762655 0.045631588 -0.08367067 0.037952326 -0.00051365345 -0.057459746 0.022550333

features.layers.2.logic.0.layer.0.mlp.0.bias f4 [8]
00000000: 35e5 b83d dd1b 423d 9577 90bc 4cd6 b1bd
00000010: f71a 883d f052 103d 75ca 9d3d 708f 4c3d
0.09028093 0.047389854 -0.017635146 -0.08683452 0.06645768 0.035235345 0.07704631 0.04994148

features.layers.2.logic.1.layer.0.mlp.0.weight f4 [8, 73]
00000000: 97fa f4bd d647 00be 1111 8cbd 7665 013c
00000010: 3ae0 27be 99d0 5cbd 7fed 7cbd f4af 04bd
00000020: 1a2a 55be 5755 5abe 81c8 56be 4cd3 80bc
00000030: d2b7 5abe 22a2 dabd eb0c 99bd 5da5 d4bd
00000040: dddf c0bc 2050 08be f257 f3bc dbe0 953a
00000050: 24a0 80bd 0dca 2fbd 0b04 d33c 1712 00bc
00000060: 92a4 a1bd 326d 11bd 97eb 63be 6479 143c
00000070: 4a16 8aba e324 08bd c89d 95bc 09ff 7fbd
00000080: 9479 7cbc 5aed 49be e3d3 87bd 4e59 b33d
00000090: ee9d c8ba 10dc 24be 893c bd3c 987c 35be
000000a0: 6b6f 0dbe ee51 25be 8856 20be 3c10 0abe
000000b0: cfc8 23bd 3ea9 c4bd 51e7 43bc ed33 2fbe
000000c0: 59d9 18be a1ab f3bd 7b9a 43bd 5154 6fbd
000000d0: c1c3 1e3c e9e2 1ebe ff35 183c acca 683d
000000e0: ac73 883d 6b8c 2bbc 8f55 82bd c34e 94bc
000000f0: d946 edbd 9bd7 43be d4a2 9ebd c27e 2dbd
00000100: 8b42 1a3d a9de 3abe a9e9 0bbe 850d 5cbe
00000110: 2211 14be 17f7 0f3d 85b9 bb3c 7d02 92be
00000120: d8d7 2dbe 05a2 843c d0b3 43bd 7bed 60be
00000130: aee4 b6bd 1a92 e2bd aadc a6bd 7d6c cabc
00000140: 390d 11bd 5245 55bc 5b08 4cbe aa52 3bbe
00000150: c6e5 8e3d 177e 2abe 0b3f 06be 98fb 32be
00000160: 4ada f2bc baa9 193d f9d3 06bd 6f47 aebd
00000170: aaa7 9bbd fc9c 45bc 8745 7bbd fcaa 35be
00000180: c65f ecbc 91b2 8dbd b68c 02be 4c71 e4bc
00000190: 2e85 323d 2e29 183d b2d4 9f3d f3d0 aabd
000001a0: 53d2 97bd 575a 1a3d 83db 3abd 17d2 e5bd
000001b0: 2061 393d 8ace 3abe c546 1fbb 2ac9 a13c
000001c0: 65a4 28be 3abb 38bd 337b e3bd 2278 1cbe
000001d0: 266c 8bbd 9d08 453d 700b f1bd f872 e5bc
000001e0: 4705 34be c481 9ebd b69a 31bd 7baf b4bd
000001f0: 1d92 bfbd 0a4c 523c 2551 c2bd c2ba dbbc
00000200: ffb8 133d b5a2 aebd bc8a c03d 914e d73d
00000210: c84d bcb9 fb26 b7bd 1c2c 36bd 089e 09be
00000220: 6c33 ad3c 8c3f ecbd 5a88 36be 5fb3 0dbb
00000230: ff3e 34bd c055 42be 88eb 423c 1b84 96bb
00000240: f688 d1bd 4810 b2bd ab19 e13c 114a 73bd
00000250: bdcd 55be d54e 42bd e797 b9bd 9277 14be
00000260: fa85 a2bd 65ea 5d3c 1b44 6dbd 319d 64be
00000270: 766d 64be 88c9 6ebc f603 f4bd c1b2 16be
00000280: 95f9 17be f7a5 aabd 3f47 9ebd ea29 8dbd
00000290: eba2 abba ed46 2cbd b892 4bbd 8b13 dbbd
000002a0: 7f46 d7bc c86f efbc ed6c bb3b 90a9 1cbe
000002b0: 6aeb 29be d9cc 4d3c 02e5 fa3c 2014 f13b
000002c0: 4ae2 b6bd d103 05be d512 4d3d 2fbe 21bd
000002d0: 32da b23d a4b7 67bd 6142 82bd afc3 f7bd
000002e0: f6d8 a2bb 6555 1abe 6c16 3abe aec0 41bd
000002f0: 6cdf 8fbc 509d 06be e525 1cbe 66ff 8d3d
00000300: d3d0 933d d4c1 c73c c5b3 c33d 324a 8bbd
00000310: 8960 003d bb09 15be a493 b7bd 8d35 52be
00000320: 29dc 263c 28b1 103d 2672 953d 5511 683d
00000330: 423c 543d 68b1 36bd 63da dcbd a957 9ebd
00000340: 4914 1cbd c621 8e3d aa5d 143b cf01 e5bd
00000350: 3878 05be ebbe f7bd 6de7 93bd 034a 933d
00000360: a489 8c3d 8c25 23be ec46 3bbe a1b6 ad3d
00000370: 6f56 753d 0d80 c03d 356a 4bbd 0ee3 a03d
00000380: 05a2 a13d 3189 9bbc b188 d9bc 7c01 113d
00000390: 04ef 383e 373e e63d 8f80 aebd 4ec4 e23d
000003a0: 5ec2 d23d 8359 493e 0a22 a13d 9daf e73d
000003b0: 4107 893c 55f1 973d a58e e13d be76 6d3d
000003c0: 9f7f 653d ec1a a63d 96ce ae3d 1470 1fbd
000003d0: bb08 1c3e 6332 8c3d 2e4c 83bb 8b37 bcbd
000003e0: f82c de3d 9065 0b3e 0a26 a13d 7f3e 203d
000003f0: 5f37 84bd e40a 06be 4aab 85bd a013 f03b
-0.11961859 -0.12527403 -0.06839193 0.007897725 -0.1639413 -0.05390987 -0.06174993 -0.032394364
-0.20816842 -0.21321617 -0.20974924 -0.015725754 -0.21359184 -0.10675456 -0.07473167 -0.10383103
-0.023544246 -0.13311815 -0.029705022 0.001143481 -0.062805444 -0.0429173 0.025758764 -0.007816813
-0.078927174 -0.035504527 -0.22257839 0.009062145 -0.0010535207 -0.033238303 -0.018263713 -0.06249908
-0.015409846 -0.19719449 -0.06632211 0.08757268 -0.0015305856 -0.16099572 0.023100154 -0.1772331
-0.13812034 -0.16144535 -0.15658009 -0.13482755 -0.039986428 -0.09602593 -0.011957006 -0.17109652
-0.14926662 -0.1189797 -0.047754746 -0.05843002 0.009690226 -0.15516247 0.009290217 0.056833908
0.06662688 -0.01047049 -0.06363975 -0.018103963 -0.11585779 -0.19125216 -0.07745901 -0.042357214
0.037661117 -0.18249 -0.13663353 -0.21489532 -0.1445966 0.035147753 0.022915611 -0.28517523
-0.16976869 0.016190538 -0.047778904 -0.21965592 -0.08930336 -0.11063023 -0.08147557 -0.024709934
-0.035413 -0.0130170155 -0.19925062 -0.18293253 0.069774196 -0.16649662 -0.13109986 -0.17478788
-0.029645104 0.03751538 -0.032916997 -0.085097186 -0.07600339 -0.012061354 -0.061345603 -0.17741007
-0.028854262 -0.069188245 -0.1274899 -0.027886055 0.04358404 0.037148647 0.0780424 -0.08340635
-0.07413163 0.03768381 -0.0456195 -0.11221712 0.04525864 -0.18242851 -0.0024303657 0.019749243
-0.16468962 -0.04510043 -0.11107483 -0.15280202 -0.06807737 0.048103917 -0.1176976 -0.028008923
-0.17580138 -0.077395946 -0.043360434 -0.08822533 -0.09354041 0.012835512 -0.09488133 -0.026822452
0.036065098 -0.08527128 0.094014615 0.10513032 -0.00035916106 -0.08942982 -0.04447566 -0.1343919
0.021142684 -0.11535558 -0.17825451 -0.0021621806 -0.04400539 -0.18978024 0.011896975 -0.004593385
-0.10231201 -0.08694512 0.02747806 -0.059396807 -0.20879264 -0.04743846 -0.09062176 -0.14498737
-0.0793571 0.013544654 -0.05792628 -0.22325589 -0.22307381 -0.014574416 -0.11914818 -0.14716627
-0.14841302 -0.083324365 -0.07728433 -0.0689276 -0.0013094818 -0.042059828 -0.04970047 -0.10697087
-0.026278732 -0.029228106 0.005719772 -0.15299058 -0.1659371 0.0125610465 0.030626778 0.0073571354
-0.0892988 -0.12989737 0.050066788 -0.039488014 0.08733024 -0.056571618 -0.06360317 -0.120978706
-0.0049697114 -0.15071638 -0.18172616 -0.047302894 -0.01756259 -0.13145947 -0.1524883 0.06933479
0.072175644 0.024384417 0.09555773 -0.06801261 0.031342063 -0.14554493 -0.08963707 -0.2052824
0.010184326 0.0353252 0.07297163 0.056657154 0.05181528 -0.04460278 -0.107838415 -0.077315636
-0.038105283 0.069400355 0.0022638836 -0.111819856 -0.13034141 -0.120969616 -0.07221875 0.07191851
0.0686219 -0.15932292 -0.18288773 0.08482099 0.059896883 0.09399424 -0.049661834 0.07855807
0.07892231 -0.018986316 -0.026554437 0.035401806 0.18059927 0.11242335 -0.08520614 0.110725984
0.10290979 0.19663052 0.078678206 0.113127925 0.016727092 0.07419077 0.110135354 0.05797457
0.056029912 0.08110604 0.08535497 -0.038925245 0.15237705 0.06845548 -0.004006884 -0.091902815
0.10848421 0.13612962 0.078685835 0.0391221 -0.06455874 -0.13090092 -0.065268114 0.007326558

features.layers.2.logic.1.layer.0.mlp.0.bias f4 [8]
00000000: 8d71 52be d00c 2dbe 4e9f 41be 5a52 8a3d
00000010: 9df5 993d 1baa a1bd 925f 1d3e 4cf1 53be
-0.20551129 -0.16899419 -0.18908426 0.067539886 0.0751755 -0.07893773 0.15368488 -0.20697516
