models_every10epochs/checkpoints/checkpoint_110.pth (torch, 178550 bytes, 101 tensors)

features.layers.0.logic.0.layer.0.mlp.0.weight f4 [8, 18]
-0.016824631 -0.031383373 -0.06835877 -0.09456945 -0.036700618 0.12651946 -0.020850148 -0.0047699683
0.002887389 0.009245864 0.114801876 -0.08670128 -0.19730178 0.043181896 -0.13309932 -0.029649938
-0.1805758 0.039035108 0.12163917 0.114287406 -0.082426645 0.16597351 0.071743056 -0.062452156
0.1031398 0.1428162 0.2063718 -0.04939505 0.12917686 -0.12757936 0.0461168 -0.044229493
0.0111415535 -0.07253773 0.010580621 0.02203969 0.15138067 -0.07210617 0.11323053 0.21918555
0.02762433 0.13115074 0.050969258 0.047234673 0.12484039 0.15582478 0.08786401 0.26882064
-0.026260056 0.120893925 0.13979995 0.29217944 -0.053406157 0.11530177 0.19773687 0.11608541
0.16843614 -0.15860075 -0.10810624 0.08450102 -0.10489626 0.13702835 0.03196614 0.13628308
0.12905064 -0.0021978433 -0.12458359 0.12815547 -0.02289846 0.12592134 0.026433937 0.042432457
0.10071891 -0.022738343 0.14715669 0.21544199 0.24552937 0.07050876 0.18455003 -0.053796098
-0.02262363 0.17407069 0.0021977394 0.08083752 -0.05082404 0.19119473 0.08859584 0.17433426
0.17512444 0.17710283 -0.08366462 0.07740926 0.13401029 -0.16172491 0.014816067 -0.21584213
-0.047942813 -0.06930906 -0.16379358 -0.026432367 0.1588269 0.111291274 0.07216371 -0.0752116
-0.11398858 -0.14200306 -0.12691529 0.108863056 0.12805064 -0.041672207 0.15756123 -0.11536912
0.15547575 0.10461788 0.010186621 -0.13003635 -0.028322438 0.11733301 0.1663161 -0.1477201
-0.07666847 -0.10172899 0.13234706 0.123625144 -0.050881594 -0.060401395 0.037303396 -0.105918355
0.1817237 -0.0017246993 0.18681088 0.053310815 0.018564679 -0.08693828 0.01296697 -0.055936534
0.17463593 -0.14842322 -0.034545243 0.007861328 -0.04145072 -0.04939774 0.122217596 0.15106882
00000000: cfd3 89bc da8b 00bd afff 8bbd a1ad c1bd
00000010: 6353 16bd 518e 013e eecd aabc 654d 9cbb
00000020: 593a 3d3b f77b 173c 3f1d eb3d 7190 b1bd
00000030: 7a09 4abe 80df 303d 304b 08be 6de4 f2bc
00000040: dde8 38be 47e3 1f3d f51d f93d 840f ea3d
00000050: 4dcf a8bd f6f4 293e 06ee 923d d5cd 7fbd
00000060: f63a d33d 693e 123e 2153 533e 7752 4abd
00000070: f046 043e 2aa4 02be f8e4 3c3d fc29 35bd
00000080: 108b 363c a98e 94bd 575a 2d3c 948c b43c
00000090: 8903 1b3e 66ac 93bd 68e5 e73d 2d72 603e
000000a0: 6b4c e23c 614c 063e 24c5 503d 2579 413d
000000b0: 52ac ff3d 8890 1f3e 0cf2 b33d dca2 893e
000000c0: 541f d7bc 3c97 f73d b827 0f3e 8b98 953e
000000d0: 6ac0 5abd 5623 ec3d 897b 4a3e 30be ed3d
000000e0: 867a 2c3e 3c68 22be ce66 ddbd df0e ad3d
000000f0: dad3 d6bd 2951 0c3e edee 023d cb8d 0b3e
00000100: da25 043e b109 10bb ae25 ffbd 303b 033e
00000110: 8d95 bbbc 86f1 003e fc8b d83c a8cd 2d3d
00000120: b745 ce3d c345 babc 3eb0 163e d39c 5c3e
00000130: 0d6c 7b3e e666 903d affa 3c3e 4c59 5cbd
00000140: 3155 b9bc 963f 323e f307 103b 248e a53d
00000150: de2c 50bd 8dc8 433e bc71 b53d ae84 323e
00000160: d253 333e 725a 353e 5b58 abbd bf88 9e3d
00000170: fe39 093e 379b 25be 17bf 723c b805 5dbe
00000180: af5f 44bd e9f1 8dbd 81b9 27be b188 d8bc
00000190: 85a3 223e aeec e33d 91ca 933d 8a08 9abd
000001a0: d872 e9bd 4069 11be 15f6 01be 98f3 de3d
000001b0: b51f 033e 7ab0 2abd bb57 213e a546 ecbd
000001c0: 0935 1f3e e641 d63d c9e5 263c 4028 05be
000001d0: 7504 e8bc 4a4c f03d c54e 2a3e f043 17be
000001e0: 5c04 9dbd 4a57 d0bd fd85 073e 2e2f fd3d
000001f0: 3869 50bd 7467 77bd 72cb 183d b9eb d8bd
00000200: c715 3a3e 4e0f e2ba 5a4b 3f3e 715c 5a3d
00000210: f414 983c b20c b2bd 6a73 543c b51d 65bd
00000220: c3d3 323e 42fc 17be 507f 0dbd cdcc 003c
00000230: 3bc8 29bd 4955 4abd 384d fa3d c9b1 1a3e

features.layers.0.logic.0.layer.0.mlp.0.bias f4 [8]
0.018774455 0.027708648 0.08591698 -0.04554148 -0.03318117 0.1586837 -3.378951e-05 0.1361725
00000000: e3cc 993c 3ffd e23c 3ef5 af3d b489 3abd
00000010: fae8 07bd fb7d 223e 36b9 0db8 ce70 0b3e

features.layers.0.logic.1.layer.0.mlp.0.weight f4 [8, 9]
0.15367034 0.07674345 0.2220225 0.32539406 0.13503076 0.2089209 0.22158733 0.37225503
0.36334893 0.16358279 0.31820634 0.33046216 0.1513938 0.108716935 0.1558835 0.13600479
0.16016072 0.4574639 -0.19777407 -0.01664584 -0.07133963 -0.37005797 -0.0099489475 -0.32834607
-0.40508753 -0.47679117 -0.2776338 -0.4216682 -0.17639713 -0.5719318 -0.20760967 -0.11114731
-0.3637314 0.0047601135 -0.06874384 -0.015473587 0.06789581 -0.3439086 -0.23658004 -0.33898544
-0.36341664 -0.13842201 -0.053278927 0.009739166 -0.03742705 0.07612272 0.21045172 0.36253583
0.087563016 0.2638997 0.3266243 0.27323332 0.21149258 -0.0035122198 0.21309997 0.3171277
0.3156347 0.0663809 0.082354054 0.28158018 0.14815587 0.15334217 0.28388402 -0.015953641
-0.4177065 -0.2662318 -0.24759163 -0.21472755 0.0653511 -0.17280085 -0.34058186 -0.4100417
00000000: c25b 1d3e ab2b 9d3d de59 633e 0d9a a63e
00000010: 8145 0a3e 5cef 553e cae7 623e 3698 be3e
00000020: df08 ba3e 3f82 273e f1eb a23e 5632 a93e
00000030: fa06 1b3e fca6 de3d ed9f 1f3e d744 0b3e
00000040: 2c01 243e b538 ea3e 4985 4abe db5c 88bc
00000050: 831a 92bd 3d78 bdbe e900 23bc fa1c a8be
00000060: a267 cfbe f91d f4be 0426 8ebe e5e4 d7be
00000070: 73a1 34be 1f6a 12bf a197 54be 33a1 e3bd
00000080: 013b babe bafa 9b3b 92c9 8cbd ee84 7dbc
00000090: f50c 8b3d ca14 b0be 0a42 72be 808f adbe
000000a0: bf11 babe 80be 0dbe 013b 5abd 0691 1f3c
000000b0: 1b4d 19bd 3be6 9b3d a880 573e 4c9e b93e
000000c0: 3d54 b33d dd1d 873e 4d3b a73e 3de5 8b3e
000000d0: 8391 583e 452d 66bb e136 5a3e 905e a23e
000000e0: df9a a13e b6f2 873d 3ea9 a83d 472b 903e
000000f0: 2cb6 173e bb05 1d3e 3f59 913e 36b1 82bc
00000100: a0dd d5be 894f 88be a988 7dbe 8ae1 5bbe
00000110: ccd6 853d b5f2 30be bf60 aebe fcf0 d1be

features.layers.0.logic.1.layer.0.mlp.0.bias f4 [8]
0.4559397 0.32623065 -0.48807493 -0.22830932 -0.4090909 0.44435102 0.22634077 0.011514028
00000000: ee70 e93e b407 a73e f5e4 f9be ebc9 69be
00000010: 5d74 d1be fa81 e33e e0c5 673e 55a5 3c3c

features.layers.0.logic.2.layer.0.mlp.0.weight f4 [8, 18]
0.17889754 0.17813472 0.11596141 0.05400088 -0.062943324 0.11144665 0.011996824 0.05708113
-0.038527347 0.07421826 0.13610303 -0.04706239 0.042598747 0.057664167 -0.03143196 0.1643533
0.21876366 -0.021218425 -0.05756455 0.124415204 0.21884888 0.0045522205 -0.021395193 0.014375435
-0.0889648 -0.053726166 -0.094502084 0.037952915 0.23799546 0.104836255 0.07329851 -2.4846131e-05
0.031221624 0.1839588 0.020186834 0.018273976 0.07727381 -0.14132771 0.041561186 -0.05186867
-0.0799139 -0.08312414 -0.022391833 -0.12920961 0.10635929 0.084224045 -0.049750786 0.0022528002
-0.030610735 -0.08885007 -0.02369259 -0.10433756 0.1164282 0.009132436 -0.023371551 -0.07880389
0.08040998 -0.05329066 -0.0093294 -0.06710978 0.107478365 -0.14314452 0.16196424 0.17118113
0.011289831 0.15985826 0.16654845 0.026847042 -0.015787601 -0.123764075 0.056563325 0.16625272
0.08057078 -0.0024957864 0.1170005 0.15782002 0.15925415 -0.11097093 0.05228856 -0.07166602
-0.01268656 0.18012215 -0.10948541 0.016574414 0.097156234 0.11853389 0.004405859 0.123332426
0.105537854 0.12882233 0.0904479 -0.09944965 0.062281683 0.030058388 -0.04192557 -0.0902294
0.19411391 0.051788844 -0.0037460658 -0.064075425 0.037972104 0.21528117 -0.026649699 -0.0064631226
0.10122704 0.22718096 -0.04116376 0.22116639 -0.072590694 0.06147708 -0.08033822 -0.017670538
0.10471023 0.03436521 0.099497415 -0.12779215 0.16705343 -0.07050181 0.20742628 -0.015207416
0.1688492 0.19515769 0.128497 0.12184677 -0.03937521 -0.008651617 -0.16417055 -0.085715085
0.008956128 -0.07897943 0.016077466 -0.14722817 0.11524891 -0.10614836 -0.027438471 -0.084439546
-0.06549475 -0.06755616 -0.099209584 -0.19256699 0.03852251 -0.17149502 0.03975796 -0.115602925
00000000: eb30 373e f368 363e 2d7d ed3d 0730 5d3d
00000010: 6ee8 80bd 243e e43d 548e 443c e7cd 693d
00000020: dace 1dbd beff 973d 985e 0b3e 7ec4 40bd
00000030: 067c 2e3d 4331 6c3d cdbe 00bd 3b4c 283e
00000040: 9503 603e 43d2 adbc cec8 6bbd 66cd fe3d
00000050: ec19 603e cb2a 953b f944 afbc f286 6b3c
00000060: 2d33 b6bd f80f 5cbd 4f8a c1bd 8474 1b3d
00000070: 15b5 733e 64b4 d63d 871d 963d a96c d0b7
00000080: 7ec4 ff3c b25f 3c3e dc5e a53c 4eb3 953c
00000090: bb41 9e3d 36b8 10be 103c 2a3d 3e74 54bd
000000a0: e6a9 a3bd fd3c aabd 146f b7bc 864f 04be
000000b0: e6d2 d93d a87d ac3d 7bc7 4bbd b7a3 133b
000000c0: 5dc3 fabc 07f7 b5bd f616 c2bc eeae d5bd
000000d0: e871 ee3d 36a0 153c b275 bfbc ef63 a1bd
000000e0: fdad a43d 4f47 5abd 57da 18bc da70 89bd
000000f0: 9e1d dc3d 7a94 12be f4d9 253e 1b4a 2f3e
00000100: fcf8 383c e2b1 233e ad8b 2a3e 54ee db3c
00000110: 0055 81bc 0578 fdbd f2ae 673d 273e 2a3e
00000120: 4b02 a53d 5990 23bb f59d ef3d 929b 213e
00000130: 8513 233e ba44 e3bd 872c 563d a2c5 92bd
00000140: 4adb 4fbc f171 383e e339 e0bd 11c7 873c
00000150: d9f9 c63d e5c1 f23d 065f 903b b695 fc3d
00000160: 3b24 d83d 00ea 033e c03c b93d 42ac cbbd
00000170: 141b 7f3d 023d f63c 26ba 2bbd 31ca b8bd
00000180: ccc5 463e 8a20 543d 8e80 75bb fa39 83bd
00000190: a388 1b3d ab72 5c3e 7850 dabc 9ac8 d3bb
000001a0: 1f50 cf3d 20a2 683e 559b 28bd 7179 623e
000001b0: 6eaa 94bd 64cf 7b3d 5d88 a4bd cec1 90bc
000001c0: 5172 d63d 89c2 0c3d 4dc5 cb3d f2db 02be
000001d0: 0e10 2b3e 4163 90bd 8e67 543e 8728 79bc
000001e0: cee6 2c3e 6bd7 473e b894 033e cd8a f93d
000001f0: e647 21bd 83bf 0dbc 531c 28be 648b afbd
00000200: b9bc 123c f8bf a1bd e4b4 833c fbc2 16be
00000210: 9f07 ec3d 5064 d9bd a5c6 e0bc a4ee acbd
00000220: 1d22 86bd e25a 8abd 652e cbbd 4830 45be
00000230: c8c9 1d3d 649c 2fbe 3ed9 223d 3ac1 ecbd

features.layers.0.logic.2.layer.0.mlp.0.bias f4 [8]
0.2339562 -0.006222103 0.12658544 -0.01349651 0.17605925 0.19493544 0.06225742 -0.13456088
00000000: 3792 6f3e c8e2 cbbb 9d9f 013e 7720 5dbc
00000010: e048 343e 289d 473e a301 7f3d 54ca 09be

features.layers.1.logic.0.layer.0.mlp.0.weight f4 [8, 42]
-0.049091544 0.05806271 0.03132559 -0.023756746 0.121625185 -0.047248185 0.10858509 0.083125904
-0.024190964 -0.0189027 0.13233298 0.078759804 0.09803529 0.09037977 0.1080211 -0.06957741
0.1313942 0.11819974 0.079604305 -0.0035899887 0.08367472 0.09221582 -0.04041707 0.035193622
0.13360949 0.0006378933 -0.029302588 0.09772353 -0.076312006 -0.019157365 -0.04059333 -0.054615095
0.08057346 0.02159226 -0.03532542 0.044074953 0.0014356242 -0.04423122 0.05673701 0.01548093
0.0053364127 -0.023606949 -0.033385087 0.04371385 0.090886705 0.026074274 0.0051348084 0.08120494
-0.060054835 -0.068775065 0.0066008978 -0.06739626 -0.0027212144 0.08274988 0.14502089 0.055101827
0.07121756 0.027452864 0.048564266 0.045674086 0.15215333 0.029969176 0.06394779 -0.034898918
0.073826134 0.11766119 0.049657464 0.05555039 -0.027190177 0.095470145 0.1300353 -0.024336696
0.06642386 -0.02699382 0.10997451 -0.0077285194 0.038508117 0.1068359 0.035676118 0.1793548
0.02552138 0.096817866 -0.030678784 0.07808371 -0.053423032 0.034045674 0.028898828 -0.09806836
0.009994975 0.015391387 0.1256298 0.001026461 0.09480781 0.021789057 0.06906203 0.08978472
-0.06050315 -0.011156744 0.111954756 0.050846554 0.08978375 -0.003995875 0.05068895 -0.05110071
0.07790561 0.13118191 0.01789689 -0.082551524 0.059957772 0.087578356 0.061531648 0.15835015
0.11128631 -0.011011866 0.070285134 -0.001677917 -0.008465883 0.096567824 0.09187202 -0.018037764
-0.028228292 0.19258535 -0.057242338 0.10475258 0.123612314 0.04842101 0.023476565 -0.17516
-0.053111304 -0.016118785 0.011848445 -0.13273664 0.044352658 0.06738683 0.00063677155 -0.1601172
-0.10484907 0.03127509 -0.16060576 -0.05575168 -0.04427071 0.05634808 0.02861422 -0.12101389
-0.03437037 -0.12392461 -0.0064453785 -0.074055955 0.00450297 0.013231075 -0.10626025 0.040131122
-0.0627522 -0.032748923 0.008247402 0.039986167 -0.13654913 -0.122423224 -0.034267668 -0.025982495
-0.12556311 0.012134713 -0.06278704 -0.0776228 -0.0722944 -0.14648497 -0.08270486 0.013291606
0.06324091 0.12677687 0.12617305 0.024210686 -0.03423633 0.07017055 -0.06265009 -0.053774316
-0.016281607 0.043985046 0.04208415 -0.05990703 0.16623287 0.14663094 0.059181154 -0.0388616
-0.030878866 0.11454987 0.06031281 0.16999651 0.15364121 0.08540489 0.14851509 0.12066567
0.08118161 -0.03402515 0.10656208 0.09924998 -0.02177701 0.086523205 -0.072991855 0.042385034
0.10818546 0.0051331334 0.06893136 -0.01749597 -0.030747417 0.1006518 0.10984348 -0.035842728
0.006740009 -0.02310332 -0.06896743 0.06512024 0.09771907 -0.0663722 0.07658161 0.11092717
0.08442352 0.068590514 0.15485343 -0.03750932 0.12306563 0.08029251 -0.039260346 0.0005256818
0.034052745 0.040452458 0.07641541 -0.055439945 0.0024076155 0.16792658 0.088603705 -0.023771316
0.09510204 0.13026574 0.12074034 -0.03109582 0.1565703 0.13126437 0.033337466 -0.005113831
0.009261361 -0.030587273 0.03450595 -0.011385512 -0.03562832 0.10427812 0.119360365 -0.016804466
-0.00582127 -0.0031446745 0.03883 0.037430916 0.12521228 0.03776336 0.100175515 -0.051746592
00000000: 3714 49bd 2ad3 6d3d 434f 003d 829d c2bc
00000010: a016 f93d 5087 41bd dc61 de3d ea3d aa3d
00000020: 212c c6bc d6d9 9abc 4c82 073e d24c a13d
00000030: bac6 c83d 0719 b93d 2b3a dd3d 9a7e 8ebd
00000040: 338c 063e b512 f23d 9507 a33d 0446 6bbb
00000050: a75d ab3d a6db bc3d 5f8c 25bd 3027 103d
00000060: edd0 083e 4b38 273a fb0b f0bc 4623 c83d
00000070: 7849 9cbd e8ef 9cbc 3145 26bd 14b4 5fbd
00000080: b303 a53d 40e2 b03c 63b1 10bd f087 343d
00000090: 8e2b bc3a cc2b 35bd 1165 683d baa3 7d3c
000000a0: 13dd ae3b 5c63 c1bc cdbe 08bd 4b0d 333d
000000b0: cf22 ba3d b799 d53c e541 a83b c74e a63d
000000c0: 0ffc 75bd f1d9 8cbd 584c d83b 0d07 8abd
000000d0: 6756 32bb c578 a93d 5b80 143e 74b2 613d
000000e0: 83da 913d d4e4 e03c 53eb 463d c014 3b3d
000000f0: 15ce 1b3e eb81 f53c 0ff7 823d 2bf2 0ebd
00000100: 2832 973d 5af8 f03d a065 4b3d ce88 633d
00000110: efbd debc da85 c33d f927 053e c05d c7bc
00000120: 3c09 883d 2522 ddbc 513a e13d 853f fdbb
00000130: b0ba 1d3d c8cc da3d 1f21 123d c9a8 373e
00000140: 3712 d13c 7248 c63d 1352 fbbc 5aea 9f3d
00000150: 1cd2 5abd 7a73 0b3d 3cbd ec3c 10d8 c8bd
00000160: f7c1 233c 282c 7c3c 19a5 003e 518a 863a
00000170: 992a c23d f77e b23c 6570 8d3d 0de1 b73d
00000180: 27d2 77bd c7ca 36bc 8948 e53d 7a44 503d
00000190: 8be0 b73d d4ef 82bb 379f 4f3d fa4e 51bd
000001a0: fa8c 9f3d 8d54 063e 809c 923c c610 a9bd
000001b0: 4896 753d 485c b33d 9c08 7c3d 8b26 223e
000001c0: 14ea e33d 1d6b 34bc a7f1 8f3d 8ded dbba
000001d0: 7db4 0abc 5ac5 c53d 6627 bc3d efc3 93bc
000001e0: 053f e7bc 1835 453e f176 6abd 8588 d63d
000001f0: 7428 fd3d 1c55 463d ed51 c03c 255d 33be
00000200: 3d8b 59bd 8b0b 84bc fb1f 423c 1dec 07be
00000210: 22ab 353d 1b02 8a3d 04ed 263a c3f5 23be
00000220: 1cbb d6bd 4f1a 003d d675 24be e05b 64bd
00000230: 3455 35bd 3fcd 663d 5e68 ea3c 21d6 f7bd
00000240: f2c7 0cbd 30cc fdbd c133 d3bb a6aa 97bd
00000250: a68d 933b 27c7 583c f99e d9bd 8860 243d
00000260: 3a84 80bd bc23 06bd 1c20 073c 89c8 233d
00000270: 89d3 0bbe 07b9 fabd 415c 0cbd 3ed9 d4bc
00000280: 9e93 00be add0 463c 7e96 80bd b4f8 9ebd
00000290: 160f 94bd 2800 16be 2a61 a9bd 09c5 593c
000002a0: 7384 813d ccd1 013e 8233 013e 7d55 c63c
000002b0: 653b 0cbd 94b5 8f3d b14e 80bd 7542 5cbd
000002c0: 0161 85bc aa29 343d 6e60 2c3d 1361 75bd
000002d0: f338 2a3e 6c26 163e f067 723d 572d 1fbd
000002e0: adf5 fcbc 1f99 ea3d 910a 773d 9113 2e3e
000002f0: 1f54 1d3e c2e8 ae3d 5714 183e 901f f73d
00000300: 8b42 a63d f55d 0bbd 383d da3d 9343 cb3d
00000310: b365 b2bc 1433 b13d c17c 95bd ee9b 2d3d
00000320: 5790 dd3d d833 a83b e32b 8d3d b553 8fbc
00000330: 02e2 fbbc 8822 ce3d 9ef5 e03d d3cf 12bd
00000340: 4bdb dc3b 2c43 bdbc cc3e 8dbd c35d 853d
00000350: f020 c83d 26ee 87bd d2d6 9c3d c92d e33d
00000360: 3de6 ac3d 2f79 8c3d e691 1e3e 5fa3 19bd
00000370: d509 fc3d 6670 a43d 75cf 20bd e9cd 093a
00000380: e47a 0b3d 7ab1 253d af7f 9c3d ff14 63bd
00000390: 16c9 1d3b f2f4 2b3e dc75 b53d 10bc c2bc
000003a0: dcc4 c23d 6264 053e b646 f73d a9bc febc
000003b0: f753 203e 2b6a 063e de8c 083d ec91 a7bb
000003c0: f7bc 173c 2992 fabc 1c56 0d3d 4c8a 3abc
000003d0: 00ef 11bd c48f d53d 3573 f43d 85a9 89bc
000003e0: 5ac0 bebb e216 4ebb 350c 1f3d 2951 193d
000003f0: a637 003e c1ad 1a3d d228 cd3d 3cf4 53bd

features.layers.1.logic.0.layer.0.mlp.0.bias f4 [8]
0.12689516 0.07832707 -0.049945325 0.038263522 0.04854262 0.09236945 0.12005328 0.010880632
00000000: cef0 013e f169 a03d 7893 4cbd 36ba 1c3d
00000010: a0d4 463d 322c bd3d 7ede f53d ae44 323c

features.layers.1.logic.1.layer.0.mlp.0.weight f4 [8, 41]
-0.088911064 -0.37504312 -0.2819981 0.04309781 -0.1536865 0.0484227 -0.24857502 -0.295975
-0.105845384 -0.11898709 -0.05974979 -0.07824658 -0.06240031 -0.1023602 -0.10149818 -0.046092547
-0.09031151 -0.29177845 -0.13710469 0.013243543 -0.09442357 0.0124214655 -0.021394338 -0.09045484
-0.05194844 -0.20379776 -0.19309989 -0.12201685 -0.089233726 -0.11833495 -0.108661175 -0.23410767
-0.18860039 -0.17506707 -0.16756818 -0.18684372 -0.2718937 -0.12752321 -0.1935753 -0.07676154
-0.11862429 -0.047068648 -0.38547426 -0.3603408 -0.15859441 -0.1914114 -0.13993947 -0.34088543
-0.20799321 -0.077120006 -0.09479533 -0.019711882 0.0041974992 -0.15321684 -0.101756275 -0.04158159
-0.11723263 -0.064687 -0.15083916 -0.19714823 -0.015187288 -0.09085558 -0.07083648 -0.15958962
-0.16560833 0.02329405 -0.27337077 -0.2019997 -0.054908548 -0.0533021 -0.063476875 0.019995661
-0.21844932 -0.2740843 -0.11296748 -0.17340288 -0.13223554 -0.30023912 -0.31704247 -0.2043358
0.046410054 -0.05788956 0.06853735 -0.18577617 -0.2691215 -0.03356511 -0.27250782 0.054398976
-0.21847385 -0.22359794 -0.0020454498 -0.11720904 -0.05200517 -0.11169632 -0.09577191 -0.04273515
-0.036710713 -0.17986317 -0.13087752 -0.15754078 -0.14607681 -0.058921233 0.056312602 -0.20629764
-0.06609798 -0.27778462 -0.102920234 -0.22683764 -0.24432597 -0.12053234 -0.061286297 -0.011596844
-0.008813407 -0.19638555 -0.18589267 -0.060616642 -0.17620017 -0.1588864 -0.17856808 -0.075071804
-0.06502887 -0.019307585 -0.08295597 0.03185492 0.24799569 0.33733624 0.15138331 0.285407
0.08655495 0.50628877 0.56447035 -0.000990124 0.0024450321 0.00043172733 0.018619712 0.081549235
0.07594476 0.112936534 -0.0024679769 0.15324137 0.19252722 0.14073399 0.12959114 0.08053526
-0.031836186 0.13959739 0.10754268 0.062481627 0.18907328 0.13294058 0.09769173 0.18932478
0.093471736 0.13079149 0.26690143 0.04562031 0.1765145 0.16835311 0.20296343 0.09294696
0.27924892 0.18907309 0.105014876 0.11531798 0.04746294 0.32472995 0.19147794 0.080038846
0.27277878 -0.028368812 0.36460093 0.086865775 0.038871497 0.12611899 0.09926155 0.02260723
0.15415251 0.0629042 0.03505424 0.2408767 0.08170449 0.18036973 0.20064025 -0.11429605
0.01388427 0.06994211 0.1563759 0.072846495 0.10833617 0.15968968 0.14546056 0.03508374
0.14311036 0.12754184 0.010697677 0.14439392 0.070720315 0.23032735 0.1714231 0.22668572
0.21708378 0.2956119 0.07671634 -0.1078679 -0.03464862 -0.0010706477 -0.14843273 -0.1415033
0.03175803 -0.21659765 -0.07872282 -0.33940995 -0.25414997 -0.21096988 -0.038541805 -0.060437165
-0.1851339 -0.14428753 -0.08476299 -0.13081127 -0.073190406 -0.18028672 -0.1256745 -0.15076207
0.06289371 -0.052507814 0.022387845 -0.12793365 -0.11546408 -0.0546959 -0.06480275 -0.223632
-0.19623108 -0.28499448 0.012758234 0.0014306508 -0.16586202 -0.029181592 -0.16388057 -0.2279634
-0.22726803 -0.19190189 -0.2547056 -0.058726 -0.10010033 0.029923685 0.1185028 0.29386926
0.15634537 0.11245588 0.173178 -0.042962737 0.15787543 0.22227275 0.10534489 0.1356264
00000000: 0117 b6bd a705 c0be 0e62 90be 5487 303d
00000010: fe5f 1dbe e256 463d 738a 7ebe 098a 97be
00000020: 77c5 d8bd 81af f3bd 32bc 74bd be3f a0bd
00000030: 7897 7fbd 39a2 d1bd 47de cfbd 8acb 3cbd
00000040: 3ef5 b8bd fc63 95be 2c65 0cbe 72fb 583c
00000050: 2561 c1bd 6783 4b3c 2e43 afbc 6340 b9bd
00000060: e3c7 54bd 5cb0 50be fabb 45be f8e3 f9bd
00000070: 2cc0 b6bd 9859 f2bd c089 debd ecb9 6fbe
00000080: 7620 41be c844 33be fe96 2bbe f653 3fbe
00000090: a735 8bbe 7295 02be 9a38 46be 2735 9dbd
000000a0: 4bf1 f2bd 0ecb 40bd e25c c5be 977e b8be
000000b0: 9366 22be 5a01 44be 4b4c 0fbe 8988 aebe
000000c0: 2cfc 54be 18f1 9dbd 0e24 c2bd d07a a1bc
000000d0: 2d8b 893b e0e4 1cbe 9865 d0bd 7551 2abd
000000e0: a917 f0bd 9e7a 84bd 9575 1abe 3ae1 49be
000000f0: 1ad4 78bc 7e12 babd b712 91bd 766b 23be
00000100: 3b95 29be 2ad3 be3c 41f7 8bbe 02d9 4ebe
00000110: c9e7 60bd 4e53 5abd 2a00 82bd f1cd a33c
00000120: 2eb1 5fbe c754 8cbe 7f5b e7bd 8690 31be
00000130: c168 07be f1b8 99be 6453 a2be 673d 51be
00000140: 7818 3e3d 9a1d 6dbd 4f5d 8c3d 1c3c 3ebe
00000150: 4bca 89be 927b 09bd 2586 8bbe 76d1 5e3d
00000160: 9cb7 5fbe dcf6 64be f40c 06bb 4b0b f0bd
00000170: 6003 55bd 0ac1 e4bd 1024 c4bd 0d0b 2fbd
00000180: f95d 16bd 0d2e 38be c204 06be 5f52 21be
00000190: 2995 15be 6457 71bd 0ba8 663d b03f 53be
000001a0: 615e 87bd c939 8ebe d8c7 d2bd 2048 68be
000001b0: 9630 7abe a9d9 f6bd 5707 7bbd b000 3ebc
000001c0: 1c66 10bc 4b19 49be a65a 3ebe 2849 78bd
000001d0: d16d 34be 1eb3 22be 8dda 36be 3fbf 99bd
000001e0: db2d 85bd f12a 9ebc d2e4 a9bd 4e7a 023d
000001f0: 95f2 7d3e 56b7 ac3e 3a04 1b3e de20 923e
00000200: b943 b13d 249c 013f 2181 103f 0cc7 81ba
00000210: d53c 203b 7659 e239 5e88 983c 4903 a73d
00000220: ed88 9b3d 454b e73d c8bd 21bb 4eeb 1c3e
00000230: db25 453e 921c 103e 8ab3 043e acef a43d
00000240: a966 02bd 9ef2 0e3e 563f dc3d bcec 7f3d
00000250: 6d9c 413e 9321 083e 9a12 c83d 5bde 413e
00000260: 1c6e bf3d 34ee 053e 4ea7 883e 5ddc 3a3d
00000270: 38c0 343e c264 2c3e a5d5 4f3e fa5a be3d
00000280: b7f9 8e3e 609c 413e 0a12 d73d d52b ec3d
00000290: 8068 423d 0143 a63e cb12 443e 68eb a33d
000002a0: a9a9 8b3e b665 e8bc f9ac ba3e afe6 b13d
000002b0: b837 1f3d 5625 013e a449 cb3d cc32 b93c
000002c0: 28da 1d3e ebd3 803d 0995 0f3d 62a8 763e
000002d0: af54 a73d d8b2 383e a374 4d3e 0c14 eabd
000002e0: d97a 633c cf3d 8f3d 0121 203e 8b30 953d
000002f0: 5bdf dd3d b185 233e 9df3 143e f8b3 0f3d
00000300: 868b 123e 549a 023e 4f45 2f3c 00dc 133e
00000310: d0d5 903d efda 6b3e 8a89 2f3e 4d20 683e
00000320: 364b 5e3e 715a 973e 751d 9d3d d8e9 dcbd
00000330: b6eb 0dbd fa54 8cba c0fe 17be 3ee6 10be
00000340: b514 023d c6cb 5dbe 6e39 a1bd 24c7 adbe
00000350: f21f 82be 7d08 58be 03de 1dbd f68c 77bd
00000360: be93 3dbe 1cc0 13be 3898 adbd 64f3 05be
00000370: dae4 95bd 159d 38be d1b0 00be 5f61 1abe
00000380: 6bce 803d 6f12 57bd b766 b73c 0a01 03be
00000390: 6e78 ecbd cf08 60bd 4eb7 84bd c9ff 64be
000003a0: cdf0 48be ccea 91be e907 513c ad84 bb3a
000003b0: bcd7 29be 3c0e efbc 4fd0 27be 3d6f 69be
000003c0: f3b8 68be ee81 44be c668 82be ad8a 70bd
000003d0: 6701 cdbd 8422 f53c 99b1 f23d 0876 963e
000003e0: 0019 203e 454f e63d 9355 313e b2f9 2fbd
000003f0: 19aa 213e 789b 633e 10bf d73d a6e1 0a3e

features.layers.1.logic.1.layer.0.mlp.0.bias f4 [8]
-0.16277073 -0.13675144 -0.12877285 0.3151146 0.26900798 -0.14854844 0.24949664 0.1685092
00000000: 5fad 26be 9208 0cbe 08dd 03be b356 a13e
00000010: 6abb 893e 151d 18be 0c7c 7f3e ad8d 2c3e

features.layers.1.logic.2.layer.0.mlp.0.weight f4 [8, 50]
-0.008440317 0.03430123 0.0043634223 -0.009507822 -0.016581925 -0.08070846 0.037398435 0.008335292
0.06405801 -0.06731974 0.020420156 -0.08792394 0.08959271 -0.10648288 0.06260198 -0.06547965
0.06088792 -0.008435415 -0.12922549 -0.101792395 -0.0028314695 0.041435897 -0.03492435 0.039791945
-0.11159752 -0.10277972 -0.0105641885 -0.09948121 -0.030188654 -0.0557037 -0.1168649 -0.106510095
-0.10014563 -0.04178425 0.030757539 -0.14586057 0.00037721454 -0.014909578 -0.067376554 0.033419482
-0.045470007 -0.036273435 0.05605739 -0.016045803 0.043633312 -0.15116188 -0.05461435 -0.06381549
0.053654667 -0.0029772564 -0.0798464 0.094560795 0.046100304 -0.039240494 -0.06944357 -0.08163055
0.029965628 0.03424628 -0.13558157 0.0477143 -0.11819967 -0.086594924 -0.048641432 -0.008679512
0.05146469 -0.03017904 0.022431623 0.02354841 -0.008774537 -0.12651272 -0.055851337 -0.040543687
0.006883318 0.077846065 -0.028222935 -0.036514595 0.03199882 -0.05836176 -0.071881525 -0.050897613
0.018707948 -0.00855898 -0.064700946 0.03143211 -0.085370086 0.04182019 0.11145101 0.075112335
0.08637211 0.031234253 -0.056828212 -0.012687627 -0.086729765 0.041066673 -0.06372504 -0.06310316
0.06042368 -0.13114186 0.0010666238 0.09843472 0.065887734 -0.026063368 0.10494143 0.08680367
-0.029619703 -0.032675344 0.13930866 0.083139524 -0.0018578359 0.04048091 0.12270081 -0.04123353
-0.017035836 -0.0014673047 -0.061050106 0.091332756 0.017394964 -0.05533815 0.06400681 0.010003719
0.07145199 0.0058453074 -0.010809873 0.14847635 0.02207838 0.031581216 -0.00862981 0.14507486
0.04864309 0.11509809 -0.009704668 0.09000554 0.09011036 0.13892019 0.14908302 0.047524434
0.06982547 0.00028098928 -0.07391769 0.1436046 0.09888114 0.08249142 0.06822763 0.115016796
-0.11555279 0.0016421766 0.116905004 0.07857209 0.15277766 -0.001208833 -0.10532055 -0.09845712
0.06926342 -0.06781533 -0.015168258 -0.06625363 0.05465279 -0.07508071 0.049042847 -0.053363275
-0.07082633 -0.07398917 -0.06819225 -0.11904841 -0.08566777 0.02044555 0.13029326 0.0076724705
0.061189312 0.05375809 0.10519882 -0.090260744 -0.0043584118 -0.020234846 0.07526064 -0.09142029
-0.0077770515 0.0013678534 0.1374197 0.08508599 -0.059577946 0.024567915 -0.12216076 -0.048508286
-0.06338185 0.03133408 0.016251706 -0.040147852 -0.064600095 -0.0020963273 0.0593885 -0.0010127677
-0.06405143 0.032048978 -0.022121692 -0.06939561 0.08109046 0.062048472 -0.07617591 -0.11448173
0.031627774 0.08143899 -0.013178568 0.079939745 -0.062231403 0.021350496 -0.06421628 0.09841415
0.08572008 -0.019242018 0.17720428 0.0057941508 0.060864016 -0.0033811966 -0.017291237 0.041379116
-0.10362949 0.09752002 0.033915833 -0.07147403 0.05799097 0.14282568 0.036472164 0.08186805
0.00805969 0.09323355 0.047324218 0.051958647 -0.034665816 0.04076902 0.03651441 0.06561186
0.041737057 0.15341927 0.09128362 0.0724858 -0.07193463 0.09670505 -0.0068357536 0.09011893
0.15021911 -0.00847913 0.053581595 0.0850729 0.116194285 -0.020215614 0.09166318 0.062495116
0.09352782 0.013031423 0.009325568 0.17498133 -0.04392646 0.13201828 -0.04675042 0.031946216
00000000: 4149 0abc 727f 0c3d 0afb 8e3b b2c6 1bbc
00000010: d1d6 87bc 7a4a a5bd 1a2f 193d c090 083c
00000020: d930 833d efde 89bd 2c48 a73c 7711 b4bd
00000030: 627c b73d b213 dabd 7835 803d 321a 86bd
00000040: 9d65 793d b234 0abc b053 04be 8878 d0bd
00000050: 2d90 39bb b0b8 293d d60c 0fbd e1fc 223d
00000060: 3e8d e4bd 2d7e d2bd 6b15 2dbc cebc cbbd
00000070: 324e f7bc 9029 64bd dd56 efbd f721 dabd
00000080: 2719 cdbd f625 2bbd 3cf7 fb3c 795c 15be
00000090: e1c4 c539 4d47 74bc b8fc 89bd dee2 083d
000000a0: c23e 3abd 7493 14bd 6f9c 653d 7d72 83bc
000000b0: d8b8 323d 2eca 1abe 4cb3 5fbd b2b1 82bd
000000c0: ffc4 5b3d 131e 43bb 8286 a3bd 17a9 c13d
000000d0: acd3 3c3d a4ba 20bd 6e38 8ebd eb2d a7bd
000000e0: 7a7a f53c d445 0c3d e5d5 0abe 1270 433d
000000f0: ab12 f2bd ae58 b1bd 3d3c 47bd 8334 0ebc
00000100: a4cc 523d 093a f7bc 86c2 b73c 98e8 c03c
00000110: 13c3 0fbc 8d8c 01be 5fc4 64bd 2311 26bd
00000120: 758d e13b c26d 9f3d c933 e7bc 5490 15bd
00000130: 3211 033d be0c 6fbd 9f36 93bd 047a 50bd
00000140: 6941 993c f73a 0cbc ee81 84bd f5be 003d
00000150: 83d6 aebd a64b 2b3d 6d40 e43d 7fd4 993d
00000160: dce3 b03d fade ff3c b3c4 68bd c4df 4fbc
00000170: 609f b1bd 8735 283d 4682 82bd 3b3c 81bd
00000180: d27e 773d 0d4a 06be f5cd 8b3a 2498 c93d
00000190: 26f0 863d d882 d5bc 88eb d63d 1fc6 b13d
000001a0: 05a5 f2bc 95d6 05bd eea6 0e3e 0e45 aa3d
000001b0: a182 f3ba 50cf 253d 904a fb3d 7de4 28bd
000001c0: bd8e 8bbc 9352 c0ba ad0f 7abd ab0c bb3d
000001d0: e27f 8e3c 42aa 62bd 0116 833d a3e6 233c
000001e0: 6c55 923d fe89 bf3b e51b 31bc 2f0a 183e
000001f0: b8dd b43c 4e5b 013d 0c64 0dbc 818e 143e
00000200: fa3d 473d 8cb8 eb3d 5400 1fbc d354 b83d
00000210: c88b b83d 1841 0e3e 38a9 183e fba8 423d
00000220: a800 8f3d be51 9339 2862 97bd 160d 133e
00000230: 3282 ca3d 43f1 a83d edba 8b3d ed8d eb3d
00000240: f1a6 ecbd 4e3e d73a e46b ef3d 67ea a03d
00000250: bf71 1c3e b471 9eba 4db2 d7bd e3a3 c9bd
00000260: fbd9 8d3d c4e2 8abd 4984 78bc fcaf 87bd
00000270: 9bdb 5f3d eac3 99bd 27e1 483d 7393 5abd
00000280: 650d 91bd a287 97bd 61a8 8bbd a7cf f3bd
00000290: 9572 afbd 6d7d a73c 996b 053e 5969 fb3b
000002a0: a5a1 7a3d 7131 5c3d 7b72 d73d a0da b8bd
000002b0: 02d1 8ebb 8cc3 a5bc 4022 9a3d 903a bbbd
000002c0: a3d6 febb 8b49 b33a c0b7 0c3e 9041 ae3d
000002d0: 0108 74bd a742 c93c 6c2f fabd a0b0 46bd
000002e0: 58ce 81bd 2a58 003d 4c22 853c 1372 24bd
000002f0: 0e4d 84bd 8962 09bb 5b41 733d d8be 84ba
00000300: 652d 83bd ca45 033d 8d38 b5bc 491f 8ebd
00000310: c112 a63d 8a26 7e3d 1e02 9cbd 6675 eabd
00000320: 208c 013d 7cc9 a63d ecea 57bc 73b7 a33d
00000330: 5be6 7ebd 3ce7 ae3c d383 83bd 5c8d c93d
00000340: 028e af3d 70a1 9dbc 0a75 353e dcdc bd3b
00000350: 8c4c 793d 1197 5dbb 5aa6 8dbc 267d 293d
00000360: b33b d4bd 94b8 c73d 54eb 0a3d fa60 92bd
00000370: f087 6d3d e540 123e d663 153d 70aa a73d
00000380: ca0c 043c 3bf1 be3d 0ad7 413d 97d2 543d
00000390: befd 0dbd 6afd 263d 2290 153d 835f 863d
000003a0: 7af4 2a3d f119 1d3e e8f2 ba3d 6f73 943d
000003b0: 7752 93bd 4c0d c63d 75fe dfbb 4690 b83d
000003c0: 0ad3 193e 0dec 0abc 6078 5b3d b33a ae3d
000003d0: 45f7 ed3d 379b a5bc e8b9 bb3d e1fa 7f3d
000003e0: 848b bf3d c081 553c 44ca 183c 4e2e 333e
000003f0: 3bec 33bd cd2f 073e 5e7d 3fbd 09da 023d

features.layers.1.logic.2.layer.0.mlp.0.bias f4 [8]
-0.12337758 0.067739375 0.04908733 0.034949917 0.021577151 0.020833913 -0.17499259 0.085836835
00000000: 62ad fcbd f1ba 8a3d cc0f 493d a527 0f3d
00000010: 91c2 b03c e2ab aa3c 4231 33be 39cb af3d

features.layers.1.logic.3.layer.0.mlp.0.weight f4 [8, 48]
0.15194353 0.08275387 0.05714999 0.07285165 0.06639726 0.013409484 0.020588027 0.059073687
-0.012375411 0.08412665 0.062998645 -0.08259252 0.04975098 0.003704656 -0.043175463 0.08529518
0.134905 -0.008490614 0.1194859 0.07854439 0.06232769 0.12590787 0.071864866 0.033093
0.01719127 0.023590015 0.112626776 0.0037988727 -0.04344392 0.05536209 0.0276623 -0.015929809
0.007711427 -0.04838827 0.09502645 -0.039501954 0.10040166 0.06994707 -0.038461525 0.07993709
0.104908675 0.112024136 -0.019924173 -0.0017332712 0.06558027 0.052862525 0.09029101 -0.001562626
-0.023454472 0.068605624 0.09850623 0.027969597 -0.016502103 0.06412509 0.11932288 0.045658737
0.01437331 0.01951016 -0.074058145 0.13876548 0.057127375 0.016659046 -0.016044613 -0.01702034
-0.08655482 -0.09152979 0.0019195518 -0.029466469 0.034388404 -0.05737033 0.038759556 0.00133876
0.096501015 0.119348586 0.08575859 -0.11366321 -0.05666401 0.063214324 0.033249162 -0.013197538
-0.07425678 0.119556 -0.043593396 0.0752159 -0.044472 0.016835218 -0.010493417 -0.047741797
-0.064391136 -0.01718599 -0.0839905 -0.09305311 0.0018713202 0.027739245 -0.07269183 0.017758278
0.006928521 -0.07423541 -0.037491664 0.07353642 0.011837858 0.07724048 0.114918664 0.10110332
-0.024982296 -0.0057670153 0.07635338 0.09173224 -0.041777395 -0.057811167 0.08854188 0.052938282
0.044182204 0.02783832 0.04772288 -0.051799685 0.06303082 0.082483195 -0.0033582821 0.039496012
0.13463116 -0.008418885 0.039594278 0.026255634 0.03167414 0.045494486 0.01688369 0.05585817
-0.015201556 -0.060603164 -0.093693264 0.0981316 -0.11123907 -0.026924029 0.015892863 0.018199526
0.13253061 0.013191477 -0.10266738 0.030417856 0.004443634 0.093926206 0.10550679 0.045675855
0.026114056 -0.06511795 -0.08746642 0.0058248146 -0.036477994 0.056657225 0.12357389 0.049983636
0.0721514 -0.025122896 0.05116128 0.0058760582 0.093867004 0.14593273 -0.02436416 0.1118047
0.065598264 0.007259789 -0.05434488 -0.0076159183 -0.04929715 0.06177039 0.046615 -0.06240267
0.14957967 0.12241584 0.099785164 0.04745481 0.028163686 0.15862985 0.12271127 0.033484284
0.09180454 -0.049247507 0.019287685 -0.08312296 -0.087342285 0.019539308 -0.084490396 -0.06029807
0.100532375 -0.008697897 0.028005283 -0.042472865 -0.01662371 -0.005036514 -0.042093854 0.12860815
0.024110312 -0.028273912 -0.04274622 0.094550855 -0.054819476 0.11621044 -0.040210817 0.027588902
0.042690113 -0.022612851 0.041404095 0.045183167 0.041938078 0.012186126 0.1040441 -0.028077818
-0.05638753 -0.00046714576 -0.06694145 0.07585959 0.05678772 0.12606865 0.11146097 -0.06746626
0.07384524 -0.07715541 -0.025603361 -0.01482265 0.04322634 0.001013291 -0.08915382 -0.060310807
-0.024891067 -0.09336555 0.022511426 0.07441341 -0.031036805 -0.005494068 0.07359503 -0.088218644
-0.04272378 0.1116636 0.05455797 -0.01502481 0.007561755 0.019395443 0.060522985 0.05431065
-0.04484493 0.10109237 0.036411006 -0.076004095 0.07131583 -0.015061513 0.07060594 0.09186131
0.107327044 0.03309328 -0.021546505 0.07174933 -0.025981782 0.09181672 0.101500526 -0.07994644
00000000: 1697 1b3e dc7a a93d 1c16 6a3d 3f33 953d
00000010: 49fb 873d 74b3 5b3c 39a8 a83c 40f7 713d
00000020: 3cc2 4abc 984a ac3d 6f05 813d 4426 a9bd
00000030: afc7 4b3d d0c9 723b c1d8 30bd 3daf ae3d
00000040: 8924 0a3e 371c 0bbc 06b5 f43d e2db a03d
00000050: 524b 7f3d feed 003e e32d 933d 878c 073d
00000060: b5d4 8c3c d93f c13c dea8 e63d 82f6 783b
00000070: 40f2 31bd 5cc3 623d 0c9c e23c 3b7f 82bc
00000080: 23b0 fc3b c732 46bd 3a9d c23d cdcc 21bd
00000090: 639f cd3d 6940 8f3d d589 1dbd 0fb6 a33d
000000a0: 5cda d63d e96c e53d 0538 a3bc ee2e e3ba
000000b0: f34e 863d 6086 583d 7eea b83d 07d1 ccba
000000c0: 9823 c0bc 1b81 8c3d a2bd c93d 7f20 e53c
000000d0: 6b2f 87bc 0454 833d 8e5f f43d a804 3b3d
000000e0: 087e 6b3c c5d3 9f3c ccab 97bd 8a18 0e3e
000000f0: 65fe 693d 8d78 883c fe6f 83bc 3d6e 8bbc
00000100: a743 b1bd f873 bbbd 7899 fb3a aa63 f1bc
00000110: dbda 0c3d 27fd 6abd 57c2 1e3d 5579 af3a
00000120: 53a2 c53d 086d f43d 33a2 af3d 42c8 e8bd
00000130: 8518 68bd 8376 813d 4630 083d 7d3a 58bc
00000140: f013 98bd c7d9 f43d fd8e 32bd cb0a 9a3d
00000150: 4628 36bd 03ea 893c 95ec 2bbc e78c 43bd
00000160: 80df 83bd a2c9 8cbc 3603 acbd a192 bebd
00000170: 1647 f53a 6a3d e33c 74df 94bd cf79 913c
00000180: a608 e33b bc08 98bd dc90 19bd 439a 963d
00000190: 93f3 413c 4230 9e3d 7a5a eb3d 420f cf3d
000001a0: aca7 ccbc 3bf9 bcbb 295f 9c3d 1dde bb3d
000001b0: c61e 2bbd 67cb 6cbd 7255 b53d d0d5 583d
000001c0: 66f8 343d 300d e43c 1179 433d e82b 54bd
000001d0: 4d16 813d f3ec a83d a016 5cbb 92c6 213d
000001e0: c0dc 093e 5def 09bc 9c2d 223d 0e16 d73c
000001f0: bebc 013d 6d58 3a3d aa4f 8a3c 89cb 643d
00000200: f20f 79bc 063b 78bd 41e2 bfbd 38f9 c83d
00000210: 4fd1 e3bd c88f dcbc c031 823c 2c17 953c
00000220: 1bb6 073e 1121 583c 4643 d2bd de2e f93c
00000230: e79b 913b 625c c03d f213 d83d 9b16 3b3d
00000240: 25ed d53c 8f5c 85bd 9821 b3bd 16de be3b
00000250: f369 15bd 6811 683d 4f14 fd3d a4bb 4c3d
00000260: 1dc4 933d 88ce cdbc 7e8e 513d f38b c03b
00000270: 583d c03d 646f 153e 5997 c7bc ddf9 e43d
00000280: 6258 863d 86e3 ed3b bd98 5ebd f48e f9bb
00000290: cfeb 49bd f302 7d3d 5fef 3e3d f199 7fbd
000002a0: 6a2b 193e 28b5 fa3d 2a5c cc3d fa5f 423d
000002b0: 88b7 e63c dd6f 223e 0c50 fb3d d126 093d
000002c0: 0504 bc3d c1b7 49bd 3501 9e3c 5f3c aabd
000002d0: 83e0 b2bd e610 a03c 4d09 adbd 1cfb 76bd
000002e0: ebe3 cd3d a081 0ebc 566b e53c 07f8 2dbd
000002f0: 722e 88bc 5709 a5bb 9b6a 2cbd dbb1 033e
00000300: fd82 c53c b19e e7bc a916 2fbd e1a3 c13d
00000310: 638a 60bd bdff ed3d 19b4 24bd 1f02 e23c
00000320: d4db 2e3d 963e b9bc 5797 293d fc11 393d
00000330: 43c7 2b3d 51a8 473c 1315 d53d 7403 e6bc
00000340: 9cf6 66bd 3eeb f4b9 9918 89bd 465c 9b3d
00000350: 3e9a 683d 2418 013e a645 e43d c02b 8abd
00000360: 2c3c 973d a803 9ebd 24be d1bc b3da 72bc
00000370: 1a0e 313d 67d0 843a 4796 b6bd 7708 77bd
00000380: 5ae8 cbbc 7036 bfbd e269 b83c 0f66 983d
00000390: e640 febc 9507 b4bb feb8 963d faab b4bd
000003a0: 21ff 2ebd e3af e43d 2e78 5f3d 9f2a 76bc
000003b0: 99c8 f73b 31e3 9e3c f3e6 773d d874 5e3d
000003c0: 51af 37bd 8409 cf3d b523 153d 09a8 9bbd
000003d0: 090e 923d 90c4 76bc d999 903d c821 bc3d
000003e0: 48ce db3d d28c 073d 4c82 b0bc 50f1 923d
000003f0: bfd7 d4bc 680a bc3d 82df cf3d f6ba a3bd

features.layers.1.logic.3.layer.0.mlp.0.bias f4 [8]
0.07400383 -0.07825423 0.0013416412 0.0016117505 -0.023753239 0.0076638106 0.12792906 0.05919844
00000000: 528f 973d c143 a0bd 02da af3a 5f41 d33a
00000010: 2796 c2bc b420 fb3b d6ff 023e 107a 723d

features.layers.2.logic.0.layer.0.mlp.0.weight f4 [8, 66]
-0.054265827 0.1068585 0.11138692 0.063455224 0.010801966 0.02006653 0.09283258 -0.027911553
-0.050082386 0.09002102 -0.017980192 0.0030195187 0.12186317 0.07150718 0.055685338 0.012727252
0.037579734 0.084344596 0.024429202 0.044550788 0.027144466 -0.0012626622 0.033644624 0.11349099
0.035703085 0.037236154 0.1149219 -0.0018538509 0.073650725 0.101456515 -0.04146209 0.04061159
0.1296443 0.11976373 0.014877303 -0.04622874 -0.0056149503 -0.0284636 -0.05011985 -0.06373685
0.12121763 0.0006548807 -0.042878386 -0.01279509 0.06290402 0.12518983 0.022786645 0.10236646
-0.042960476 0.04658279 0.05947417 -0.05373416 -0.033602763 -0.048757993 0.075343534 0.03844265
0.06272955 0.12619075 0.046762936 0.14582178 -0.0016189811 0.10058426 0.040909167 0.07020338
0.06299267 0.086753994 -0.04085072 0.07660049 0.07900118 0.07239733 0.025126757 -0.032956008
0.06917619 0.07280935 0.053649563 0.057415962 0.06455365 0.08687232 -0.039699968 0.10407585
0.09766075 -0.050110117 0.032270897 0.037122283 -0.023445876 0.0858608 -0.0005430517 -0.028500967
0.13487357 0.05726299 0.1288137 0.07471745 0.0060312725 0.07357846 0.11969389 -0.0422271
0.03485496 0.11355833 0.032040097 0.08808546 0.12554373 0.057108335 0.08237867 -0.04610965
0.045840252 0.08813773 0.10174594 0.09924111 -0.03281107 -0.020941142 0.046401598 0.11791393
0.014166599 -0.037769977 -0.025758972 0.02093438 -0.052718233 -0.0467412 0.1010172 0.024026006
0.03532561 -0.020439828 0.053844806 -0.024143353 0.1005846 0.07315784 0.056400906 -0.0669923
0.08047963 0.0053281486 0.0264993 0.0892229 0.04028437 -0.014195481 0.10107445 -0.07703076
-0.053990588 0.08952525 0.019256923 -0.037993535 0.02934555 0.028281955 0.11717498 -0.059513018
-0.042847753 0.11943902 0.008559492 -0.03895068 0.018763937 0.08176248 0.10958704 0.032636143
0.11866501 -0.0005484875 0.06277941 0.063505135 0.025189323 0.099256426 -0.021528618 -0.049661066
-0.02756984 0.013813141 -0.009304848 0.12094859 0.10457911 0.0059692645 0.098369546 0.002001693
0.0062180622 0.097220786 0.012532667 0.06624823 0.035867885 0.011115304 -0.055358063 0.112526566
-0.030980147 0.039977882 -0.014802731 0.06417801 0.031095196 0.07675071 -0.011108113 -0.012923242
0.08451493 0.0048653292 0.064845294 0.07372043 -0.03410852 0.021653654 0.013410732 0.13302507
-0.061106067 -0.025375932 0.08314222 0.14609174 0.07784235 0.11510449 -0.09481339 -0.039335534
-0.007618821 -0.093019515 -0.002993003 -0.036080863 0.03775271 -0.0043476135 -0.045627523 0.06097494
-0.023673765 0.023458723 0.025854656 -0.009426887 0.03379223 -0.001615481 0.07922658 -0.09511933
0.06573119 -0.0268629 0.0995396 0.03994776 0.14225307 -0.11299258 0.032155324 -0.09938143
0.016468992 0.066118404 -0.01578921 -0.0010057974 0.017522918 0.06709148 0.056322794 0.0056107934
0.008873238 0.09154374 -0.011274047 0.046337243 -0.11458349 -0.008751628 -0.046802174 0.013295985
0.05463435 0.066574015 0.07482625 0.05930615 -0.062793255 0.025801303 0.04940512 0.051582523
-0.06917209 -0.0546181 0.041083135 -0.07522313 0.034231126 -0.0004464815 -0.03966522 0.032328986
00000000: d845 5ebd a1d8 da3d d31e e43d d0f4 813d
00000010: bbfa 303c 9062 a43c 021f be3d c5a6 e4bc
00000020: 3023 4dbd f15c b83d 324b 93bc 1ee3 453b
00000030: 6693 f93d 5b72 923d 4f16 643d f785 503c
00000040: 35ed 193d dcbc ac3d c01f c83c e37a 363d
00000050: 125e de3c ea7f a5ba f2ce 093d f76d e83d
00000060: 663d 123d f084 183d 2c5c eb3d eafc f2ba
00000070: 31d6 963d 6fc8 cf3d 27d4 29bd 5758 263d
00000080: 7ac1 043e b046 f53d eebf 733c 595a 3dbd
00000090: 9efd b7bb 7f2c e9bc 794a 4dbd 7788 82bd
000000a0: f340 f83d 4dac 2b3a 3fa1 2fbd 7fa2 51bc
000000b0: d3d3 803d c331 003e 0fab ba3c 82a5 d13d
000000c0: 53f7 2fbd 98cd 3e3d 309b 733d 5a18 5cbd
000000d0: 0da3 09bd 76b6 47bd b64d 9a3d 0a76 1d3d
000000e0: 5a78 803d 2638 013e 7e8a 3f3d 4e52 153e
000000f0: fe33 d4ba 1fff cd3d 5f90 273d cac6 8f3d
00000100: 4d02 813d 14ac b13d 1653 27bd b8e0 9c3d
00000110: 5fcb a13d 0d45 943d a1d6 cd3c e1fc 06bd
00000120: 3fac 8d3d 121d 953d a5bf 5b3d 002d 6b3d
00000130: b434 843d 1dea b13d 6f9c 22bd b825 d53d
00000140: 5c02 c83d 4440 4dbd 7d2e 043d 890d 183d
00000150: 9111 c0bc cad7 af3d 955b 0eba dc7a e9bc
00000160: 4c1c 0a3e 998c 6a3d bde7 033e 7605 993d
00000170: fba1 c53b 4eb0 963d 1222 f53d 53f6 2cbd
00000180: 13c4 0e3d 4591 e83d 7a3c 033d 2666 b43d
00000190: 898e 003e 6eea 693d 26b6 a83d 79dd 3cbd
000001a0: fdc2 3b3d 8e81 b43d 2d60 d03d ec3e cb3d
000001b0: e764 06bd c28c abbc 9a0f 3e3d dc7c f13d
000001c0: 061b 683c b1b4 1abd 7b04 d3bc 947e ab3c
000001d0: 13ef 57bd b373 3fbd 1be2 ce3d 30d2 c43c
000001e0: 96b1 103d 6d71 a7bc 5f8c 5c3d 48c8 c5bc
000001f0: 4cff cd3d c7d3 953d a304 673d 4233 89bd
00000200: 81d2 a43d c097 ae3b 0f15 d93c 7fba b63d
00000210: 3901 253d 2a94 68bc 1f00 cf3d 4ec2 9dbd
00000220: 3c25 5dbd 0459 b73d b2c0 9d3c 1c9f 1bbd
00000230: 1466 f03c 8faf e73c 70f9 ef3d ecc3 73bd
00000240: 2081 2fbd 729c f43d 1d3d 0c3c c08a 1fbd
00000250: d4b6 993c 1673 a73d 2c6f e03d 7aad 053d
00000260: a406 f33d 5fc8 0fba 7e92 803d fb0e 823d
00000270: d759 ce3c f446 cb3d c95c b0bc 6769 4bbd
00000280: 25da e1bc 8350 623c 5c73 18bc e5b3 f73d
00000290: 932d d63d d299 c33b f975 c93d d62e 033b
000002a0: e3c0 cb3b b11b c73d d155 4d3c 27ad 873d
000002b0: 34ea 123d f71c 363c 23bf 62bd 5474 e63d
000002c0: 14ca fdbc d9bf 233d 2787 72bc c36f 833d
000002d0: 5abb fe3c 7a2f 9d3d cefe 35bc 01bc 53bc
000002e0: 2a16 ad3d 576d 9f3b 9ccd 843d bdfa 963d
000002f0: 60b5 0bbd 0163 b13c b0b8 5b3c b937 083e
00000300: 5b4a 7abd 30e1 cfbc 7846 aa3d 1399 153e
00000310: cf6b 9f3d e7bb eb3d 862d c2bd 4c1e 21bd
00000320: 4ea7 f9bb 0481 bebd 4226 44bb 87c9 13bd
00000330: 96a2 1a3d 6d76 8ebb ede3 3abd dcc0 793d
00000340: 7cef c1bc 822c c03c 25cd d33c 3b73 1abc
00000350: b969 0a3d 8cbe d3ba 8c41 a23d eccd c2bd
00000360: 139e 863d 960f dcbc 6bdb cb3d 43a0 233d
00000370: caaa 113e a768 e7bd 4db5 033d 7e88 cbbd
00000380: fbe9 863c 1669 873d 6058 81bc f6d4 83ba
00000390: 398c 8f3c 4267 893d bbb2 663d bfda b73b
000003a0: 0f61 113c 497b bb3d c8b6 38bc 1fcc 3d3d
000003b0: c0aa eabd fd62 0fbc a3b3 3fbd 67d7 593c
000003c0: 45c8 5f3d f557 883d 813e 993d 01eb 723d
000003d0: c099 80bd 415d d33c 065d 4a3d 3248 533d
000003e0: 19aa 8dbd 3bb7 5fbd ca46 283d 960e 9abd
000003f0: f035 0c3d bc15 eab9 ff77 22bd 666b 043d

features.layers.2.logic.0.layer.0.mlp.0.bias f4 [8]
0.082042396 0.0435197 -0.013255157 -0.06618777 0.061188925 0.033269674 0.078316584 0.044997025
00000000: d805 a83d b741 323d 282c 59bc 748d 87bd
00000010: 3da1 7a3d c845 083d 7264 a03d cd4e 383d

features.layers.2.logic.1.layer.0.mlp.0.weight f4 [8, 73]
-0.10869712 -0.1452837 -0.09131715 -0.0048609073 -0.17613585 -0.057892468 -0.19290586 -0.10154652
-0.21595258 -0.33506796 -0.21986751 -0.015015111 -0.22084948 -0.124739304 -0.095941 -0.122469656
-0.030925574 -0.11465613 -0.03771324 -0.019362904 -0.06799879 -0.04750502 -0.00042243785 -0.022755073
-0.074615575 -0.059385337 -0.22863096 0.008138459 -0.0010218285 -0.030297844 -0.040173884 -0.08134934
-0.014743928 -0.17747438 -0.059743598 0.07853645 -0.026833482 -0.1724235 0.020700155 -0.18798205
-0.15168436 -0.17353955 -0.16682787 -0.14630814 -0.060411483 -0.09440292 -0.013979179 -0.18085314
-0.1749006 -0.13689707 -0.07247496 -0.07905801 -0.046890784 -0.16522491 -0.015449274 0.046978407
0.05933398 -0.011644501 -0.05815342 -0.02242127 -0.10809851 -0.20070763 -0.09821643 -0.054766238
0.026589727 -0.19283718 -0.15181959 -0.22146039 -0.15781504 0.031280722 0.020528067 -0.28490233
-0.17918833 0.010767325 -0.077272706 -0.2305893 -0.121700354 -0.12695207 -0.081835985 -0.21769112
-0.24730232 -0.039319273 -0.44290724 -0.19524632 0.06179658 -0.17737092 -0.14547686 -0.1847
-0.054720405 0.016619274 -0.041844904 -0.08468007 -0.08027446 -0.024431836 -0.06578133 -0.15831609
-0.045223065 -0.07063587 -0.14467418 -0.05198431 0.03918688 0.03331559 0.06928242 -0.10583353
-0.091955155 0.033529256 -0.041194495 -0.10095281 0.040531028 -0.20111874 -0.03133031 0.017590338
-0.1745608 -0.06792088 -0.12684657 -0.1639254 -0.08435529 0.0065705553 -0.11402732 -0.028789816
-0.18999535 -0.09908846 -0.0660658 -0.11130755 -0.117258854 -0.088666916 -0.11736011 -0.061438147
0.030443257 -0.07708953 0.08220306 0.09351483 -0.006578159 -0.0850482 -0.0674153 -0.14816605
0.010450373 -0.1079288 -0.18860088 -0.031159889 -0.06814509 -0.20032583 0.009372651 -0.0047834706
-0.11897826 -0.10450568 0.021963447 -0.08840045 -0.22294421 -0.07862194 -0.107457876 -0.13607709
-0.22150265 -0.17157172 -0.07817453 -0.44121882 -0.231978 -0.013810872 -0.13331309 -0.15850474
-0.15947303 -0.10156321 -0.071583785 -0.067043416 -0.01708772 -0.04641358 -0.05943567 -0.094076864
-0.034542188 -0.031234786 -0.012018346 -0.16157119 -0.17240778 0.011291099 0.027259981 0.0060122153
-0.104678914 -0.1410683 0.04497103 -0.035649493 0.078456976 -0.050988548 -0.08371594 -0.13424939
-0.0045759305 -0.16178149 -0.18910897 -0.06680373 -0.039931517 -0.13734068 -0.16975632 0.049989924
0.058498163 -4.3549855e-05 0.041419096 -0.08377879 0.0045567146 -0.15311527 -0.14643611 -0.21171583
-0.024625035 0.02222923 0.06265992 0.048922967 0.045239344 -0.04617804 -0.10146028 -0.09466265
-0.058225073 0.042939734 -0.015011758 -0.1264246 -0.14484371 -0.1354699 -0.09406974 0.0636575
0.061420146 -0.16817847 -0.18843296 0.07944606 0.10335773 0.13274738 -0.0128136575 0.1104192
0.081384525 0.18268375 0.12826625 0.071792185 0.34954023 0.1462695 -0.07549287 0.13965558
0.13251932 0.21668527 0.11141173 0.10407415 0.030414963 0.073672496 0.10654853 0.06289859
0.05916377 0.08205678 0.08608755 -0.010916527 0.17416705 0.09980295 -0.0036265412 -0.08235532
0.0983443 0.1483634 0.09636985 0.035373144 -0.057835903 -0.11759591 -0.0585896 0.03519937
00000000: 989c debd 40c5 14be 7c04 bbbd 3f48 9fbb
00000010: f55c 34be a720 6dbd 1d89 45be 9ff7 cfbd
00000020: ac22 5dbe 078e abbe f324 61be f101 76bc
00000030: 5e26 62be 5277 ffbd b77c c4bd 5fd1 fabd
00000040: a157 fdbc d5d0 eabd 3379 1abd f49e 9ebc
00000050: f342 8bbd a094 42bd a67a ddb9 d968 babc
00000060: 0dd0 98bd 0a3e 73bd 3c1e 6abe 2c57 053c
00000070: e0ee 85ba 2f33 f8bc 5f8d 24bd 7c9a a6bd
00000080: 8490 71bc d8bb 35be b4b5 74bd b8d7 a03d
00000090: e4d1 dbbc c98f 30be 5f93 a93c 5e7e 40be
000000a0: 2553 1bbe 5ab4 31be edd4 2abe cdd1 15be
000000b0: 0872 77bd 5156 c1bd ed08 65bc 9131 39be
000000c0: 2519 33be bf2e 0cbe c06d 94bd 2ae9 a1bd
000000d0: 8d10 40bd b830 29be f41e 7dbc 6e6c 403d
000000e0: 3008 733d 94c8 3ebc 4832 6ebd d0ac b7bc
000000f0: c062 ddbd 4d86 4dbe b225 c9bd 9052 60bd
00000100: b3d2 d93c 1c77 45be 9876 1bbe 83c6 62be
00000110: 449a 21be 3720 003d 7a2a a83c b8de 91be
00000120: 257d 37be 6f69 303c 2741 9ebd 9a1f 6cbe
00000130: 093e f9bd b9ff 01be a099 a7bd 6cea 5ebe
00000140: d23c 7dbe 3f0d 21bd bdc4 e2be a7ee 47be
00000150: 691e 7d3d b9a0 35be e3f7 14be ff21 3dbe
00000160: 8122 60bd 2525 883c 9065 2bbd bf6c adbd
00000170: f066 a4bd 4625 c8bc 5db8 86bd 9d1d 22be
00000180: d23b 39bd 8aa9 90bd 7825 14be 80ed 54bd
00000190: 6c82 203d ee75 083d f1e3 8d3d 40bf d8bd
000001a0: fc52 bcbd f955 093d 8fbb 28bd 59c0 cebd
000001b0: dd03 263d 12f2 4dbe 3654 00bd 9d19 903c
000001c0: 11c0 32be 1a1a 8bbd 11e4 01be 0fdc 27be
000001d0: 77c2 acbd d04d d73b 2887 e9bd 9fd8 ebbc
000001e0: 248e 42be e4ee cabd 824d 87bd 36f5 e3bd
000001f0: 6925 f0bd 0097 b5bd 7f5a f0bd 91a6 7bbd
00000200: 2364 f93c 1ee1 9dbd 145a a83d b484 bf3d
00000210: 998d d7bb c02d aebd 0811 8abd d7b8 17be
00000220: 0b38 2b3c c609 ddbd 9720 41be 0643 ffbc
00000230: a78f 8bbd 3722 4dbe bf8f 193c a9be 9cbb
00000240: e0aa f3bd 1307 d6bd b0ec b33c 4c0b b5bd
00000250: 7d4b 64be 8a04 a1bd e012 dcbd cb57 0bbe
00000260: 97d1 62be 7fb0 2fbe f819 a0bd 6fe7 e1be
00000270: a48b 6dbe ff46 62bc 3a83 08be 114f 22be
00000280: e64c 23be 5f00 d0bd 859a 92bd 0f4e 89bd
00000290: 8cfb 8bbc 2b1c 3ebd d172 73bd 5fab c0bd
000002a0: 1c7c 0dbd 18e0 ffbc 99e8 44bc eb72 25be
000002b0: aa8b 30be 4dfe 383c 5350 df3c 1e02 c53b
000002c0: e661 d6bd 3574 10be 8b33 383d 3405 12bd
000002d0: 0dae a03d 5ed9 50bd 4373 abbd ac78 09be
000002e0: b0f1 95bb 0caa 25be c8a5 41be 65d0 88bd
000002f0: 3b8f 23bd 09a3 0cbe 9ad4 2dbe 3cc2 4c3d
00000300: c59b 6f3d 4da9 36b8 12a7 293d 3794 abbd
00000310: 7e50 953b 40ca 1cbe 59f3 15be 09cc 58be
00000320: 71ba c9bc 131a b63c d853 803d 7363 483d
00000330: e44c 393d 2f25 3dbd 68ca cfbd 7ede c1bd
00000340: 6a7d 6ebd 93e1 2f3d e0f3 75bc 7375 01be
00000350: e951 14be 9fb8 0abe a3a7 c0bd dd5e 823d
00000360: b193 7b3d fa36 2cbe 92f4 40be 9eb4 a23d
00000370: 38ad d33d eeee 073e 60f0 51bc 7623 e23d
00000380: eeac a63d 7311 3b3e 3a58 033e c807 933d
00000390: f0f6 b23e acc7 153e 019c 9abd df01 0f3e
000003a0: 25b3 073e bee2 5d3e d52b e43d d424 d53d
000003b0: cd28 f93c 9be1 963d 1e36 da3d fad0 803d
000003c0: b655 723d 630d a83d ab4e b03d 3cdb 32bc
000003d0: d958 323e 7d65 cc3d 44ab 6dbb e8a9 a8bd
000003e0: bd68 c93d 93ec 173e 8e5d c53d 6ee3 103d
000003f0: 57e5 6cbd 20d6 f0bd a6fb 6fbd 372d 103d

features.layers.2.logic.1.layer.0.mlp.0.bias f4 [8]
-0.21350373 -0.17939827 -0.19596453 0.10046893 0.089316994 -0.094328746 0.16482964 -0.21922779
00000000: b9a0 5abe 2eb4 37be edaa 48be a8c2 cd3d
00000010: d4eb b63d 6e2f c1bd 1ac9 283e 407d 60be
