models_every10epochs/checkpoints/checkpoint_40.pth (torch, 178410 bytes, 101 tensors)

features.layers.0.logic.0.layer.0.mlp.0.weight f4 [8, 18]
000000 ce 04 ad bc 82 24 1a bd f1 36 aa bd a9 01 ec bd
       -0.021120455 -0.037632473 -0.083112605 -0.11523754
000010 a6 79 37 bd d4 67 1d 3e 6e 6f d4 bc 81 e9 b6 bb
       -0.044793747 0.15371639 -0.02593204 -0.005582035
000020 12 48 31 3b 28 5e 38 3c d5 fb 0c 3e 9d 87 d8 bd
       0.0027051014 0.011252917 0.13767941 -0.10572741
000030 15 40 74 be 2f 2b 55 3d 4f df 24 be a8 b6 12 bd
       -0.2385257 0.052043136 -0.1610081 -0.035818726
000040 89 98 5f be 2b b2 48 3d ec 0f 03 3e cb 46 06 3e
       -0.21835531 0.04899804 0.12799042 0.13112943
000050 61 1b f2 bd a5 7a 46 3e 50 ac 8a 3d 53 d2 ae bd
       -0.11821628 0.19382723 0.06771147 -0.0853621
000060 c7 41 d8 3d bf 50 27 3e 44 94 6b 3e cc 69 8c bd
       0.10559421 0.16339396 0.23005778 -0.06856117
000070 8a 47 0c 3e 8d 69 24 be fc 5c 17 3d 7f 6c 7a bd
       0.13699165 -0.1605589 0.03695391 -0.061138626
000080 a2 a3 ad bb 6c ca c6 bd 80 f1 c1 bb c7 83 87 3c
       -0.0052990476 -0.09706578 -0.0059186816 0.016542329
000090 f0 b2 27 3e cb b5 c0 bd 6c 51 f1 3d ff 15 85 3e
       0.16376853 -0.09409674 0.11783108 0.25993344
0000a0 8f 7c 6f 3c cb 1f 1a 3e 21 d4 2e 3d b0 b7 46 3d
       0.014617099 0.1505119 0.04268277 0.04851502
0000b0 56 01 07 3e 13 84 3a 3e ae 8a b2 3d 2a dd a3 3e
       0.13184103 0.18214445 0.08717857 0.32004672
0000c0 43 f1 4d bd eb 91 0f 3e 8c 59 19 3e fb 25 af 3e
       -0.050278913 0.14020507 0.14975566 0.34208664
0000d0 d1 e9 a9 bd 92 ec 04 3e 71 03 10 3e 56 28 07 3e
       -0.0829655 0.1298087 0.14063813 0.1319898
0000e0 6f a2 d8 3d fe 4c 4f be 4c cb 68 be 55 e1 ae 3d
       0.10577857 -0.20244214 -0.22733802 0.085390724
0000f0 32 22 65 be a4 ae 1a 3e 3d 08 7a bd 28 55 18 3e
       -0.22376326 0.15105683 -0.061043013 0.14876235
000100 f8 ce 69 3d b6 73 19 bc 55 0c 7e be 50 fc 0e 3e
       0.057082146 -0.009365967 -0.24809392 0.13963437
000110 ce e9 00 be 5e be 0f 3e 52 e6 87 bd 2a 40 24 3d
       -0.1258919 0.14037463 -0.06635727 0.040100254
000120 e8 eb dc 3d 59 3a ea bc 62 a9 27 3e 5c ae 84 3e
       0.10787183 -0.028592275 0.16373208 0.25914276
000130 b3 82 90 3e 8f ce aa 3d b5 d8 55 3e 30 ba 88 bd
       0.28224716 0.08340179 0.20883448 -0.066761374
000140 4a 17 27 bd 71 b8 55 3e 31 e4 37 bc 6f c5 c5 3d
       -0.040793695 0.2087114 -0.011223839 0.09656798
000150 7d 38 99 bd c2 fc 6a 3e fb 9a be 3d d4 89 55 3e
       -0.074814774 0.22947982 0.09306904 0.20853359
000160 78 62 4a 3e 9a be 58 3e 56 58 fe bd 1b 14 b5 3d
       0.19764125 0.21166459 -0.124191925 0.088417254
000170 f0 15 0e 3e 1b 1c 4e be ff 8e 9a bb b2 6c 86 be
       0.13875556 -0.20127909 -0.0047167535 -0.26254803
000180 6e e5 a5 bd 7d 5e b9 bd 1c 6e 61 be 38 cc 25 bd
       -0.08100401 -0.09051225 -0.2201466 -0.04047796
000190 a8 3b 2c 3e f0 07 04 3e 21 60 83 3d 77 33 ce bd
       0.16819632 0.12893653 0.064148195 -0.1006841
0001a0 07 2f 24 be 84 08 38 be 68 d6 33 be 55 2a 08 3e
       -0.16033565 -0.17971998 -0.17562258 0.13297398
0001b0 5c 87 27 3d 99 5d aa bd 3c 92 9a 3d 16 bf 2c be
       0.040900573 -0.083186336 0.07547423 -0.16869769
0001c0 b4 57 9a 3d 27 5c 98 3d 61 80 cf bd 82 3a 51 be
       0.07536259 0.07439452 -0.10131908 -0.20432475
0001d0 e5 d0 16 be 9e 3f d7 3d 41 a4 b2 3d 9d 2a 42 be
       -0.14728124 0.10510181 0.08722735 -0.18961568
0001e0 5b 46 51 be 7e 30 2a be 50 5e 39 3d 20 a5 b2 3d
       -0.20436995 -0.16620061 0.04525596 0.08722901
0001f0 e8 c7 31 be 3c 51 fb bd 42 28 ea bd da ab 14 be
       -0.17361414 -0.122713536 -0.1143346 -0.14518681
000200 b7 5c 79 3d 52 34 90 bc 9d fe 88 3d dd 9b 25 3d
       0.060879435 -0.017603073 0.06689189 0.040431846
000210 b2 0d 0c be 37 6b ff bd 64 95 13 be 7b 84 c6 bd
       -0.136771 -0.124716215 -0.14412457 -0.096932374
000220 a3 24 55 3d ce 22 3f be 24 43 4c be 8d 33 9d bb
       0.052036893 -0.1866562 -0.19947487 -0.004797405
000230 73 e2 56 be a0 27 b1 bd 79 96 18 bc f1 87 34 3e
       -0.20984821 -0.08650136 -0.009313219 0.17629983

features.layers.0.logic.0.layer.0.mlp.0.bias f4 [8]
000000 90 42 b7 3c bd 36 9d 3c ba b4 b9 3d 36 c7 a3 bd
       0.022370607 0.01919114 0.09067674 -0.07996981
000010 72 df 2e bd 5b bb 36 3e 30 96 a3 bd 3f 6c 03 3e
       -0.042693563 0.17844908 -0.0798763 0.12834261

features.layers.0.logic.1.layer.0.mlp.0.weight f4 [8, 9]
000000 33 22 32 3d 58 c1 b6 bc f9 d9 d2 3d 2b 23 70 3e
       0.043489646 -0.02230899 0.10295481 0.23450916
000010 73 94 de 3d d0 8a 00 3e e7 2b 12 3e ce e4 b2 3e
       0.10868158 0.12552953 0.1427456 0.3494019
000020 a3 f7 70 3e 4e 42 45 3e fc 07 6b 3e 17 93 6b 3e
       0.23531966 0.19263574 0.22952265 0.23005329
000030 dc ef ef 3d 6b c2 cd 3c 3a aa f9 3b ac b4 43 3c
       0.117156714 0.02511712 0.0076191695 0.011944931
000040 53 9b 34 3d 92 21 c0 3e 84 cc d3 bd 2e 7f 38 3d
       0.04409344 0.37525612 -0.10341743 0.045043163
000050 b8 89 1f bc cd 4b b1 be 1f 2b 49 3d 19 2d 52 be
       -0.009737425 -0.34628144 0.04911339 -0.20525016
000060 2f 3a 90 be 84 3b b3 be 48 09 2c be f7 8d c9 be
       -0.2816939 -0.35006344 -0.16800416 -0.39366123
000070 73 a0 1a bd d9 f8 b2 be 1b e5 4d be 8d 44 24 3d
       -0.037750673 -0.3495548 -0.20106928 0.040104438
000080 40 eb a1 be 59 17 1b 3e af 18 c7 3a 94 21 3d 3d
       -0.31624794 0.15145625 0.0015189851 0.0461746
000090 60 08 42 3e 5f 0a c5 be d7 37 32 be 2c 07 a6 be
       0.18948507 -0.38484475 -0.17404114 -0.32427347
0000a0 90 8c c2 be 66 87 9b bd f7 0b 67 bc cf 8f 50 3d
       -0.37997866 -0.075941846 -0.014101974 0.050918397
0000b0 8e 4f 7a 3d bc 6a 2c bd bb 1b fd 3d 43 2e 80 3e
       0.061111026 -0.042093977 0.12358805 0.25035295
0000c0 bb f4 4c bc 90 ec 53 3e 28 6b 8e 3e b9 1b 2f 3e
       -0.01250952 0.2069571 0.2781613 0.17100419
0000d0 59 c7 6d 3e db 1a 04 be c0 04 62 3e 69 d3 70 3e
       0.23220576 -0.1290087 0.22072124 0.23518147
0000e0 4a 3d 72 3e 65 4c a6 bd a6 f5 4a bd f2 e6 4a 3e
       0.23656192 -0.0812004 -0.049550675 0.19814661
0000f0 8a 6f f0 3c ee ed 32 3d 5e 52 8d 3e 60 7c 79 bc
       0.029350061 0.04368394 0.27601904 -0.015227407
000100 4f 2f 86 be 32 00 7b be d5 a4 41 be 60 1b c7 bd
       -0.2620797 -0.24511793 -0.18910535 -0.09722018
000110 fc e3 3c 3e 16 15 72 bd 25 32 97 be a6 9c 82 be
       0.18446344 -0.05910214 -0.29530445 -0.25510138

features.layers.0.logic.1.layer.0.mlp.0.bias f4 [8]
000000 50 cd c1 3e 46 32 5e 3e 7b 7c e9 be 17 fb f4 bd
       0.37851954 0.21698865 -0.45602784 -0.11961954
000010 d9 a7 c2 be dc 99 b9 3e ea 22 72 3d 5b c0 17 3e
       -0.38018683 0.36250198 0.059115328 0.14819472

features.layers.0.logic.2.layer.0.mlp.0.weight f4 [8, 18]
000000 a7 65 56 3e 3a 4f 55 3e 16 07 07 3e b4 8e 5a 3d
       0.20937215 0.20831004 0.13186297 0.05335875
000010 c8 a3 bc bd 14 54 02 3e d3 34 d2 3a b9 55 7f 3d
       -0.09210926 0.12727386 0.0016037471 0.06233761
000020 14 31 82 bd 8e 9c 8d 3d 16 42 1c 3e 58 85 a0 bd
       -0.06357017 0.06914626 0.15259585 -0.07837933
000030 56 22 13 3d 2f 66 48 3d 85 18 7e bd 3c a1 3f 3e
       0.035921417 0.048925575 -0.062035102 0.1871385
000040 7c 31 7f 3e ca a0 40 bd f4 ab b0 bd eb 05 0a 3e
       0.2492122 -0.04702834 -0.086265475 0.1347882
000050 2d 91 79 3e 1f 04 74 bc a9 d2 61 bd 8c 57 0d 3b
       0.24371786 -0.014893561 -0.05513254 0.0021567075
000060 4d a2 07 be 08 64 a6 bd 9c 0f 0b be f3 54 8b b8
       -0.13245507 -0.08124548 -0.13580173 -6.6438595e-05
000070 7e aa 8b 3e 4a e8 d4 3d 6a 76 5e 3d 9d 7b 0a bd
       0.27278513 0.10395868 0.054312147 -0.033809293
000080 91 17 e5 ba b1 42 46 3e 49 ef 8e bc 2d 69 1b bd
       -0.0017478337 0.19361378 -0.017448084 -0.0379421
000090 c6 9b a7 3d 6e be 34 be d8 24 2d 3d 0e a8 92 bd
       0.08184008 -0.17650768 0.042271465 -0.0716096
0000a0 54 30 df bd 74 f1 e0 bd 76 1d 08 bd 2e f0 27 be
       -0.1089789 -0.109835535 -0.03323122 -0.16400215
0000b0 8b f3 01 3e a8 d2 a7 3d 6f f6 97 bd e4 33 f3 bb
       0.1269056 0.08194476 -0.0742005 -0.0074219573
0000c0 94 35 65 bd 63 b0 ed bd 6e 05 2f bd 21 67 17 be
       -0.0559593 -0.11605909 -0.042729788 -0.14785434
0000d0 3d 87 ee 3d d0 ba 1d bc 2d cc 62 bd a4 df 01 be
       0.116468884 -0.009627059 -0.0553705 -0.12682968
0000e0 b2 08 9c 3d cf a4 bb bd b5 b4 34 bd bd 54 d8 bd
       0.07618846 -0.09162294 -0.04411765 -0.105630375
0000f0 45 bd db 3d aa af 47 be ff 6a 39 3e 49 bd 31 3e
       0.1072946 -0.19500604 0.18107222 0.17357363
000100 80 8d 14 bd be b8 18 3e 71 9b 2e 3e 90 d4 a6 bc
       -0.036267757 0.14914224 0.17051484 -0.02036503
000110 76 9a 69 bd bd d3 4c be e7 d5 2b 3d 0d 4b 1b 3e
       -0.05703207 -0.20002647 0.04195204 0.15165348
000120 f4 74 98 3d ca 93 d6 bc 07 a8 f5 3d 13 fd 2e 3e
       0.07444182 -0.026193518 0.11994939 0.17088728
000130 9a f1 29 3e fc 17 27 be 0d a1 c6 3c 55 a0 e7 bd
       0.1659607 -0.16317743 0.024246717 -0.11309878
000140 69 71 33 bd 69 32 4c 3e 79 63 33 be a7 07 b7 bc
       -0.04380933 0.19941105 -0.17518415 -0.022342516
000150 1b 8f 8a 3d f2 f9 e0 3d a0 f9 2f bd eb cd 00 3e
       0.067655765 0.10985173 -0.04296267 0.12578551
000160 b6 e3 b4 3d 92 9a ec 3d 45 f7 a5 3d 47 83 27 be
       0.08832495 0.115529194 0.081038035 -0.16358672
000170 6f 2e b8 3c 27 6b a6 bc ca bf bf bd b0 d2 15 be
       0.022483079 -0.020314766 -0.09362753 -0.14631152
000180 f6 9d 3c 3e 0b 73 33 3d 3b 34 5b bd ce a0 2b be
       0.18419632 0.043810885 -0.053516608 -0.16760561
000190 4f 2c ab bc 36 d9 5d 3e 64 06 d6 bd 9b 3f 80 bd
       -0.020895151 0.2166489 -0.10450438 -0.06262132
0001a0 6b df 43 3d b2 f7 77 3e 4b 79 0e be 34 48 73 3e
       0.04782049 0.24215582 -0.13913457 0.23758012
0001b0 da 70 e7 bd e2 d9 35 3d b5 37 fa bd b7 6b 38 bd
       -0.113008216 0.044397242 -0.122176565 -0.0450246
0001c0 97 dd c9 3d 16 b2 ac 3c 3e 77 ca 3d 13 44 39 be
       0.09856718 0.021081012 0.09886025 -0.18092375
0001d0 61 98 3e 3e c8 52 f5 bd e8 7c 66 3e b6 31 84 bd
       0.18612815 -0.1197868 0.22508585 -0.06454794
0001e0 96 4d 24 3e 6f a8 49 3e 73 52 0b 3e 1a 5c d0 3d
       0.16045222 0.19693159 0.1360567 0.10173817
0001f0 f3 6e c2 bd a1 dc 46 bd 2c 6a 4a be da 61 d4 bd
       -0.09493818 -0.048550252 -0.19767064 -0.10370226
000200 11 48 8b 3c 48 3e ac bd 24 d8 df 3c 02 e1 32 be
       0.017002137 -0.08410317 0.027324744 -0.17468646
000210 36 2a 18 3e 18 01 01 be 0f f5 e9 bc b2 54 c0 bd
       0.14859852 -0.12598073 -0.028559236 -0.09391154
000220 e4 f2 8c bd e8 39 99 bd 07 2f ee bd bd fc 69 be
       -0.06882265 -0.07481748 -0.116300635 -0.22850318
000230 97 b0 5d 3d e7 61 4a be a1 0b 5f 3d ec 05 09 be
       0.054123487 -0.1976391 0.05445445 -0.13381165

features.layers.0.logic.2.layer.0.mlp.0.bias f4 [8]
000000 0f 05 83 3e 2f 9b 59 bd 37 e5 04 3e 1c 40 ad bd
       0.25589797 -0.05312651 0.12978064 -0.084594935
000010 f7 67 28 3e fa 5c 28 3e f0 6d 8c 3c 51 b3 1e be
       0.1644591 0.16441718 0.017142266 -0.15498091

features.layers.1.logic.0.layer.0.mlp.0.weight f4 [8, 42]
000000 f1 6d 72 bd 01 db 86 3d ad 8a 09 3d ea 4e eb bc
       -0.05918688 0.065847404 0.033579517 -0.028724153
000010 01 66 12 3e 3c fa 69 bd c4 d1 04 3e 34 5c cc 3d
       0.14296724 -0.057123408 0.12970644 0.09978524
000020 ab 6b 2c bd 51 99 ca bc 93 26 16 3e 2e 41 c0 3d
       -0.042094868 -0.02473131 0.14663152 0.09387432
000030 f2 78 d7 3d 6e 3d da 3d f3 14 f0 3d 87 41 af bd
       0.10521115 0.10656248 0.11722746 -0.0855742
000040 01 03 15 3e a6 06 10 3e 20 01 aa 3d d3 7c ab bb
       0.14551927 0.14065036 0.08300996 -0.005233386
000050 b6 15 b4 3d 91 ee df 3d a2 78 7c bd be 03 26 3d
       0.087932035 0.10934175 -0.061638482 0.040530913
000060 88 a8 17 3e 7e 6a d4 ba 8d 82 1f bd 00 2b e9 3d
       0.14810383 -0.0016206054 -0.038942862 0.11385155
000070 45 c6 c3 bd 0b c0 db bc 09 84 48 bd a0 ce 86 bd
       -0.09559301 -0.026824972 -0.048954044 -0.06582379
000080 49 42 c6 3d b1 2a d5 3c 1b 76 2f bd bb 93 59 3d
       0.09680612 0.026021333 -0.042837244 0.053119402
000090 82 65 02 bb fb 36 6c bd f3 34 84 3d ae d6 67 3c
       -0.001989693 -0.05766962 0.06455412 0.014150305
0000a0 3f 87 cd 3b 02 16 e9 bc 47 3f 27 bd 63 86 ad bc
       0.006272226 -0.028452877 -0.04083183 -0.021182245
0000b0 2b 9d 25 3d 86 63 f6 3c 08 25 72 bd 76 43 bf 3d
       0.04043309 0.030076753 -0.059117347 0.09339039
0000c0 d6 5a bf bd 5d 02 b3 bd bd 77 ef bd 01 fa d7 bd
       -0.093434975 -0.08740685 -0.1169276 -0.10545731
0000d0 5e b3 01 be 20 0c c9 3d 3a 96 54 3d c0 58 e8 3c
       -0.1266608 0.09816766 0.05190108 0.028362632
0000e0 67 b5 1e bd 68 eb b4 3c 32 7e 82 bd 2b cd 12 3d
       -0.038747218 0.022084907 -0.06371726 0.035840195
0000f0 23 94 79 3d 62 17 ee 3c 30 8b 42 bd 37 d6 95 bd
       0.06093229 0.029063884 -0.04749602 -0.07316249
000100 53 73 19 bd 3c 80 aa 3d 4e a5 81 bd 61 3d 8f 3c
       -0.037463497 0.0832524 -0.063303575 0.017485322
000110 ae 14 c9 bd d1 36 39 3d 61 21 bb 3d 34 20 c6 bd
       -0.098183975 0.045218293 0.09137226 -0.09674111
000120 92 b2 a2 3d 9c 5a 05 bd f1 b1 fe 3d 57 6e 19 bc
       0.07944216 -0.032557115 0.124362834 -0.009364686
000130 95 ff 24 3d 24 d0 03 3e 78 53 c4 bc 7e 97 0a 3e
       0.040282805 0.12872368 -0.023965582 0.13534352
000140 0a fc 1d bd c1 8f 16 3d 52 2e 22 bd 34 b7 c0 3d
       -0.03857044 0.03675819 -0.039594956 0.09409943
000150 9e 2f 84 bd b4 94 e7 3c f9 94 b9 3c fd 64 f3 bd
       -0.06454395 0.02826915 0.022654044 -0.11884496
000160 b7 59 42 3b df 45 91 3c b2 07 13 3e e2 76 eb ba
       0.0029655525 0.017733512 0.14358404 -0.0017964507
000170 33 15 ce 3d 1d d4 b1 3c 93 08 8e 3d bd 3c d5 3d
       0.10062637 0.021707589 0.06935229 0.104119755
000180 9a 5c b1 bd bb 9c a3 bc 02 50 f8 3d b6 26 67 3d
       -0.086602405 -0.019972196 0.12124635 0.056433402
000190 3b 93 c1 3d 70 8c 25 bc 07 42 42 3d 88 d7 85 bd
       0.0945191 -0.010104284 0.04742625 -0.0653525
0001a0 0e 55 a4 3d 89 a7 1c 3e 06 89 00 3c 89 b8 d7 bd
       0.080240354 0.15298285 0.007845169 -0.10533244
0001b0 a0 e4 6f 3d c3 dc cb 3d f4 1b 85 3d 45 92 37 3e
       0.058567643 0.09954216 0.06499472 0.17926891
0001c0 f2 07 00 3e 55 b7 c3 bc 0b 40 ad 3d b7 cb 04 bb
       0.12503031 -0.02389113 0.08459481 -0.0020263025
0001d0 2d 0f 32 bc 4e 53 ee 3d 49 7a e1 3d ac 2f b2 bc
       -0.010867876 0.11636983 0.11009652 -0.021751247
0001e0 70 d9 32 bd 90 15 58 3e 79 eb a2 bd ef a6 cf 3d
       -0.043664396 0.21101975 -0.07955069 0.10139262
0001f0 50 d7 17 3e 04 fe 6e 3d a5 24 e8 3c 01 3e 53 be
       0.14828229 0.058347717 0.028337786 -0.20629121
000200 9e 90 66 bd e3 a4 9d bc 39 40 8f 3c 74 98 23 be
       -0.05629026 -0.019243663 0.017486678 -0.15976125
000210 53 8c 64 3d 78 45 a8 3d f8 e0 cd 3b 85 50 44 be
       0.055797886 0.08216375 0.006282922 -0.19171341
000220 2b 7d f7 bd 18 ed 1f 3d 00 8b 40 be 03 d7 84 bd
       -0.12084421 0.03904447 -0.18803024 -0.06486323
000230 37 d6 43 bd 9b 36 8f 3d b3 81 24 3d 2b a2 13 be
       -0.047811713 0.06992837 0.040162753 -0.14417331
000240 d7 14 13 bd 67 f8 17 be 6a 6c 11 bb 51 6b b3 bd
       -0.035908546 -0.14840852 -0.0022189864 -0.08760703
000250 e5 c7 33 3c e1 81 93 3c 57 f7 fa bd a8 9a 4f 3d
       0.010972952 0.018006267 -0.122542076 0.0506846
000260 7f 4a 94 bd 3a 4c 10 bd 26 81 57 3c 08 39 54 3d
       -0.072407715 -0.035228945 0.01315335 0.0518122
000270 c5 7e 28 be e8 16 17 be e5 33 28 bd 2f 3f 00 bd
       -0.16454609 -0.14754832 -0.041065115 -0.031310257
000280 05 bd 1a be c5 ac 6f 3c a3 0e 94 bd 15 b8 b1 bd
       -0.15111168 0.014628594 -0.07229354 -0.08677689
000290 ff a2 aa bd f7 69 2b be f3 b6 cb bd 34 41 83 3c
       -0.0833187 -0.16739641 -0.09947004 0.016022302
0002a0 10 0a 9c 3d 9b e0 16 3e 66 66 15 3e 73 ef ed 3c
       0.07619107 0.14734118 0.14589843 0.029044842
0002b0 e5 61 3b bd c3 b3 ac 3d bf 55 9e bd b5 18 86 bd
       -0.045747656 0.08432724 -0.077311985 -0.06547681
0002c0 a7 2d 07 bd ca 0c 50 3d 90 62 19 3d a3 f8 96 bd
       -0.03300252 0.050793447 0.037447512 -0.073716424
0002d0 54 86 3f 3e c3 07 32 3e 0b 6f 6d 3d 5e 4f 48 bd
       0.18703586 0.17385773 0.057967227 -0.048903815
0002e0 71 f7 4e bd b5 18 0b 3e 41 2d 72 3d 1d d7 50 3e
       -0.050528947 0.13583644 0.05912519 0.20394559
0002f0 ce f1 2f 3e 7c b4 cd 3d fe a0 29 3e ee ae 12 3e
       0.17182085 0.1004419 0.1656532 0.14324543
000300 01 10 ad 3d 5f b1 34 bd 45 cd fd 3d ba 4b ea 3d
       0.08450318 -0.044114467 0.12392668 0.11440225
000310 c3 b3 fb bc 1e e5 cb 3d 8e 40 b4 bd ae 3c 51 3d
       -0.030725366 0.0995581 -0.08801375 0.05108326
000320 2d 16 05 3e 5f 99 ca 3b 81 7b a9 3d 55 c2 ac bc
       0.1299674 0.006182834 0.082755096 -0.021088758
000330 65 b3 2a bd a0 e0 eb 3d d3 a7 02 3e 7b ea 4a bd
       -0.04167499 0.11517453 0.12759332 -0.049540024
000340 c7 f4 01 3c 43 1e e4 bc b4 46 aa bd e8 be 97 3d
       0.007931895 -0.027846461 -0.08314267 0.07409459
000350 90 73 e6 3d 7e 0d a4 bd 64 78 b5 3d 67 b5 08 3e
       0.112525105 -0.08010386 0.08860853 0.1335045
000360 57 77 cd 3d 04 46 a8 3d 11 36 33 3e 92 47 41 bd
       0.10032528 0.082164794 0.17501093 -0.047187395
000370 41 e5 0b 3e 3e ea c2 3d 9b 87 71 bd 72 72 f3 ba
       0.13661672 0.095173344 -0.058967214 -0.0018573536
000380 a2 ee f0 3c a8 8b 40 3d bb b5 a4 3d fd 52 8d bd
       0.029410664 0.047008187 0.08042475 -0.069005944
000390 53 a5 0f bc 37 f5 4d 3e 57 d8 c2 3d 31 b2 fd bc
       -0.008767444 0.20113073 0.0951392 -0.030968757
0003a0 fd cd d2 3d 5a 9e 1e 3e e5 14 09 3e b2 d2 24 bd
       0.102931954 0.15490094 0.13386877 -0.040239997
0003b0 11 70 3d 3e 83 ab 1d 3e 2b 73 15 3d 57 48 25 bc
       0.18499781 0.15397458 0.036486786 -0.010088048
0003c0 4b 4f 36 3c b1 ff 16 bd 52 27 29 3d 8b dd 60 bc
       0.011127303 -0.03686494 0.041297264 -0.013724695
0003d0 6e ce 30 bd ef b1 00 3e ac 6d 0f 3e 92 6e ce bc
       -0.043165617 0.12567876 0.1400668 -0.025199208
0003e0 68 9e 34 bc 46 49 12 bc 8f 09 3f 3d 18 c7 38 3d
       -0.011024095 -0.008928603 0.046639975 0.045111746
0003f0 38 82 1a 3e c4 8d 26 3d cf 7f eb 3d b7 f8 7f bd
       0.15088737 0.040662542 0.11498987 -0.062493052

features.layers.1.logic.0.layer.0.mlp.0.bias f4 [8]
000000 34 e8 18 3e ff 57 ee 3c 71 d9 8d bd 78 03 4a 3d
       0.14932328 0.029094694 -0.06926239 0.049319714
000010 ef 50 5d 3d 4f 73 dc 3d 4a 19 10 3e 15 b4 d3 3b
       0.054032262 0.10764181 0.14072147 0.0064606764

features.layers.1.logic.1.layer.0.mlp.0.weight f4 [8, 41]
000000 5c ea c9 bd 91 d9 90 be 24 9d 33 be 16 dc c9 3d
       -0.09859154 -0.2829099 -0.17540413 0.09856431
000010 e8 a3 91 bd bb 57 a5 3d 08 44 0f 3d 47 18 01 be
       -0.07111341 0.08073374 0.03497699 -0.12606917
000020 5a 24 ef bd 12 81 f4 bd ae dd f7 bc a5 b6 43 bd
       -0.116768554 -0.11938681 -0.030257072 -0.047781605
000030 5c 74 87 bc 6b ca a2 bd cd a5 cf bd 7a da b6 3a
       -0.016534977 -0.079487644 -0.10139046 0.0013950609
000040 93 c1 94 bd de fa 77 be 35 b2 48 bd 17 45 88 3c
       -0.07263484 -0.24216792 -0.048998076 0.016634507
000050 e1 ef e6 bd d5 51 97 3c f9 ce 8a 3d f2 02 b2 3b
       -0.11276222 0.018471638 0.06777758 0.00543248
000060 7d c6 53 bd 51 ad 01 be e2 48 e4 bd a7 7b 57 bd
       -0.051702965 -0.12663771 -0.11146714 -0.05260816
000070 36 24 e3 3c 01 00 f6 bd 11 27 f7 bd b2 2e 33 be
       0.027727228 -0.120117195 -0.12067998 -0.17498282
000080 ba 03 00 be d4 93 e0 bd fd 0a ae bd c8 f5 de bd
       -0.12501422 -0.10965696 -0.084981896 -0.10886723
000090 7d 50 fa bd 61 8c 00 bd 61 82 eb bd 1d 32 a3 bd
       -0.12222383 -0.031383876 -0.11499477 -0.07968543
0000a0 93 ba 10 be 3a 07 45 bd 1a 5d ae be ac 1f a6 be
       -0.14133672 -0.048102595 -0.34055406 -0.3244604
0000b0 2d 7b 21 be 38 18 0c be 5b 80 13 be 91 87 55 be
       -0.15769644 -0.13681114 -0.14404432 -0.20852496
0000c0 82 83 4a bd c7 20 90 bd 7d 32 94 bd fe 58 c1 3c
       -0.049441822 -0.07037502 -0.072361924 0.023602005
0000d0 46 de 8d 3d 6f 05 30 be a9 a4 ca bd 94 4c d3 3a
       0.06927161 -0.17189573 -0.09894688 0.0016120845
0000e0 b1 d1 ff bd d7 aa 37 bd 49 92 bf bd 3a 6c 19 be
       -0.12491167 -0.04484066 -0.093540736 -0.14982691
0000f0 53 fe 95 bc 00 3b e0 bd cb 9f ac bd 74 7a e6 bd
       -0.018309748 -0.10948753 -0.084289156 -0.11253825
000100 34 1b 00 be a3 3c 01 3d 8b 7c 75 be 86 19 23 be
       -0.12510377 0.03155197 -0.2397329 -0.15927705
000110 87 bf 68 3c 63 d8 76 3d 69 aa 54 bd 8a b7 00 3d
       0.01420582 0.060264956 -0.05192033 0.031425036
000120 29 3f 37 be 61 32 60 be 30 61 42 bd bb 93 dc bd
       -0.17895187 -0.21894218 -0.047455966 -0.10770365
000130 5c d4 99 bd c0 6e 21 be c9 60 88 be 98 a3 18 be
       -0.075112075 -0.15764904 -0.2663634 -0.14906156
000140 40 4c 89 3d 5d 97 84 bd e9 01 cb 3d e2 82 11 be
       0.06703997 -0.06474183 0.09912474 -0.14210084
000150 19 2e 79 be fc 13 ad 3d d2 6c 83 be 5d 2a bf 3d
       -0.24333991 0.08451077 -0.2566896 0.09334252
000160 ba ce 8f 3b 90 53 9b 3d 04 47 04 3d 34 38 ed bd
       0.0043886574 0.07584298 0.03229429 -0.115829855
000170 21 da a9 bc e1 f7 cd bd a5 1e b1 bd 26 02 82 bc
       -0.020733895 -0.10057045 -0.08648423 -0.015870165
000180 1c c9 89 3c 9c 44 55 be 4b a9 cf bd 41 b5 ed bd
       0.01681953 -0.20826954 -0.10139712 -0.11606837
000190 b0 9a d3 bd a6 22 92 bd cb d2 8d 3d 06 c0 7a be
       -0.10332239 -0.07135515 0.06924971 -0.24487314
0001a0 5b c9 2b bc 48 99 87 be 9c aa e8 bd 78 ee 4d be
       -0.010485019 -0.26484132 -0.11360666 -0.201105
0001b0 92 30 63 be ca e4 a0 bd 56 db 3e 3c f6 b7 08 3d
       -0.22186497 -0.07856138 0.011648973 0.033378564
0001c0 4c 6a 57 3c 81 44 1f be ce e8 66 bd e0 19 ba 3a
       0.013147902 -0.15553476 -0.056374364 0.0014198385
0001d0 47 56 fa bd 3e 4d d2 bd 05 d7 d8 bd 04 79 99 bc
       -0.12223487 -0.10268639 -0.10587887 -0.018734463
0001e0 9f dc 4c 3c 86 ea 0c 3d 4e 7b 9b bd ad 8f f1 3b
       0.012503772 0.034403346 -0.07591878 0.007371864
0001f0 ff 81 64 3e 20 09 ab 3e f6 83 9f 3d ff ab 8b 3e
       0.22315215 0.334054 0.077888414 0.2727966
000200 ef 91 75 3d 62 e1 35 3e c9 49 2e 3e 63 df 21 bd
       0.059953626 0.17761758 0.17020334 -0.03951968
000210 61 ac 41 bd 8f 92 e9 bc c1 d5 05 bc 17 7d 8c 3d
       -0.047283534 -0.028512267 -0.008168639 0.068597965
000220 6c 0f 92 3d f6 36 e4 3d 0a 88 ed bc bd ca 3b 3e
       0.07131848 0.111432955 -0.028995533 0.18339057
000230 64 d6 23 3e 0a a1 cb 3d 36 1c 1e 3e 62 37 c7 3d
       0.15999752 0.09942825 0.15440449 0.0972736
000240 83 fa 1b bd 37 5b d2 3d a6 63 89 3d b3 2c 91 3d
       -0.038080703 0.10271304 0.067084596 0.07088604
000250 96 61 20 3e 73 21 bc 3d 07 17 5a 3d 49 83 1a 3e
       0.15662226 0.091860674 0.053244617 0.15089144
000260 0f 1e c9 3d 34 a2 1d 3e 45 28 7c 3e 48 d1 67 bc
       0.09820186 0.15393907 0.24624737 -0.014149018
000270 fd eb 13 3e 47 f7 d0 3d 16 ab 30 3e 7e b6 6b bc
       0.14445491 0.102034144 0.17252764 -0.014386771
000280 37 64 85 3e 49 4d 09 3e ec 89 06 3e e2 03 0e 3e
       0.2605302 0.13408388 0.1313855 0.13868669
000290 b8 9e 37 3d 2d 72 97 3e 6b d8 12 3e 57 6a 3d 3d
       0.0448291 0.29579297 0.1434037 0.04624399
0002a0 3c 08 7b 3e 1c c0 89 bd c1 e6 f6 3d fe 9a b3 bd
       0.2451486 -0.06726095 0.120557316 -0.08769797
0002b0 e0 0f 53 3a 26 74 ed 3d ff 98 ae 3d 9f 22 f8 bc
       0.0008051377 0.11594419 0.085252754 -0.030289946
0002c0 67 6a 20 3e 39 3c ca 3c 58 63 f1 bc 9c 30 91 3e
       0.1566559 0.02468692 -0.029466316 0.283574
0002d0 18 9a 79 3d c6 86 07 3e 9d 51 20 3e 4f f6 0c be
       0.06093797 0.13235006 0.15656133 -0.13765834
0002e0 4c 56 84 3c 86 cf aa 3d b3 9e c6 3d 7c 6a dc 3b
       0.01615443 0.08340363 0.09698238 0.006726561
0002f0 30 2c f2 3d 1a 63 df 3d 3c 2f bf 3d af b3 3e bd
       0.11824834 0.10907574 0.09335181 -0.04655808
000300 ad c2 83 3d d6 47 e9 3d da f5 73 ba ab 26 9f 3d
       0.06433616 0.11390655 -0.0009306349 0.07771047
000310 6a 08 95 bd a6 29 39 3e 41 9b a1 3d bf c9 2d 3e
       -0.072769955 0.18082294 0.078909405 0.16971491
000320 9b dd a7 3d 29 03 8a 3e 6f 51 c6 bc a6 0b 1e be
       0.08196565 0.26955536 -0.024208752 -0.15434131
000330 63 70 49 bd f8 8c 7e 3b 53 a6 a4 bd 07 1a 91 bd
       -0.049179446 0.0038841348 -0.08039536 -0.070850424
000340 93 4e 91 3d 4c e3 41 be 73 38 95 bd 6e 86 cf bd
       0.07095065 -0.18934363 -0.072861575 -0.10133062
000350 5b 35 fe bd 47 36 6c be bb 93 57 3c b0 3b 06 bd
       -0.124125205 -0.2306758 0.01315778 -0.032771766
000360 fe 34 37 be 56 0a 0a be 0c 86 6d bd 6f c5 f7 bd
       -0.17891309 -0.13480505 -0.057989165 -0.12098204
000370 ce ef 34 bd c9 2e 1b be df 69 90 bd cf 01 d6 bd
       -0.044174008 -0.15154566 -0.07051443 -0.10449564
000380 ed 9c 9e 3d ac 3d 72 bd e8 1d 0e 3d f9 6b a9 bd
       0.07744775 -0.059140846 0.03469649 -0.08272547
000390 10 08 3a bd de 50 6d bd 13 cd b3 bb 53 ca 35 be
       -0.045417845 -0.05793845 -0.0054870932 -0.17752962
0003a0 22 e0 19 be 00 bd 5e be ec 7b 42 3d d0 04 3c 3c
       -0.15026906 -0.21751785 0.047481462 0.011475757
0003b0 56 30 af bd 11 71 11 3e e8 4d c3 bd f2 64 b2 bd
       -0.08554141 0.14203288 -0.09536344 -0.0871066
0003c0 85 b2 22 be 22 8a 01 3d f3 a3 6a be 17 c5 56 3c
       -0.15888412 0.031625874 -0.22914104 0.013108513
0003d0 e5 f2 c1 bd 85 3d 1c 3d b1 9a 04 3e d4 6a 57 3e
       -0.094701566 0.038144607 0.12949635 0.21036845
0003e0 31 32 81 3d b4 60 8b 3d 57 f4 d4 3d b4 9c 9f bd
       0.063084014 0.06805554 0.103981666 -0.077935606
0003f0 88 b2 c9 bd 17 47 b6 3b f0 13 ba 3d de 50 f6 3d
       -0.09848505 0.005562674 0.09085834 0.12027143

features.layers.1.logic.1.layer.0.mlp.0.bias f4 [8]
000000 70 a1 a8 bd c7 86 91 bd b1 0a ab bd 01 02 9e 3e
       -0.08233917 -0.07105785 -0.083516486 0.30860904
000010 fd 62 76 3e cc d1 dc bd 23 b8 48 3e a1 71 fe 3d
       0.24061199 -0.10782203 0.19601493 0.12424017

features.layers.1.logic.2.layer.0.mlp.0.weight f4 [8, 50]
000000 6c 00 16 bc 51 15 1e 3d 21 2a b0 3b ab 5e 36 bc
       -0.009155374 0.038594548 0.005376116 -0.011130969
000010 2a 07 c6 bc 03 cf c7 bd f5 08 27 3d 43 40 35 3c
       -0.024173338 -0.09756281 0.040780026 0.0110626845
000020 6c c5 96 3d da c1 aa bd 31 06 b9 3c c9 06 d9 bd
       0.07361874 -0.083377555 0.02258596 -0.10596997
000030 8f 91 dc 3d 09 64 03 be e8 bd 96 3d c7 a3 a6 bd
       0.107699506 -0.12831129 0.073604405 -0.08136707
000040 80 72 96 3d dc 3c 45 bc 7d 53 20 be ea 65 fc bd
       0.07346058 -0.012038436 -0.15656848 -0.12324126
000050 4e 41 f9 bb 68 f8 47 3d c5 87 35 bd f0 e5 36 3d
       -0.007606662 0.048820883 -0.044318933 0.04465288
000060 7c 48 0a be 25 fc 00 be 37 6c 62 bc a8 45 fb bd
       -0.13504213 -0.12596186 -0.013819746 -0.12269145
000070 6c 41 1c bd c8 6b 8b bd 43 82 12 be 9a bb 04 be
       -0.03814833 -0.06807667 -0.14307503 -0.1296219
000080 3b 8b fe bd b3 51 53 bd 2d 3b 0c 3d 70 eb 36 be
       -0.124289 -0.051591586 0.034236122 -0.1786325
000090 e2 28 fb 39 df e7 93 bc 62 9e a6 bd 22 2a 1c 3d
       0.0004790491 -0.0180549 -0.08135678 0.03812612
0000a0 7a 68 73 bd ba 0e 33 bd 42 f1 86 3d 31 cd be bc
       -0.05942581 -0.043715216 0.06588985 -0.023291202
0000b0 02 c6 5b 3d ae a1 3a be ac c6 8a bd 37 dc a5 bd
       0.05365563 -0.18225738 -0.06776175 -0.08098643
0000c0 e5 68 7e 3d 05 81 61 bb a6 46 cf bd bf 0b fa 3d
       0.062111754 -0.0034409177 -0.10120897 0.12209272
0000d0 f2 cd 57 3d fc 3a 59 bd c7 76 b1 bd dc c1 c7 bd
       0.05268664 -0.053034768 -0.08665233 -0.097537726
0000e0 e0 46 02 3d c8 22 27 3d 76 60 27 be 1a 13 61 3d
       0.031805873 0.040804654 -0.1634539 0.054949857
0000f0 17 75 14 be b6 a0 d5 bd d8 82 6d bd 9d 47 31 bc
       -0.14497791 -0.10431044 -0.05798611 -0.010820297
000100 7e 8a 74 3d 10 ba 1f bd bc 83 da 3c a9 d5 d4 3c
       0.05970239 -0.038995802 0.026674144 0.025980787
000110 73 fc 51 bc 60 8e 1e be 1f 40 8d bd d8 8c 55 bd
       -0.012816536 -0.15483999 -0.06896996 -0.052136272
000120 43 0b 2e 3b 51 18 bc 3d 14 9d 0e bd 76 65 30 bd
       0.0026557005 0.091843255 -0.03481777 -0.04306551
000130 0d 2c 04 3d 4c ff 94 bd 04 6c b5 bd 88 5a 70 bd
       0.032268573 -0.072752565 -0.08858493 -0.058680087
000140 20 23 cb 3c e4 c8 a2 bc 52 92 aa bd b6 be 16 3d
       0.024797022 -0.019871183 -0.0832869 0.03680297
000150 42 ed d7 bd 75 27 44 3d 29 87 09 3e 7e a4 b8 3d
       -0.105433 0.04788919 0.13430466 0.090157494
000160 3d 50 d5 3d c2 93 0f 3d be 9f 91 bd d1 1c 6d bc
       0.10415695 0.035053022 -0.071105465 -0.014472202
000170 41 be da bd e0 15 47 3d e4 49 a1 bd 8b 37 a6 bd
       -0.10680819 0.048604846 -0.07875422 -0.08116063
000180 b3 cc 8b 3d d4 58 28 be 80 0f 03 ba af e5 f1 3d
       0.06826153 -0.16440135 -0.0004999563 0.11811387
000190 ad ab 90 3d bc 96 37 bd 88 ca f4 3d 5d b6 c2 3d
       0.070639946 -0.044821486 0.11952692 0.09507439
0001a0 3e 81 45 bd 04 59 39 bd 39 d4 22 3e 72 c9 bc 3d
       -0.048218958 -0.045250908 0.15901269 0.0921811
0001b0 fd 87 72 bc 1b fb 02 3d 5c cd 08 3e 7a e6 4b bd
       -0.01480293 0.031977754 0.13359588 -0.049780346
0001c0 16 e0 ad bc 28 27 09 bb 32 d1 b1 bd 5c 65 bf 3d
       -0.021225017 -0.002092788 -0.08682479 0.09345505
0001d0 78 c2 a8 3c 36 9d a8 bd 65 37 6f 3d 57 2f 1d 3c
       0.020600542 -0.082331106 0.058402438 0.009593806
0001e0 21 03 91 3d 9b d6 06 bc 54 45 18 bd cb 70 2a 3e
       0.07080675 -0.008229877 -0.03717549 0.1664459
0001f0 5a df cb 3c 94 f6 c0 3c 0c bd d9 bc 7a fc 27 3e
       0.024886776 0.023555078 -0.026579402 0.16404906
000200 cc 1d 3d 3d 36 49 00 3e 33 26 dd bc 8f 1c c8 3d
       0.046170995 0.12527928 -0.026995754 0.09771072
000210 f9 e1 c5 3d b7 c1 1f 3e 68 f6 28 3e bf 5e 32 3d
       0.096622415 0.1560124 0.16500247 0.04354739
000220 f5 1c ac 3d 67 e0 3e 39 0d c8 b7 bd 49 e2 1e 3e
       0.084039606 0.00018203408 -0.089737035 0.15516008
000230 b0 ec c0 3d fe 65 c9 3d 6b c9 88 3d 8a 77 e9 3d
       0.094201446 0.098339066 0.066790424 0.113997534
000240 c0 fd 10 be 4e 75 47 bc cf fe fc 3d aa ab 93 3d
       -0.14159298 -0.012173964 0.123532884 0.07210477
000250 b6 6d 30 3e 2f 96 f9 ba c4 27 04 be 17 04 03 be
       0.17229351 -0.001904195 -0.12905794 -0.12794529
000260 5a 17 a8 3d b7 ac a9 bd 08 da f0 bc 2c b6 b5 bd
       0.08207579 -0.08284896 -0.02940084 -0.08872637
000270 df 09 6f 3d 8f 9c c0 bd e5 65 5c 3d 98 5a 9b bd
       0.058359023 -0.09404861 0.05380811 -0.07585639
000280 95 1a c3 bd 13 b9 b6 bd 1b f6 a8 bd 72 cf 12 be
       -0.095265545 -0.08922019 -0.08250066 -0.14336947
000290 92 7f ec bd f5 85 60 3c 4a 5b 20 3e 43 d3 be ba
       -0.115477696 0.013703813 0.15659824 -0.001455881
0002a0 c0 18 81 3d 15 4b 85 3d d0 89 ee 3d 89 25 eb bd
       0.06303549 0.065084614 0.116473794 -0.11481769
0002b0 cf a1 70 bc 61 c4 1c bd 6c 71 bb 3d 9b 32 e7 bd
       -0.014687016 -0.03827322 0.09152493 -0.11288949
0002c0 54 06 ac bc e3 13 36 bc ae 91 1c 3e e9 9b bb 3d
       -0.020999111 -0.01111314 0.15289947 0.09160597
0002d0 f8 d8 9d bd 16 bf 81 3c 15 43 20 be d5 50 8f bd
       -0.07707399 0.015838187 -0.1565059 -0.06997839
0002e0 35 c9 bc bd ae 51 ce 3c ac 2d a0 3c 21 ee 47 bd
       -0.09218065 0.025185432 0.019553028 -0.04881108
0002f0 fd 31 9f bd 52 dd 4d bc 70 62 6c 3d 9f d2 ae ba
       -0.077732064 -0.012564974 0.057711065 -0.0013337916
000300 78 7a b5 bd ec 93 d9 3c f3 b4 df bc 50 9b b5 bd
       -0.0886125 0.026559792 -0.027307963 -0.08867514
000310 6b 09 ac 3d e0 ab 7d 3d 4a 85 d5 bd 8e 12 0d be
       0.08400234 0.06193149 -0.104258135 -0.1377661
000320 0d 45 0c 3d 48 e4 bb 3d d7 35 b0 bc 29 a8 b3 3d
       0.03424554 0.091744006 -0.021510048 0.087723084
000330 d7 6d b7 bd 08 be b0 3c 3b fd b9 bd c6 5e e8 3d
       -0.08956497 0.021574989 -0.09081503 0.113462016
000340 48 a0 bc 3d 16 37 3f bd 2b 06 47 3e 4c 25 e5 3b
       0.09210259 -0.046683393 0.19435947 0.0069929715
000350 3f 09 95 3d 2b 32 8c bb 92 8d 12 bd 1e 58 0a 3d
       0.07277154 -0.0042784414 -0.035779543 0.03377544
000360 b7 ce ff bd 3e 3e cf 3d a2 ef ed 3c 60 23 b5 bd
       -0.124905996 0.10119294 0.02904493 -0.08844638
000370 b5 a8 44 3d 87 19 23 3e e1 e0 ad 3c b0 76 99 3d
       0.048012454 0.15927707 0.021225395 0.07493341
000380 f6 8a d8 3b 03 2f c9 3d 11 45 22 3d 1f 89 3b 3d
       0.0066083623 0.0982342 0.039616648 0.045785066
000390 23 48 77 bd d7 f1 d7 3c df 95 db 3c a3 2a 88 3d
       -0.06037153 0.026360435 0.026804863 0.06648757
0003a0 cc 3b 01 3d bf 83 2b 3e ef dc b6 3d bd ae 86 3d
       0.031551167 0.16749476 0.089288585 0.065762974
0003b0 9e ef b1 bd 33 93 ee 3d cb 58 06 bc 37 05 a6 3d
       -0.086882815 0.1164917 -0.008199881 0.081064634
0003c0 8a ae 0d 3e 6d 48 32 bc d8 97 51 3d da 84 a3 3d
       0.13836113 -0.010881525 0.0511702 0.07984324
0003d0 14 ca 0d 3e 61 b0 05 bd ff d0 be 3d de 3d 66 3d
       0.13846618 -0.03263891 0.093172066 0.056211345
0003e0 82 f3 b9 3d 46 d9 83 3c 74 83 a3 3b e4 3a 4e 3e
       0.090796486 0.016094815 0.0049900357 0.20139652
0003f0 46 d5 76 bd 28 3a 19 3e 4c de 9a bd 53 3a 03 3d
       -0.060261987 0.14963591 -0.07561931 0.032038044

features.layers.1.logic.2.layer.0.mlp.0.bias f4 [8]
000000 ec c6 1a be f8 1d a2 3d 46 de 3c 3d 29 8d fc 3c
       -0.15114945 0.07915872 0.046110414 0.03082903
000010 c3 7a b9 3b ee 8c ec 3a 97 8d 52 be 01 9e ae 3d
       0.0056603863 0.0018047371 -0.20561825 0.085262306

features.layers.1.logic.3.layer.0.mlp.0.weight f4 [8, 48]
000000 4e 7e 31 3e 4c dd bb 3d 5b f6 8a 3d 99 3e a4 3d
       0.17333338 0.091730684 0.0678527 0.08019752
000010 53 0e 91 3d 26 52 ff 3b cb 0e 87 3c 8a 59 91 3d
       0.0708281 0.0077917753 0.016486546 0.07097156
000020 21 0a cd bc 7b 7e bf 3d a2 1e 99 3d 09 cd db bd
       -0.025029244 0.09350296 0.07476546 -0.10732467
000030 bf 94 57 3d 58 64 69 bb b6 7d 78 bd 17 31 d2 3d
       0.05263209 -0.0035612788 -0.060666762 0.102632694
000040 2d da 1d 3e 1d f2 9c bc 1c 88 12 3e 84 55 b6 3d
       0.15415259 -0.019158417 0.14309734 0.089030296
000050 a1 c8 88 3d 00 c8 12 3e 31 4f 9f 3d a6 cc 22 3d
       0.06678892 0.14334106 0.077787764 0.03974595
000060 c6 02 47 3c 15 6b a2 3c b6 fc 09 3e 8d 9e 1a bb
       0.012146657 0.019826451 0.13475308 -0.0023593039
000070 ce df 7a bd 46 79 6c 3d 4f d6 c3 3c db 14 9e bc
       -0.061248593 0.057732843 0.023905901 -0.019297054
000080 a2 d8 5a ba 20 1b 90 bd f0 41 e8 3d 86 65 63 bd
       -0.0008348321 -0.07036424 0.113407016 -0.055516742
000090 53 44 e2 3d 2c 70 9a 3d be b4 62 bd 55 23 c5 3d
       0.11048188 0.07540926 -0.05534815 0.0962588
0000a0 87 ce f0 3d 8b 2a fd 3d 98 f4 ce bc 32 cb 06 bc
       0.11758142 0.1236163 -0.025263116 -0.0082271565
0000b0 c7 e6 8c 3d 1a aa 5d 3d ba d1 ca 3d a5 16 01 bb
       0.06879955 0.0541173 0.099032834 -0.0019697335
0000c0 e6 35 2a bd dd 69 92 3d 23 7c f0 3d 8f 13 c4 3c
       -0.041555308 0.07149098 0.11742427 0.023935108
0000d0 6e 73 00 bd dc 43 82 3d ca b8 07 3e fc 58 60 3d
       -0.031360082 0.063605994 0.13254085 0.054772362
0000e0 1a b6 eb 3b 86 8c 07 3c dd 4f ba bd 31 6b 1e 3e
       0.007193339 0.0082732495 -0.09097264 0.15470578
0000f0 38 9b 6b 3d 34 3b 1e 3c 3e 7b 01 bd a0 34 aa bc
       0.057521075 0.00965767 -0.031611674 -0.020777047
000100 27 86 ee bd e6 e5 fe bd dc f6 8d 3a b2 d5 35 bd
       -0.11646681 -0.124461934 0.0010831016 -0.04439325
000110 6c f4 eb 3c bd da a8 bd cb 87 0f 3d cd e5 b4 3a
       0.028803073 -0.08244846 0.03504161 0.0013801396
000120 ac 78 d6 3d 20 3d 05 3e de 41 d1 3d f8 c6 14 be
       0.10472235 0.13011599 0.10217641 -0.14529026
000130 6e 21 a8 bd df 8e 82 3d 2f e4 e5 3c 8a 0a 83 bc
       -0.08209501 0.06374907 0.028062908 -0.015996236
000140 86 83 ce bd 96 e9 03 3e 89 ae 5f bd 36 a6 a1 3d
       -0.1008368 0.12882075 -0.05460981 0.0789303
000150 8a 5f 8b bd ab 42 2d 3c e3 f9 ca bc a0 e4 6c bd
       -0.06805332 0.010574977 -0.024777358 -0.05783522
000160 df 1b b5 bd 8d ce 02 bd a0 09 d2 bd d0 5f f7 bd
       -0.088432066 -0.031935263 -0.10255742 -0.12078822
000170 c8 2a 43 bc 81 e2 b8 3c 5a 22 cb bd ee b7 ae 3c
       -0.011912055 0.022568943 -0.099186614 0.021327939
000180 c2 80 98 bb fe bb cb bd 67 f9 3d bd 8e 6e a5 3d
       -0.004654021 -0.09947966 -0.046380427 0.08077727
000190 5a c4 0c 3b 28 20 a2 3d f2 80 02 3e 81 29 f9 3d
       0.002147934 0.079162896 0.12744501 0.12166119
0001a0 8f 3e 34 bd 56 36 9a bc 88 b5 b8 3d 0f 0d cc 3d
       -0.044004973 -0.018824738 0.09018999 0.09963428
0001b0 4b a3 7c bd ec de a2 bd 4d 24 c5 3d 72 34 82 3d
       -0.061679166 -0.07952675 0.096260644 0.063576594
0001c0 f1 8f 27 3d 1a 3d ca 3c 5c a2 65 3d f2 9a 93 bd
       0.040908758 0.024687339 0.05606304 -0.07207288
0001d0 50 d2 81 3d 72 b0 b3 3d 0a f2 7a bc c1 cd 41 3d
       0.06338942 0.08773889 -0.015316496 0.047315363
0001e0 61 21 1a 3e c9 a4 b8 bc 1c e7 3d 3d 6d 64 b6 3c
       0.15051796 -0.022539513 0.04636298 0.022264684
0001f0 61 3b da 3c 47 86 35 3d 61 b7 14 3c 5c c3 89 3d
       0.026639642 0.04431751 0.009076924 0.06726715
000200 eb 19 fd bc 59 13 ac bd 10 61 eb bd c0 8e d8 3d
       -0.030896148 -0.08402128 -0.114931226 0.105741024
000210 3d a7 15 be f6 64 2f bd 5f 64 ea 3b c0 f7 b0 3c
       -0.14614578 -0.042820893 0.0071530784 0.021602511
000220 1b 9f 17 3e 8a ba 2e 3b da c7 ff bd 3e 34 e2 3c
       0.14806788 0.002666148 -0.124892905 0.027612802
000230 f2 be d8 bb 6f 50 cd 3d 0f 64 ed 3d 55 42 61 3d
       -0.0066145593 0.10025107 0.1159135 0.0549949
000240 e1 1c 93 3c 8c 44 c4 bd 45 49 db bd c1 81 81 bb
       0.017958106 -0.09583387 -0.107073344 -0.0039522354
000250 58 cd 71 bd b2 f6 5e 3d d5 22 07 3e 91 a2 75 3d
       -0.05903372 0.054434486 0.13196881 0.05996949
000260 6b c0 8d 3d a1 e5 42 bd 21 9e 73 3d cb 28 b8 bb
       0.069214664 -0.047582272 0.059476975 -0.0056200973
000270 db d5 c2 3d 5c 7b 25 3e d7 0a 3e bd 42 c7 09 3e
       0.09513446 0.16160339 -0.046397056 0.13454917
000280 a2 a3 81 3d b5 0c e4 bb 75 f2 89 bd 90 91 b6 bc
       0.063300386 -0.0069595226 -0.06735698 -0.022286206
000290 f4 20 9a bd c8 8b 79 3d 42 68 24 3d b5 d4 9a bd
       -0.075258166 0.06092432 0.04013849 -0.07560102
0002a0 e8 e0 27 3e 67 8b 02 3e 49 d1 f0 3d 68 a3 33 3d
       0.16394389 0.1274849 0.11758668 0.04385701
0002b0 4f ff 76 3c 11 d0 33 3e 90 9d 05 3e f0 f4 24 3d
       0.015075519 0.1755984 0.13048387 0.040272653
0002c0 fd 85 bd 3d 57 24 a2 bd 39 d0 a7 3c ea b1 ec bd
       0.09254072 -0.079170875 0.02048503 -0.11557372
0002d0 0d ca f5 bd dc 6f 18 3c 76 34 f1 bd c0 b3 95 bd
       -0.12001429 0.009304013 -0.11777584 -0.07309675
0002e0 6b 5f db 3d f2 ba ec bc 0a 41 00 3d 03 03 7b bd
       0.10711559 -0.028897736 0.031312026 -0.06128217
0002f0 d6 43 18 bd 4a b2 b2 bc ca da 8a bd 79 8b 1e 3e
       -0.03717407 -0.02181353 -0.06780012 0.15482892
000300 64 78 7f 3c ce 51 38 bd c5 f3 58 bd 9e 54 d3 3d
       0.015592668 -0.04499989 -0.05296685 0.10318874
000310 de 62 a0 bd 86 3f 02 3e a5 da 78 bd 6e 32 07 3d
       -0.078313574 0.12719545 -0.06075539 0.033007078
000320 31 60 17 3d fe 59 27 bd e3 d0 43 3d bf 3f 31 3d
       0.03695697 -0.040857308 0.04780663 0.043273684
000330 43 e7 1a 3d 0f 48 10 3b f4 3d e7 3d 8c 72 0b bd
       0.037818205 0.0022015607 0.112911135 -0.034044787
000340 40 c4 a4 bd 61 77 78 bc 94 7d a8 bd 48 72 a5 3d
       -0.08045244 -0.015165181 -0.08227077 0.08078438
000350 09 0e 58 3d 71 e4 0e 3e e8 98 f8 3d 29 0f a7 bd
       0.05274776 0.13954331 0.121385396 -0.081571884
000360 ad 71 9d 3d 03 05 dd bd 70 f1 03 bd e8 44 db bc
       0.076876976 -0.107919715 -0.032212675 -0.026766255
000370 d2 d6 19 3d c3 4b 39 bc 93 7c f5 bd 92 07 95 bd
       0.037558384 -0.011309567 -0.11986651 -0.072768345
000380 18 f1 35 bd ab 7e 02 be a4 5b cc 3c 88 ce 9c 3d
       -0.044419378 -0.12743632 0.024946041 0.0765658
000390 40 ab 55 bd 18 97 a2 bc 3c ae 99 3d fa 53 da bd
       -0.05216527 -0.019847438 0.07503936 -0.106605485
0003a0 f3 3e 85 bd 93 90 f5 3d aa 98 83 3d 0c 53 e7 bc
       -0.06506147 0.11990466 0.06425603 -0.028237842
0003b0 3b af a9 bb f5 86 16 3c c5 47 70 3d 4b d3 85 3d
       -0.00517836 0.00918745 0.058662195 0.065344416
0003c0 7a 01 85 bd 4c 66 e3 3d 98 7d 2f 3d ad 16 cd bd
       -0.06494422 0.11103496 0.042844385 -0.10014091
0003d0 02 ae 9d 3d 9f d5 ef bc a9 83 97 3d 7e 7a e2 3d
       0.07699205 -0.029276667 0.07398159 0.1105852
0003e0 31 d4 f1 3d 84 da ee 3c 1d bc e4 bc e5 9c 9c 3d
       0.118080504 0.02915693 -0.02792173 0.07647113
0003f0 62 cf 2e bd 84 3d cf 3d 7a 54 e5 3d 2d a8 c5 bd
       -0.042678244 0.10119155 0.11197753 -0.096512176

features.layers.1.logic.3.layer.0.mlp.0.bias f4 [8]
000000 d0 d0 a3 3d ba a6 db bd 27 a5 34 bc c6 f3 6f bc
       0.07998812 -0.1072516 -0.0110257035 -0.014645522
000010 9e bb 2c bd 60 4e 55 ba 64 19 11 3e bd 44 80 3d
       -0.042171113 -0.0008136984 0.14169842 0.06263111

features.layers.2.logic.0.layer.0.mlp.0.weight f4 [8, 66]
000000 78 ff 85 bd e0 38 fe 3d 63 1b 05 3e b4 6d 9c 3d
       -0.065428674 0.12413192 0.12998728 0.07638112
000010 aa ac 17 3c 91 5d c4 3c 66 3b e2 3d 01 87 0b bd
       0.009257475 0.023970397 0.110464856 -0.034064297
000020 1a 59 83 bd c5 c9 d9 3d 45 ce d1 bc d8 f8 6b 3b
       -0.06413479 0.106341876 -0.025611052 0.0036006477
000030 30 86 12 3e 53 cb a8 3d fb ba 81 3d 64 f2 3c 3c
       0.14309001 0.08241906 0.06334492 0.0115324
000040 5e 46 0f 3d b7 6d cb 3d 05 2d 9d 3c ec 4c 58 3d
       0.034979217 0.09933036 0.019186506 0.052807733
000050 3f 3d b7 3c 48 93 83 bb 2f 45 f8 3c f0 a3 0a 3e
       0.022368072 -0.00401536 0.030306427 0.135391
000060 98 76 06 3d 3a 0c 2f 3d 01 4a 03 3e 88 70 54 bb
       0.032827944 0.04273627 0.12821199 -0.0032415707
000070 76 a6 a0 3d 01 8f f6 3d c1 e8 76 bd 29 80 40 3d
       0.0784425 0.120389946 -0.060280565 0.046997223
000080 22 70 15 3e 2d 1b 11 3e 98 02 68 3c 4d 29 75 bd
       0.14593557 0.14170523 0.014160775 -0.05985384
000090 6d 7e 2c bc b7 85 1c bd 97 6c 77 bd eb 52 9d bd
       -0.010528189 -0.038213458 -0.060406294 -0.07681831
0000a0 bb 57 15 3e ea fa 4d 3a 64 a4 54 bd f4 b2 7c bc
       0.14584248 0.00078575185 -0.051914588 -0.015423525
0000b0 c4 4c 93 3d 1d 0b 15 3e 9f 6b bf 3c 65 67 f1 3d
       0.07192376 0.1455502 0.023366747 0.11787299
0000c0 c7 02 55 bd 1e f5 65 3d 89 a4 92 3d 03 aa 84 bd
       -0.0520046 0.056141965 0.07160289 -0.0647774
0000d0 cb 2b 26 bd ba bd 70 bd 40 d4 b9 3d d6 b9 3d 3d
       -0.040569108 -0.058774687 0.090736866 0.046319805
0000e0 a4 b2 92 3d 79 87 16 3e 86 b2 56 3d 86 cd 2e 3e
       0.07162979 0.14700116 0.052416347 0.17070588
0000f0 20 ba 01 bb f2 44 f8 3d a6 e6 39 3d 6b 9b a3 3d
       -0.0019794777 0.12122525 0.04538598 0.07988628
000100 5d 9f 93 3d c0 1b cd 3d 7f c8 49 bd 8e 92 b2 3d
       0.072081305 0.100150585 -0.049263474 0.08719359
000110 42 df b8 3d 95 79 b2 3d 15 05 d7 3c 4b 9c 23 bd
       0.09026958 0.08714596 0.02624754 -0.039943974
000120 90 9e a7 3d e1 c5 b2 3d 58 3e 78 3d 43 ea 88 3d
       0.0818454 0.08729149 0.06060633 0.06685307
000130 c2 7e 96 3d 2d 58 d6 3d d8 9f 54 bd ef 9a f8 3d
       0.07348396 0.10466037 -0.05191025 0.12138926
000140 df c5 e8 3d 48 12 84 bd 5f 9f e6 3c 00 13 2d 3d
       0.11365866 -0.06448799 0.028152166 0.042254448
000150 22 56 1f bd 45 49 d1 3d 5f 5e 3a bc fb 1e 18 bd
       -0.038900502 0.10219053 -0.011375039 -0.03713892
000160 b8 80 1b 3e cc 46 8a 3d ea 22 14 3e 29 f3 b2 3d
       0.15185821 0.06751785 0.14466444 0.08737785
000170 a0 0c 6b bb fe c5 b3 3d 3e c4 08 3e 3e 4d 59 bd
       -0.003586568 0.087779984 0.1335611 -0.05305218
000180 da 24 00 3d 9e 04 0a 3e 29 db e4 3c 9a 30 d3 3d
       0.031285144 0.13478324 0.027936535 0.103120044
000190 6e cc 16 3e fc ba 83 3d 9c 11 c3 3d 9a ee 74 bd
       0.14726421 0.06432149 0.09524843 -0.05979786
0001a0 66 33 62 3d f5 8c d9 3d f7 80 fa 3d 6c f3 f4 3d
       0.0552248 0.106225885 0.12231629 0.119604915
0001b0 b1 f2 22 bd f5 c6 ce bc 64 00 54 3d eb b1 0b 3e
       -0.03978223 -0.025241354 0.051758185 0.13642089
0001c0 35 b0 4e 3c 12 2f 54 bd 43 09 00 bd 33 ae ce 3c
       0.012615253 -0.051802702 -0.031258833 0.025229549
0001d0 2b 4d 82 bd 7f d2 66 bd de 31 f9 3d b3 1d ed 3c
       -0.06362375 -0.05635309 0.121677145 0.028944826
0001e0 4c 17 2e 3d 96 e9 c9 bc a3 2d 78 3d 29 b2 0e bd
       0.042502686 -0.024647515 0.060590398 -0.034837876
0001f0 20 8e ef 3d 8a 01 a9 3d a1 25 8b 3d 12 5d a5 bd
       0.1169703 0.08252247 0.067942865 -0.080743924
000200 e1 01 be 3d fb e0 96 3a da 83 e3 3c 59 1e d2 3d
       0.09277702 0.0011511141 0.027772833 0.102596946
000210 f7 59 46 3d 34 96 f2 bc 3a 3b dc 3d e9 26 bf bd
       0.04842564 -0.029612638 0.10753484 -0.093335934
000220 28 d8 95 bd 4b a1 db 3d 85 c9 8d 3c 80 05 44 bd
       -0.07316619 0.107241236 0.017308006 -0.047856808
000230 83 f6 de 3c 05 bb c8 3c 0d 6b 06 3e ed 19 93 bd
       0.027217155 0.02450324 0.13126774 -0.07182679
000240 2f 08 75 bd 02 0e 0b 3e 93 09 10 3b 2b 4f 62 bd
       -0.059822258 0.13579562 0.0021978363 -0.05525128
000250 18 13 20 3c d6 c2 be 3d c3 58 f4 3d 14 b4 17 3d
       0.009770177 0.09314506 0.119309925 0.03703697
000260 59 48 05 3e fd 40 c8 bb 76 cd 80 3d 14 fa 97 3d
       0.1301588 -0.006111263 0.062891886 0.074207455
000270 f4 fa 8f 3c 16 33 ea 3d 08 1f 20 bd ee cf 7e bd
       0.017575718 0.11435525 -0.039092094 -0.062210016
000280 fe dc 3c bd af 1f 49 3c a6 34 c5 bc a0 7e 10 3e
       -0.046109192 0.01227562 -0.024072956 0.14110804
000290 ec f8 e7 3d 0f 6f 53 3a 8b 23 e2 3d b1 22 05 bc
       0.11326775 0.000806556 0.110419355 -0.008125947
0002a0 98 8b 23 ba 47 6d dd 3d 07 f4 76 3c 10 83 a3 3d
       -0.00062387576 0.108118586 0.015072829 0.079839826
0002b0 c7 cc 2e 3d bb 38 5b 3c 49 95 89 bd fc dc 0a 3e
       0.04267576 0.013380225 -0.06717927 0.13560861
0002c0 82 9e 3b bd f7 6f f6 3c c8 c5 e2 bc 32 31 62 3d
       -0.04580546 0.030082686 -0.0276822 0.055222698
0002d0 d8 6e 16 3d 99 6e bd 3d 96 d9 5e bc 34 31 80 bc
       0.036726803 0.092496105 -0.013601681 -0.015648462
0002e0 54 4f d0 3d e8 dd be 3b 60 c5 9f 3d 79 e8 b5 3d
       0.10171381 0.005824793 0.07801318 0.08882231
0002f0 82 32 4f bd f1 23 0f 3c 62 89 e7 3b 4a cd 12 3e
       -0.050585277 0.008736596 0.007065938 0.14336124
000300 e9 0b 97 bd 86 aa fa bc da 55 bb 3d 46 41 25 3e
       -0.073753186 -0.03059889 0.09147234 0.16138181
000310 37 35 ae 3d 11 27 02 3e f2 57 ea bd 32 5d 93 bd
       0.08506244 0.12710215 -0.114425555 -0.0719551
000320 4e c4 0c bd a9 1e e7 bd 2f 46 df bc 71 1b 38 bd
       -0.0343669 -0.11285145 -0.027255146 -0.044948045
000330 12 e7 f7 3c bc 82 1a bc 64 f2 a0 bd 69 f9 69 3d
       0.03026155 -0.009430584 -0.07858732 0.05712262
000340 3b 33 57 bd ee d9 e5 3c 7e 98 ed 3b e7 a1 0f bd
       -0.05253909 0.028058019 0.0072508445 -0.03506651
000350 5e 8c 8a 3c db 9f d4 bc ce c0 8c bb 84 1a 03 be
       0.016912635 -0.025955131 -0.004295445 -0.12803084
000360 60 44 9e bc 7c 5c 0b bd f0 ff 9b 3c bd 43 09 3d
       -0.019319713 -0.034023747 0.019042939 0.033511866
000370 6e b1 95 3d ae 92 0b be 7e 52 6c bd 07 7e 09 be
       0.07309233 -0.13630173 -0.05769586 -0.13426982
000380 4e 71 a5 bd f6 0a a9 3d fd 5b f2 bd f1 2e 66 bc
       -0.08078252 0.08254044 -0.118339516 -0.014049278
000390 81 32 a6 bd 4e 26 85 3d 02 5c 00 bd 64 d4 39 bc
       -0.081151016 0.06501447 -0.031337745 -0.011342142
0003a0 13 06 54 bc bc 74 af 3d ab 37 18 bd f6 2e 01 3d
       -0.012940901 0.08567187 -0.037162464 0.031538926
0003b0 9f 5c 0d be ca e0 2c bc 02 08 6d bd df 2e 83 3c
       -0.13804863 -0.010551641 -0.057868965 0.01601356
0003c0 f6 ce 84 3d 88 4d a4 3d 87 1e 88 3d 56 5e 3c 3d
       0.06484787 0.080226004 0.06646448 0.045988403
0003d0 f6 5b cc bd be 9d c0 3b a2 3a 72 3d 23 a2 7e 3d
       -0.09978478 0.0058781793 0.059137948 0.062166344
0003e0 1c 85 ab bd 30 e1 86 bd 63 72 49 3d e0 ba b9 bd
       -0.08374998 -0.0658592 0.049181353 -0.09068847
0003f0 ed a7 27 3d d1 b6 1a ba 18 72 93 bd bb 6e 6b 3c
       0.04093163 -0.00059018756 -0.07199496 0.014369662

features.layers.2.logic.0.layer.0.mlp.0.bias f4 [8]
000000 a5 cf c2 3d 92 53 46 3d 51 1d c5 bc 8f a2 d3 bd
       0.09512261 0.048419543 -0.02406183 -0.1033374
000010 ed c6 8b 3d 23 09 16 3d d4 0b 62 3d f9 a7 5c 3d
       0.068250515 0.036629807 0.05518706 0.05387113
