models_every10epochs/checkpoints/checkpoint_120.pth (torch, 178550 bytes, 101 tensors)

features.layers.0.logic.0.layer.0.mlp.0.weight f4 [8, 18]
000000 a9 a7 82 bc b9 67 fa bc 62 7e 87 bd ee 86 bc bd
       -0.015949087 -0.030567037 -0.066159025 -0.09205423
000010 55 a2 10 bd 62 67 fc 3d f1 c4 a2 bc 3a 74 95 bb
       -0.035311062 0.12324406 -0.0198693 -0.0045609744
000020 a9 42 53 3b fb 87 13 3c 51 db e5 3d 66 d2 ac bd
       0.0032235777 0.009004588 0.11223472 -0.08438568
000030 02 4a 44 be 9f 5a 2c 3d 05 3d 04 be 04 05 ec bc
       -0.19168857 0.04207861 -0.12913902 -0.028810985
000040 1d a0 33 be 63 d9 1b 3d 8c ff f6 3d 77 ea e4 3d
       -0.17541547 0.038049113 0.120604604 0.11177533
000050 1a 02 a0 bd f7 d1 25 3e 7d 7e 93 3d f5 3b 77 bd
       -0.07812901 0.16193376 0.0720186 -0.060359914
000060 ed 0b d2 3d db d3 0e 3e 2d ec 4f 3e 84 9e 43 bd
       0.10256181 0.13948004 0.20304938 -0.047758594
000070 06 04 03 3e 40 4d fd bd 95 ae 40 3d b7 0d 2f bd
       0.12794504 -0.1236825 0.047041494 -0.04273769
000080 61 5d 55 3c 13 c3 8f bd 27 8c 4c 3c d2 a5 b3 3c
       0.013022752 -0.07019629 0.012484587 0.021929655
000090 1e f8 18 3e 02 0d 8f bd a9 c8 e5 3d b1 ce 5a 3e
       0.14938399 -0.06984903 0.112199135 0.21367909
0000a0 ac 82 ec 3c 91 0d 03 3e 0a 4a 53 3d 15 c8 3d 3d
       0.028870903 0.12798144 0.05158428 0.04633339
0000b0 60 e0 fc 3d 33 9e 1b 3e 15 40 b3 3d 12 35 86 3e
       0.12347484 0.15197067 0.08752457 0.26212364
0000c0 7f 86 c1 bc 40 8d f1 3d 27 70 0d 3e 80 d2 91 3e
       -0.023623703 0.117945194 0.13812314 0.2848091
0000d0 a4 de 4c bd 14 8e e6 3d 20 85 5f 3e e5 fd ec 3d
       -0.050017014 0.11257568 0.21828127 0.11571864
0000e0 5d 38 42 3e 56 9a 1b be 02 58 a2 bd 36 38 ad 3d
       0.18966813 -0.15195593 -0.079269424 0.08457987
0000f0 84 41 9c bd 49 a9 0b 3e 08 02 68 3d 3d 27 0a 3e
       -0.076296836 0.13638796 0.056642562 0.1349153
000100 86 6d 1b 3e 29 73 03 3a 44 b5 c3 bd 6c 33 02 3e
       0.15178499 0.00050144136 -0.09556058 0.12714928
000110 24 99 78 3b 2d d5 ff 3d eb 35 54 3d 99 6d 33 3d
       0.0037933076 0.12491832 0.051809233 0.043805692
000120 c4 36 ca 3d 12 f6 b4 bc c1 65 13 3e 56 db 56 3e
       0.09873727 -0.022089992 0.14394285 0.20982108
000130 51 80 75 3e 7a b1 8c 3d bb af 38 3e 66 5e 56 bd
       0.2397473 0.068697885 0.18035786 -0.05233612
000140 97 40 af bc 9c 9a 2d 3e 21 9a 37 3b 9f 53 a1 3d
       -0.021393104 0.1695351 0.0028015452 0.078772776
000150 5e 0c 48 bd 25 ac 3e 3e f3 0d b2 3d 8b df 2d 3e
       -0.04883992 0.18620355 0.08694067 0.16979806
000160 00 4f 2f 3e 2d a3 30 3e 1f 4b 86 bd 52 80 a0 3d
       0.1711998 0.17249747 -0.06557297 0.07836975
000170 49 9e 15 3e 1f 2d 1f be 53 35 f8 3c 74 36 55 be
       0.14611162 -0.15544556 0.030298864 -0.20821553
000180 1b c0 fd bc 4d 19 85 bd 9b 7e 13 be 52 52 c6 bc
       -0.030975392 -0.06498966 -0.14403765 -0.024209175
000190 9c c2 2e 3e 76 1d e6 3d 89 78 b0 3d 79 e6 90 bd
       0.17066425 0.11236088 0.0861674 -0.07075209
0001a0 3c dc c2 bd 2d 52 0b be 82 ee dc bd cf 14 de 3d
       -0.095146626 -0.13605566 -0.10787679 0.10843813
0001b0 22 c0 04 3e 93 36 22 bd 25 11 22 3e 8c 8f e4 bd
       0.12963918 -0.039602827 0.15826853 -0.11160192
0001c0 18 0e 20 3e 53 27 d2 3d 87 74 72 3c dc b7 00 be
       0.15630376 0.10261407 0.01479829 -0.12570137
0001d0 16 91 ba bc a3 3a eb 3d 79 e5 2a 3e 1d 24 12 be
       -0.02277426 0.114857934 0.166891 -0.14271589
0001e0 d4 e4 8e bd b3 94 c9 bd e4 0b 09 3e 3f df f7 3d
       -0.06977239 -0.09842815 0.13383442 0.12103128
0001f0 7c 97 36 bd b6 96 6d bd 75 65 2d 3d c0 04 d2 bd
       -0.04457806 -0.058005057 0.042333085 -0.10254812
000200 af 41 3b 3e 13 7b ad ba 3d 6c 40 3e af 6a 56 3d
       0.18286775 -0.0013235532 0.1879129 0.052347835
000210 f2 d5 c4 3c c4 53 ac bd bf 8b 97 3c f5 7b 5d bd
       0.024027798 -0.084144145 0.018499253 -0.054073293
000220 2c 49 34 3e 5b 6d 13 be 4d a5 e2 bc db 34 03 3c
       0.17606038 -0.14397185 -0.027666712 0.008008207
000230 e6 a4 0c bd 7a 38 43 bd a5 0a 00 3e 4a 0d 17 3e
       -0.034336947 -0.047661282 0.1250406 0.14751163

features.layers.0.logic.0.layer.0.mlp.0.bias f4 [8]
000000 92 6a 96 3c ab 79 e3 3c e8 7b ac 3d 7b 56 22 bd
       0.018361364 0.027767977 0.08422071 -0.039633255
000010 d6 06 04 bd c0 94 23 3e 39 fb c6 3a f4 a9 08 3e
       -0.03223308 0.15974712 0.0015181071 0.13346082

features.layers.0.logic.1.layer.0.mlp.0.weight f4 [8, 9]
000000 a1 84 26 3e e6 1e d7 3d 84 8d 6d 3e 43 c5 9f 3e
       0.16261531 0.1050394 0.23198515 0.31205186
000010 6c dd 11 3e 87 11 64 3e 1b c2 71 3e 46 1d bd 3e
       0.14244622 0.22272311 0.23609202 0.36936396
000020 0a d1 ba 3e 5d 09 2e 3e 43 8b a1 3e 8d c7 aa 3e
       0.3648761 0.1699576 0.3155156 0.3335537
000030 b5 9b 1a 3e 47 ff ec 3d e9 c9 26 3e 3a 11 13 3e
       0.1509846 0.11572128 0.1628796 0.1436204
000040 52 23 38 3e 44 fd ec 3e 17 73 68 be 1a 59 6d bd
       0.17982224 0.46286976 -0.22700153 -0.057946302
000050 d5 7d 58 bd a1 45 d4 be ab 12 fc bc 3b 08 a7 be
       -0.052854378 -0.41459373 -0.03077062 -0.32623467
000060 10 26 ee be 40 55 f9 be 01 dc 97 be bf 38 cd be
       -0.46513414 -0.48697853 -0.29660037 -0.40082356
000070 d9 72 3f be 75 83 12 bf 48 f2 63 be 87 10 d1 bd
       -0.18696155 -0.5723184 -0.22260392 -0.102082305
000080 c4 87 ba be 76 1b 2a bc 6e d0 9a bd b5 8f 00 bd
       -0.36431706 -0.010382524 -0.07559286 -0.03138705
000090 8a 57 c7 3c 6f 09 bd be 33 23 81 be 84 8a ac be
       0.024333734 -0.3692126 -0.25222167 -0.3369943
0000a0 c4 2e c1 be 40 81 2a be c6 91 d0 bd f7 1b 11 bd
       -0.37730992 -0.16650867 -0.10184054 -0.03542706
0000b0 3d ca 98 bd b2 44 9e 3d 5b 70 73 3e 33 8c c5 3e
       -0.07460449 0.07727946 0.23773329 0.38583526
0000c0 cf fb a0 3d 61 72 79 3e 37 56 aa 3e ba a0 9c 3e
       0.07860529 0.24360038 0.33268902 0.30591375
0000d0 fa 2f 46 3e 97 50 ab 3c 0b f9 4e 3e 48 12 9e 3e
       0.19354239 0.020912452 0.2021219 0.30873322
0000e0 23 fa a1 3e 33 ae 3c 3d cc 4c 9e 3d 95 eb 8b 3e
       0.31636152 0.046064567 0.077294916 0.27328172
0000f0 59 d1 34 3e 24 6b dd 3d c4 42 90 3e ca 92 8e bc
       0.17657985 0.10811451 0.28175938 -0.017403979
000100 b0 8f d7 be f0 9a 9c be 9c b7 73 be 04 7b 3a be
       -0.42101812 -0.30586958 -0.2380051 -0.18210989
000110 b6 c4 56 3d 99 02 39 be 2f 9c b3 be 47 8c ce be
       0.052433692 -0.18067397 -0.35080096 -0.40341398

features.layers.0.logic.1.layer.0.mlp.0.bias f4 [8]
000000 aa 4c ed 3e d4 23 ac 3e ca f2 f8 be 34 d1 73 be
       0.46347553 0.33621085 -0.48622733 -0.23810273
000010 4b ab e1 be 2a 46 e3 3e 27 df 64 3e c4 65 fd 39
       -0.44076 0.44389468 0.22350751 0.00048331742

features.layers.0.logic.2.layer.0.mlp.0.weight f4 [8, 18]
000000 7f ff 32 3e 69 0f 32 3e 17 fa e8 3d 50 16 5d 3d
       0.17480277 0.17388691 0.11375826 0.053976357
000010 05 5d 74 bd bc 33 e0 3d 28 40 46 3c e2 ec 68 3d
       -0.059659023 0.109473675 0.012100257 0.056866534
000020 13 55 16 bd 64 bf 95 3d a6 53 08 3e ce 38 38 bd
       -0.036702227 0.073118955 0.1331316 -0.04497605
000030 04 ea 2d 3d e8 0b 71 3d 97 fc e6 bc 0f 0b 26 3e
       0.042459503 0.058849245 -0.028196616 0.16215156
000040 ee 75 5c 3e 50 74 9d bc 30 4d 5f bd b0 a8 fa 3d
       0.21529362 -0.019220501 -0.05451697 0.12239206
000050 0c c5 5b 3e 20 ea b6 3b 02 c1 87 bc 1e 3b 7f 3c
       0.21461886 0.005582109 -0.016571525 0.0155780595
000060 81 05 ae bd 4f 65 4b bd 32 eb bb bd 1c 7f 2c 3d
       -0.084971435 -0.049657162 -0.09175719 0.04211341
000070 d1 18 6d 3e 36 bb d8 3d f9 a1 98 3d d2 65 79 3b
       0.23153998 0.10582583 0.07452769 0.0038055074
000080 a0 75 17 3d ed f7 3a 3e f5 a9 b5 3c a0 33 a0 3c
       0.03697741 0.18258639 0.022175768 0.019555867
000090 7c 1d a0 3d 09 50 0b be 76 10 31 3d 3b 13 45 bd
       0.07818124 -0.1360475 0.04322859 -0.048114043
0000a0 53 e8 98 bd 94 99 9f bd 5e a1 a1 bc 8a 6c fb bd
       -0.07466187 -0.077929646 -0.019730266 -0.122765616
0000b0 42 d8 d5 3d ab e7 b1 3d 6c 15 2e bd fa 3c 16 3c
       0.104416385 0.08686765 -0.0425009 0.009169811
0000c0 85 ac ca bc 3c 2e ab bd 59 ea 93 bc be 50 c4 bd
       -0.024740467 -0.08358428 -0.018056082 -0.09585713
0000d0 49 51 f6 3d ff 1f 6d 3c c7 d2 a1 bc 67 47 97 bd
       0.12027223 0.0144729605 -0.019753827 -0.07386666
0000e0 83 29 a7 3d d5 f0 4a bd 05 d6 c0 bb 8e ae 7c bd
       0.081622146 -0.04954608 -0.005884888 -0.061689906
0000f0 8a 2d dd 3d 9d 7c 0b be 67 48 23 3e 2e 40 2f 3e
       0.107997015 -0.13621755 0.15945588 0.17114326
000100 30 0c 8c 3c 63 b5 23 3e 29 fe 29 3e 9d 6a 07 3d
       0.017095655 0.15987162 0.1660086 0.03306066
000110 98 51 e6 bb 50 54 e3 bd cb d5 6e 3d e8 2a 2b 3e
       -0.0070287697 -0.11100066 0.058309358 0.16715586
000120 46 97 a4 3d dc 47 f5 39 e5 76 ed 3d ec 11 1e 3e
       0.080366656 0.0004678358 0.11594943 0.15436524
000130 e1 06 21 3e 19 30 d5 bd ce c6 55 3d c2 2d 8a bd
       0.1572528 -0.104095645 0.052191548 -0.06747009
000140 e6 ca 44 bc b7 ab 36 3e ee 90 d2 bd 65 27 99 3c
       -0.012011265 0.17838942 -0.102815494 0.018695543
000150 70 ef c8 3d 44 a5 f8 3d c9 41 26 3c 35 52 00 3e
       0.09811294 0.12140897 0.01014752 0.1253136
000160 cc d1 d7 3d 88 e8 04 3e f8 49 bc 3d f7 0a ba bd
       0.105380625 0.12979329 0.09193796 -0.09084123
000170 5f 22 87 3d eb f8 e8 3c aa 23 21 bd ce e1 a6 bd
       0.06598353 0.028439006 -0.039340653 -0.081485376
000180 d5 47 43 3e 0b ff 61 3d 5f 1e c7 39 ee ed 51 bd
       0.1907037 0.05517487 0.00037978866 -0.051252298
000190 af de 2a 3d c7 b2 5c 3e 7b 58 8b bc 4c d2 f4 ba
       0.041716274 0.21552573 -0.017009964 -0.0018678396
0001a0 d7 2b e0 3d e2 cb 66 3e 5a 9a 08 bd 01 42 5e 3e
       0.10945862 0.22538713 -0.033350326 0.21704866
0001b0 17 73 8b bd 71 08 80 3d bc 30 98 bd 9a 44 63 bc
       -0.06809061 0.0625161 -0.0743117 -0.013871336
0001c0 df 57 d6 3d f0 1e 17 3d 29 99 cc 3d cc 88 f7 bd
       0.10465979 0.03689474 0.099901505 -0.12086639
0001d0 06 d3 27 3e a7 3e 81 bd 1a 9a 51 3e 4c 92 06 bc
       0.16389093 -0.06310778 0.20468941 -0.008213591
0001e0 a4 30 2d 3e 59 93 46 3e fa 37 03 3e 03 15 ff 3d
       0.16913086 0.19392146 0.12814322 0.124551795
0001f0 00 9f 08 bd 71 58 70 bb a1 d0 23 be 26 d4 aa bd
       -0.03335476 -0.003667381 -0.15997554 -0.08341245
000200 e4 86 14 3c de d0 9c bd 9a 7d 83 3c 9f 65 12 be
       0.009065364 -0.07657026 0.016051102 -0.14296578
000210 92 ce e5 3d e7 e7 d2 bd 6f d6 db bc 32 fc a7 bd
       0.11221041 -0.10298138 -0.026835648 -0.08202399
000220 b3 11 82 bd 4d 3b 85 bd 7e bb c4 bd bb c7 3f be
       -0.06351032 -0.06505451 -0.09606074 -0.18728535
000230 8d 2c 1c 3d 0d be 2a be 85 0f 20 3d 2b a0 e5 bd
       0.038128424 -0.16674061 0.0390773 -0.1121219

features.layers.0.logic.2.layer.0.mlp.0.bias f4 [8]
000000 72 11 6b 3e 4c 63 29 bb c7 d9 03 3e 4c 82 c3 bb
       0.22955874 -0.002584654 0.12876044 -0.0059664603
000010 46 bf 32 3e 4c ae 47 3e 46 14 88 3d 05 fd 05 be
       0.17455778 0.19500083 0.06644492 -0.130848

features.layers.1.logic.0.layer.0.mlp.0.weight f4 [8, 42]
000000 38 cd 43 bd b6 ef 67 3d 0a 97 fa 3c b6 d4 bc bc
       -0.047803134 0.05662509 0.0305896 -0.023050647
000010 6b ba f2 3d e7 54 3c bd 69 b9 d8 3d e3 f3 a5 3d
       0.11851963 -0.045979407 0.10582239 0.08103158
000020 4d 6e bb bc 1a 62 96 bc 2b a1 04 3e 25 26 9d 3d
       -0.022879744 -0.018357325 0.12952106 0.07673291
000030 be e2 c4 3d 39 4f b4 3d 10 ce d8 3d eb a8 8a bd
       0.0961356 0.08804173 0.10586178 -0.067705
000040 b1 b1 03 3e 31 c8 eb 3d 32 23 a0 3d 36 a8 61 bb
       0.12860753 0.11512793 0.07819213 -0.0034432537
000050 d4 40 a8 3d 67 fa b7 3d 4d 6a 1e bd 2a 8b 0c 3d
       0.0821549 0.08983307 -0.038675595 0.034312405
000060 f3 ec 05 3e 93 ce 2f 3a 3c 0d e9 bc 20 10 c3 3d
       0.1307867 0.0006706502 -0.028448693 0.0952456
000070 42 03 98 bd 08 1f 98 bc 9e e8 21 bd b0 d5 59 bd
       -0.074224964 -0.018569484 -0.03952848 -0.053182304
000080 a4 af a0 3d 56 3e ac 3c 3c e5 0c bd 8e cb 2f 3d
       0.07846001 0.021025818 -0.034398302 0.042918734
000090 f1 6a c2 3a d9 10 30 bd 04 a6 62 3d 2d 66 78 3c
       0.0014832896 -0.042984817 0.055334106 0.015161079
0000a0 0c 49 aa 3b 9a 50 bc bc 16 24 05 bd bd 26 30 3d
       0.005196696 -0.022987653 -0.032505117 0.043005694
0000b0 79 25 b6 3d b3 a0 d3 3c f1 12 b2 3b ad 3f a2 3d
       0.08893866 0.025833463 0.005434387 0.079223014
0000c0 81 a6 6d bd 63 35 88 bd f7 33 13 3c 4f e0 85 bd
       -0.05802012 -0.06650808 0.008984557 -0.06536924
0000d0 20 e0 17 b9 00 7f a5 3d 9b 33 13 3e af 63 5c 3d
       -0.00014483975 0.08080864 0.14375155 0.053806003
0000e0 85 42 93 3d 8d 02 dd 3c fe 07 4c 3d 70 d7 36 3d
       0.07190422 0.026978755 0.04981231 0.04463905
0000f0 e1 53 1a 3e b2 32 f1 3c b8 c0 84 3d cd 47 0a bd
       0.1507106 0.029443119 0.06482071 -0.03375988
000100 0e 7d 98 3d 2a 0e eb 3d 12 91 50 3d 5a 85 5e 3d
       0.07445727 0.11477311 0.0509196 0.054326393
000110 e4 56 d5 bc 30 4a bf 3d 85 1b 02 3e 3a 91 be bc
       -0.02604241 0.09340322 0.1270581 -0.023262609
000120 a0 77 84 3d 0f 55 d7 bc fd 52 db 3d bb 9a f6 bb
       0.06468129 -0.026285676 0.10709188 -0.0075257695
000130 79 99 19 3d 5b 0f d5 3d c8 14 10 3d 69 4b 33 3e
       0.03749988 0.104033194 0.03517607 0.17509235
000140 fe 2a cf 3c 0f fd c1 3d 7e b6 f4 bc 66 b8 9b 3d
       0.025289055 0.09472095 -0.029872175 0.076035306
000150 02 10 55 bd 4c 85 09 3d e0 f4 e9 3c 0f a4 c2 bd
       -0.05201722 0.033574387 0.028559148 -0.09503948
000160 55 dc 25 3c 3b ed 77 3c 89 7d fb 3d 8f 93 c1 3a
       0.010123332 0.015132244 0.12279803 0.0014768707
000170 a3 f3 bf 3d 09 a7 af 3c 06 98 8c 3d e5 71 b3 3d
       0.09372642 0.021441953 0.06864934 0.08761958
000180 a9 91 6b bd 14 4f 2f bc c3 26 e2 3d 06 ad 4b 3d
       -0.05751196 -0.010700006 0.110425495 0.049725555
000190 a4 ea b5 3d 86 18 75 bb 0c f0 4f 3d 2b d5 4a bd
       0.08882645 -0.003739865 0.050766036 -0.0495197
0001a0 d4 3e 9e 3d 77 ff 02 3e c6 60 9a 3c 14 34 a4 bd
       0.07726827 0.12792765 0.018844973 -0.080177456
0001b0 24 ed 74 3d 7f 13 af 3d b6 06 77 3d 7a 52 1e 3e
       0.059796467 0.085486405 0.060309134 0.1546115
0001c0 5f bc de 3d 37 05 29 bc f2 2a 8c 3d 8d 28 d6 ba
       0.10875773 -0.010316185 0.06844129 -0.0016338989
0001d0 34 07 07 bc 26 95 c0 3d ea 38 b7 3d 97 e3 8f bc
       -0.008241463 0.09403448 0.08946402 -0.017564578
0001e0 49 ed dd bc 62 80 40 3e 91 a6 62 bd 63 db d1 3d
       -0.027090685 0.18798974 -0.05533463 0.10246923
0001f0 33 85 f6 3d 24 21 41 3d 83 44 bb 3c 3f bf 2e be
       0.120371245 0.047150746 0.022859817 -0.17065142
000200 53 35 54 bd e3 4d 81 bc fb b4 3b 3c e2 62 04 be
       -0.051808666 -0.01578421 0.011456723 -0.12928346
000210 e1 88 30 3d fc 32 86 3d 82 e2 88 39 17 b2 1f be
       0.043099288 0.06552693 0.00026108703 -0.1559528
000220 f4 ce d1 bd 0d 25 f9 3c cc 81 20 be 69 6e 5e bd
       -0.10244551 0.030413175 -0.15674514 -0.054304514
000230 5b 12 32 bd 0d 90 60 3d 08 42 e1 3c ad 5d f1 bd
       -0.043474536 0.054824878 0.027497306 -0.11785445
000240 ea 8b 0a bd 18 37 f7 bd ca 8f d9 bb 61 c8 93 bd
       -0.03382484 -0.12071055 -0.0066394554 -0.072159536
000250 19 bc 83 3b 5c a3 52 3c ed a5 d4 bd 89 e8 1f 3d
       0.0040202257 0.012856331 -0.1038321 0.039040122
000260 3f 9f 7a bd 48 f8 02 bd f7 40 02 3c ab 25 1f 3d
       -0.061187025 -0.03197506 0.007950059 0.038854282
000270 86 28 08 be 32 25 f4 bd 72 ae 08 bd cb 43 cf bc
       -0.13296708 -0.11921157 -0.03336949 -0.02530088
000280 50 68 fa bd 7c 99 41 3c ba c3 7a bd 2f fc 9a bd
       -0.12226927 0.011816379 -0.061221816 -0.075676315
000290 93 58 90 bd cb 28 12 be bd ef a4 bd 84 0e 54 3c
       -0.07048144 -0.14273374 -0.08053539 0.012942914
0002a0 01 3e 7c 3d 40 0e fd 3d 8b da fb 3d 0f 04 c2 3c
       0.06158257 0.123562336 0.12297543 0.023683576
0002b0 46 1a 08 bd 43 04 8c 3d 7b 6c 79 bd ee 04 56 bd
       -0.03322818 0.0683675 -0.06089447 -0.052250795
0002c0 be 98 76 bc f4 aa 2f 3d 51 11 2b 3d 56 b4 6e bd
       -0.015051065 0.042887643 0.04176456 -0.05827745
0002d0 33 93 26 3e 39 3f 12 3e 32 58 6f 3d 36 c1 1a bd
       0.1626709 0.1428193 0.05843372 -0.037781917
0002e0 3c d8 ef bc 6c 85 e4 3d c4 db 73 3d d3 93 29 3e
       -0.029277913 0.11158261 0.059535757 0.16560297
0002f0 7b 05 1a 3e af 6a aa 3d e2 eb 14 3e 5e bb f0 3d
       0.15041153 0.083211295 0.14543107 0.117544875
000300 52 90 a3 3d b8 73 07 bd 42 bd d4 3d dc 28 c6 3d
       0.07986511 -0.033069342 0.103876606 0.09675762
000310 d1 d0 ac bc fb c6 ac 3d d5 90 91 bd 00 0e 29 3d
       -0.021095665 0.0843639 -0.07107703 0.041273117
000320 83 c0 d7 3d 30 ca a3 3b b9 77 89 3d 2a 91 8b bc
       0.105347656 0.004998468 0.067122884 -0.017036993
000330 f4 5e f4 bc 1d f5 c8 3d cb 48 db 3d 9c 7f 0e bd
       -0.029830433 0.09812377 0.107072435 -0.034789667
000340 7f 13 d7 3b 21 4c b8 bc 02 8a 89 bd dc 0b 82 3d
       0.0065636034 -0.022497239 -0.06715776 0.06349918
000350 3f 0f c3 3d e1 30 84 bd d3 e6 98 3d f1 46 dd 3d
       0.09524392 -0.064546354 0.07465901 0.108045466
000360 16 8b a8 3d 21 f8 88 3d 84 11 1b 3e a1 6b 15 bd
       0.082296535 0.06687952 0.151434 -0.036479596
000370 3a ba f6 3d f7 34 a0 3d 1b ef 19 bd 41 ba 10 3a
       0.12047239 0.07822602 -0.037581544 0.0005520918
000380 90 75 0a 3d 6b 87 21 3d 29 b4 99 3d 42 fa 5c bd
       0.033803523 0.039435785 0.07505066 -0.053949602
000390 a4 12 44 3b 28 80 27 3e fd 06 b2 3d d2 43 bd bc
       0.0029918337 0.16357481 0.08692739 -0.023103628
0003a0 2c 00 bf 3d 1a ef 01 3e ec 20 f2 3d 99 98 f7 bc
       0.09326205 0.12688866 0.118226856 -0.030224131
0003b0 f8 35 1c 3e 68 fa 02 3e 92 52 05 3d d9 52 a0 bb
       0.15254962 0.12790835 0.03254945 -0.0048926887
0003c0 c3 c1 13 3c 66 ff f3 bc 3c a1 09 3d 79 a5 35 bc
       0.009018364 -0.02978487 0.03360103 -0.011086815
0003d0 92 1a 0e bd 80 f5 cf 3d f7 36 ee 3d 11 54 85 bc
       -0.03469331 0.10154247 0.116315775 -0.016275438
0003e0 7c e4 b6 bb 86 e3 42 bb 4b e0 1a 3d 83 4b 15 3d
       -0.0055814367 -0.0029737665 0.03781156 0.036448967
0003f0 83 b5 f9 3d 74 10 17 3d 5a 00 c8 3d 23 f7 4d bd
       0.12192824 0.036880925 0.09765692 -0.050284516

features.layers.1.logic.0.layer.0.mlp.0.bias f4 [8]
000000 05 3d fd 3d 9f 18 9d 3d 0f 9c 45 bd c3 48 18 3d
       0.12365154 0.07670712 -0.048244532 0.037178766
000010 b8 10 42 3d 13 63 b8 3d 3f a3 ef 3d 23 41 30 3c
       0.047379225 0.09003272 0.117010586 0.010757717

features.layers.1.logic.1.layer.0.mlp.0.weight f4 [8, 41]
000000 20 40 b2 bd 5f 30 c3 be a6 a5 94 be c2 01 ab 3a
       -0.08703637 -0.38122842 -0.2903263 0.0013046789
000010 ab 77 25 be e7 ee 1f 3d 3a 8d 8c be c5 ae a7 be
       -0.16158931 0.039046194 -0.27451497 -0.32750526
000020 6d e1 d5 bd 13 b5 f0 bd 95 8d 85 bd 0d 79 9c bd
       -0.10443387 -0.11753287 -0.06521145 -0.07640276
000030 a5 e0 90 bd 0b 26 d6 bd 34 27 d1 bd cb 75 52 bd
       -0.070740975 -0.10456475 -0.102125555 -0.051381867
000040 a3 44 bf bd 13 66 97 be 75 31 15 be 14 7f 52 3c
       -0.09339263 -0.29570064 -0.14569648 0.012847681
000050 80 93 bc bd 36 d1 44 3c 08 e5 fd bc 91 47 cd bd
       -0.09207821 0.01201277 -0.030993 -0.10023416
000060 70 98 50 bd 1b d0 57 be 4e cb 4c be e4 2c 04 be
       -0.050926626 -0.2107548 -0.1999943 -0.1290775
000070 94 8f cf bd 12 aa f4 bd d9 44 de bd 13 ed 75 be
       -0.10134807 -0.11946501 -0.108529754 -0.24016218
000080 44 59 4c be 1e bc 39 be 47 bf 33 be 23 2a 47 be
       -0.19955927 -0.18138167 -0.17553435 -0.19449668
000090 b0 34 93 be ce 1b 0c be c6 fc 4f be 41 6e 9d bd
       -0.28751135 -0.13682482 -0.20311269 -0.07687045
0000a0 18 3d ed bd 96 0f 3e bd 6e 48 c8 be 05 0c bb be
       -0.11583918 -0.046401583 -0.3911776 -0.36532608
0000b0 e6 ad 51 be 32 ef 4b be bd 99 17 be 72 47 ba be
       -0.20476493 -0.19915465 -0.1480474 -0.36382633
0000c0 61 a9 7f be 2d 0c a3 bd 98 28 c1 bd c4 1e e7 bc
       -0.24966957 -0.07961307 -0.09431571 -0.028212912
0000d0 81 86 cf bb 13 ef 19 be 03 f7 d6 bd 26 3b 36 bd
       -0.006333173 -0.15032606 -0.104963325 -0.044490002
0000e0 11 70 f1 bd 84 77 82 bd 68 db 22 be 86 f7 50 be
       -0.11788953 -0.06370452 -0.1590401 -0.20406923
0000f0 3f c2 72 bc 43 2c b5 bd f4 59 8d bd fe 94 2a be
       -0.01481682 -0.08846333 -0.06901923 -0.16658399
000100 e6 f2 2f be 19 6b b8 3c c6 95 8e be 6e 25 55 be
       -0.17182502 0.022512006 -0.27848643 -0.2081506
000110 16 a6 84 bd f3 b8 8e bd 90 a2 89 bd 58 01 8e 3c
       -0.06476991 -0.0696887 -0.067204595 0.017334625
000120 ba fb 65 be ee a7 90 be 14 4b fa bd 12 0e 3b be
       -0.22459307 -0.2825312 -0.12221351 -0.18267086
000130 82 ff 0f be cc 57 a3 be 07 be a5 be a7 03 58 be
       -0.14062312 -0.3190292 -0.32371542 -0.21095143
000140 bb 2c 35 3d e0 54 67 bd 37 1c 85 3d e7 d4 47 be
       0.04423211 -0.056477427 0.06499522 -0.1951481
000150 25 67 8d be e8 2b 13 be 23 56 8e be 4f 51 02 3d
       -0.27617756 -0.14372218 -0.27800092 0.031815823
000160 6a 6f 87 be ae 61 99 be 50 0d 1b bc 4d b7 f4 bd
       -0.2645219 -0.29957336 -0.009463623 -0.11949024
000170 a4 d0 76 bd 28 01 e2 bd dd d0 c7 bd ee 16 55 bd
       -0.06025757 -0.11035377 -0.097566344 -0.05202382
000180 a7 96 2d bd 62 26 35 be b1 37 06 be fd 68 2a be
       -0.04238 -0.17690423 -0.13107182 -0.16641612
000190 d1 c0 1e be 71 3c 6b bd 66 c7 60 3d 74 bb 4d be
       -0.15503241 -0.05743069 0.05487766 -0.20091039
0001a0 15 dd 9c bd 3e d3 90 be e6 f5 cd bd 5c 3d 6f be
       -0.076593556 -0.28286165 -0.10056667 -0.2336325
0001b0 2d 96 80 be be b0 04 be 73 b7 9b bd 33 df bc bc
       -0.25114575 -0.12958047 -0.076033495 -0.023055648
0001c0 00 f4 5a bc ea 9d 51 be 29 76 53 be ea 9b 93 bd
       -0.013363838 -0.20470396 -0.20650543 -0.072074726
0001d0 ff 8e 40 be e6 76 2d be b4 ca 4f be 8d ea af bd
       -0.18804549 -0.16939887 -0.20292169 -0.08589659
0001e0 28 7e a1 bd c0 c8 b5 bc e8 98 a5 bd f8 74 04 3d
       -0.078853905 -0.022190452 -0.08085805 0.032338113
0001f0 fa 19 7f 3e a5 ef ab 3e 3c 54 7a 3e 10 fb 91 3e
       0.24912253 0.33581272 0.24446195 0.28511858
000200 69 c4 d4 3d 27 e7 0d 3f 4e fa 22 3f 1f 2f 3f 3b
       0.10389025 0.55430835 0.63663185 0.0029172373
000210 70 38 c0 3b c9 6c a7 3b 4a 50 c0 3c af da a6 3d
       0.005866103 0.0051094037 0.023475785 0.08147179
000220 fc 75 9c 3d c5 ba e1 3d b0 98 8e 3a fd e2 18 3e
       0.07639691 0.110219516 0.0010879245 0.14930339
000230 8b 7c 47 3e 34 a2 13 3e e2 47 01 3e af a1 a0 3d
       0.19481103 0.14417344 0.12625077 0.07843339
000240 76 00 fe bc 2d 05 12 3e 22 aa e3 3d 8f 87 79 3d
       -0.03100608 0.14259787 0.11116435 0.060920294
000250 96 e7 43 3e 31 9f 0b 3e 53 5d d0 3d 3b dc 45 3e
       0.19131312 0.13634945 0.1017405 0.19322293
000260 6a 21 c1 3d 9c a4 03 3e 0d a0 89 3e 11 69 73 3d
       0.09430201 0.12855762 0.26879922 0.05942637
000270 d9 19 37 3e 89 62 32 3e e0 f9 51 3e 16 2f e2 3d
       0.17880954 0.174204 0.20505476 0.11044137
000280 d4 38 8f 3e dc cb 46 3e 24 30 d2 3d 41 08 e6 3d
       0.27973044 0.19413704 0.10263088 0.11232043
000290 49 7c 3f 3d 8b 6a a8 3e 3c 11 4b 3e cc be fa 3d
       0.046749387 0.32893786 0.19830793 0.12243423
0002a0 5e da 8d 3e 14 07 6c bc e7 32 c6 3e c8 42 f4 3d
       0.27705663 -0.014405984 0.3871071 0.119268
0002b0 b3 17 2d 3d 01 68 01 3e be 1e e3 3d 7e 60 c5 3c
       0.04225893 0.1263733 0.11089848 0.024093863
0002c0 8b e3 1d 3e 13 71 96 3d e1 ea 10 3d a9 33 7b 3e
       0.15418832 0.07345786 0.035380248 0.24531426
0002d0 63 9e a1 3d 90 c0 3f 3e 89 00 54 3e d1 d6 e3 bd
       0.07891538 0.187258 0.20703329 -0.11124957
0002e0 0b 0d 5c 3c 13 a4 8b 3d 3f 87 28 3e 9f 4e a8 3d
       0.013430844 0.06818404 0.16457842 0.08218121
0002f0 e7 df d8 3d 81 ec 2a 3e df d4 1c 3e 2b 1f 3f 3d
       0.10589581 0.16691782 0.15315579 0.046660583
000300 ef 2b 1e 3e 66 f6 06 3e ef 0a 4a 3c c7 17 1d 3e
       0.15446447 0.13179931 0.012331708 0.15341102
000310 48 7c b4 3d 9b c2 72 3e e3 8d 3b 3e bb d5 6f 3e
       0.08812767 0.23707049 0.18315844 0.23421375
000320 49 84 72 3e 73 5d 99 3e 17 ab b3 3d ad b5 d3 bd
       0.23683275 0.2995411 0.08772867 -0.10337386
000330 37 6b 0a bd 89 36 ba ba e6 9d 21 be 11 d4 1a be
       -0.033793654 -0.0014206927 -0.1578289 -0.1511996
000340 dd fb dc ba 25 8d 62 be e0 1e b8 bd 14 82 b8 be
       -0.0016859729 -0.22124155 -0.08990264 -0.36036742
000350 70 c3 8e be 25 a7 5a be 5b 00 2c bd 4c b1 96 bd
       -0.27883482 -0.21352823 -0.041992527 -0.073580354
000360 8c b9 3f be 2a 18 17 be 24 97 b6 bd 80 55 fe bd
       -0.18723124 -0.14755312 -0.089155465 -0.124186516
000370 03 0f a6 bd d6 80 33 be 90 05 09 be c3 98 21 be
       -0.08108332 -0.17529616 -0.13381028 -0.1578093
000380 5f 01 7a 3d 19 c5 50 bd a4 37 b2 3c 71 2d 0a be
       0.061036464 -0.050969217 0.021755047 -0.13493897
000390 9b 4b 00 be 1b cc 5a bd ac 8e 96 bd 98 82 6b be
       -0.12528841 -0.053417306 -0.07351431 -0.22999036
0003a0 b0 2f 50 be fe 22 97 be c1 7a 7e 3b d7 a9 6a ba
       -0.20330691 -0.29518884 0.0038830491 -0.00089517
0003b0 1b ed 34 be 59 cb 3e bd 95 7d 31 be f4 99 78 be
       -0.17668574 -0.046580646 -0.17333062 -0.24277478
0003c0 ce 48 72 be 4e e0 5b be 56 9f 84 be b8 e4 86 bd
       -0.23660585 -0.21472284 -0.25902814 -0.065865934
0003d0 86 e4 c9 bd 66 b9 ed 3c 39 69 ed 3d e1 45 99 3e
       -0.098580405 0.029019069 0.11592335 0.29936126
0003e0 4c 15 28 3e 41 69 19 3e 1b 41 37 3e d2 14 05 bd
       0.16414374 0.14981557 0.1789593 -0.03249056
0003f0 07 aa 38 3e 42 11 81 3e e3 6c d5 3d d2 ed 0b 3e
       0.1803361 0.2520848 0.10421159 0.1366494

features.layers.1.logic.1.layer.0.mlp.0.bias f4 [8]
000000 0b 81 2e be 47 6b 15 be 6e 57 0d be 83 ca a0 3e
       -0.17041413 -0.14591704 -0.13802883 0.31404504
000010 e0 f8 8b 3e a3 a3 1e be 50 ad 81 3e ac 2b 30 3e
       0.27338314 -0.1549211 0.2532754 0.1720416

features.layers.1.logic.2.layer.0.mlp.0.weight f4 [8, 50]
000000 45 8c 08 bc bf 7c 0a 3d 94 64 86 3b a6 04 17 bc
       -0.008334224 0.033810373 0.0041013453 -0.009217417
000010 67 f3 7b bc 1b 8a a0 bd 89 ac 16 3d 78 66 05 3c
       -0.015377856 -0.078388415 0.036785636 0.008142106
000020 6c 86 7f 3d 56 eb 85 bd 7a 2f a4 3c 40 58 af bd
       0.062384054 -0.065390274 0.02004217 -0.08561754
000030 8b ac b2 3d 2c 5c d4 bd 32 52 7a 3d 1b 3d 82 bd
       0.08724316 -0.10369143 0.061113544 -0.06359311
000040 ba d8 72 3d 65 11 04 bc 38 ba 00 be 33 05 cb bd
       0.059288718 -0.008060788 -0.12571037 -0.09913101
000050 f1 f6 29 bb 78 c2 25 3d 2f 88 0a bd 89 74 1f 3d
       -0.0025934542 0.040468663 -0.03382128 0.038929496
000060 0c 89 de bd 56 9a cb bd 3d a7 21 bc 91 8e c6 bd
       -0.10865983 -0.099415466 -0.009866533 -0.09695161
000070 63 be ed bc e9 a1 5f bd da 7f e8 bd a3 f3 d3 bd
       -0.029021448 -0.05459777 -0.11352511 -0.103492044
000080 1c 42 c7 bd da 3c 24 bd 95 cf f6 3c a3 42 11 be
       -0.09729406 -0.040097095 0.03012828 -0.14185576
000090 4e f2 bf 39 6a d6 6d bc de 5d 86 bd 3f f6 05 3d
       0.0003661089 -0.014516452 -0.065608725 0.03270554
0000a0 56 86 34 bd 8e ad 10 bd 11 29 60 3d 1d 46 7d bc
       -0.044073425 -0.035321765 0.054726664 -0.015458611
0000b0 85 cd 2d 3d f0 9a 16 be c4 3d 59 bd 36 06 7e bd
       0.042432327 -0.14707541 -0.05303742 -0.062017642
0000c0 0a d7 56 3d 60 36 3e bb d9 95 9d bd c2 56 bb 3d
       0.05245117 -0.002902411 -0.07694597 0.09147407
0000d0 3c 30 3c 3d ab ac 15 bd c0 30 87 bd 70 c7 9e bd
       0.045944437 -0.036541622 -0.06601095 -0.077528834
0000e0 7e cd fe 3c ee e5 0a 3d b6 50 07 be 04 75 42 3d
       0.031103846 0.033910684 -0.13214383 0.047474876
0000f0 53 9b e9 bd 15 b0 ac bd c9 0a 42 bd 52 9a 0a bc
       -0.11406579 -0.084320225 -0.047373567 -0.008459644
000100 06 18 51 3d e4 c6 e7 bc ca 11 b3 3c a1 4d c4 3c
       0.0510483 -0.02829308 0.021859068 0.023962798
000110 d7 6e f8 bb 35 a2 fb bd 3e 94 5a bd 9d 71 1d bd
       -0.0075815725 -0.12286798 -0.05336403 -0.03843843
000120 d2 a9 00 3c 7f 53 9d 3d 89 2c e1 bc d4 73 09 bd
       0.007852988 0.07681941 -0.027487056 -0.033557728
000130 16 30 05 3d 88 93 63 bd 48 66 8d bd 08 e6 48 bd
       0.03251656 -0.05556062 -0.06904274 -0.0490475
000140 e4 86 ab 3c 11 8f be bb a9 a4 79 bd 12 3d 02 3d
       0.020938344 -0.0058153947 -0.060948048 0.031796522
000150 2a 1d a8 bd f2 fc 2a 3d 8a 43 de 3d 91 ca 95 3d
       -0.082086876 0.041745134 0.10852726 0.07314027
000160 9c 41 ac 3d 73 10 01 3d b3 bf 5d bd cf 63 4a bc
       0.084109515 0.031509828 -0.054137897 -0.012352898
000170 5c 13 ab bd fe b6 27 3d 2b 20 7e bd ae 15 78 bd
       -0.08353302 0.040946 -0.062042397 -0.06056755
000180 29 79 75 3d ee ba 01 be 83 22 0a 3b 79 5f c4 3d
       0.05993 -0.12668964 0.00210777 0.095885225
000190 a0 79 86 3d 55 eb b8 bc de 8f d3 3d 26 1d ae 3d
       0.06566167 -0.022573153 0.10330175 0.085016534
0001a0 76 18 e0 bc 19 36 fb bc e7 ae 0b 3e 54 e0 a7 3d
       -0.027355414 -0.030665444 0.13640939 0.08197084
0001b0 aa e0 e5 37 a4 bc 25 3d 06 bb f6 3d 34 75 24 bd
       2.7403545e-05 0.040463105 0.12047391 -0.040150836
0001c0 cf e2 87 bc 62 1e bb ba 4b 88 6f bd d5 47 b8 3d
       -0.016587643 -0.0014276023 -0.05847959 0.08998076
0001d0 4e c8 8a 3c 7f 85 58 bd ab ea 81 3d b2 27 23 3c
       0.016941216 -0.052861687 0.063435875 0.009958195
0001e0 c0 71 90 3d 23 ed db 3b 04 03 1a bc 13 03 15 3e
       0.07052946 0.0067116185 -0.009400133 0.14551954
0001f0 de 35 b0 3c cb 47 07 3d c9 d3 c2 bb 4d ec 11 3e
       0.02151006 0.03302745 -0.005945657 0.14250298
000200 86 4a 4b 3d 06 3a e9 3d 8c 40 d2 bb 77 8a b7 3d
       0.049631618 0.1138802 -0.006416386 0.08961957
000210 46 ec b6 3d bf 04 0c 3e de ae 15 3e dd 91 41 3d
       0.08931784 0.13673685 0.14617488 0.047258247
000220 1f 40 8b 3d af 8f 90 39 e0 68 93 bd 01 49 10 3e
       0.067993395 0.00027572873 -0.07197738 0.14090349
000230 d6 90 c7 3d 82 83 a4 3d 3f 23 8a 3d 50 a5 e7 3d
       0.09744422 0.080328956 0.06745004 0.11310828
000240 c0 25 e6 bd 98 76 26 3b 72 2b eb 3d 8f f9 9e 3d
       -0.11237669 0.0025400277 0.11482896 0.07762443
000250 07 4b 19 3e 68 15 98 ba cd 20 d1 bd 14 54 c0 bd
       0.14970027 -0.0011603059 -0.102113344 -0.09391037
000260 ec ae 8c 3d d8 91 85 bd 8c 64 41 bc 9f ba 80 bd
       0.06869301 -0.06521958 -0.011803757 -0.06285595
000270 24 ea 5c 3d 96 cb 92 bd a5 cb 47 3d 73 94 4c bd
       0.05393423 -0.07167737 0.048778195 -0.04994626
000280 a9 7d 89 bd 2b 8d 93 bd 0a fe 87 bd d5 6a ed bd
       -0.06713421 -0.0720466 -0.06640251 -0.11592642
000290 f4 94 a6 bd f3 09 b3 3c fa ec 01 3e 06 9a 19 3c
       -0.08133879 0.02185533 0.12688056 0.009375101
0002a0 19 98 7c 3d ff 9f 56 3d b3 c5 d5 3d 0f 52 b1 bd
       0.06166849 0.052398678 0.10438099 -0.086582296
0002b0 c8 45 08 bb da 02 8f bc 21 20 96 3d e7 95 b3 bd
       -0.0020793546 -0.017457414 0.07330347 -0.08768826
0002c0 2a 1f 5e bb f6 64 68 3b c1 79 0c 3e 55 46 ae 3d
       -0.0033893087 0.0035460568 0.1371832 0.085095085
0002d0 b6 8a 66 bd 37 eb e4 3c 7d 6d f1 bd a0 18 37 bd
       -0.05628463 0.02794419 -0.11788461 -0.04470122
0002e0 8e 02 73 bd 15 a8 05 3d 61 a3 81 3c b5 17 20 bd
       -0.05932861 0.032631 0.015824975 -0.03908511
0002f0 3f d4 80 bd 4f d1 40 b9 50 20 76 3d 31 ee 80 ba
       -0.06290483 -0.0001838852 0.06008941 -0.0009836612
000300 a8 5b 77 bd 88 e8 07 3d d9 bb ae bc 19 5c 87 bd
       -0.060390145 0.033180743 -0.021329807 -0.06609363
000310 88 43 a6 3d ec 12 80 3d 03 a1 93 bd 55 2d e4 bd
       0.08118349 0.06253609 -0.07208445 -0.11141459
000320 12 53 ff 3c c3 c3 a3 3d 46 2b 44 bc 03 e5 a1 3d
       0.03116754 0.07996323 -0.011973208 0.07905009
000330 f0 a0 73 bd 02 2f b2 3c 3e 81 7b bd 01 fb c5 3d
       -0.059479654 0.02175093 -0.06140255 0.09667016
000340 7e 4e ac 3d 9c c4 8e bc b9 e9 31 3e f9 e1 b8 3b
       0.08413409 -0.017427735 0.17374314 0.0056421724
000350 fb bb 72 3d 7e 56 58 bb 3f 78 81 bc a9 7e 29 3d
       0.059261303 -0.0033010538 -0.015804408 0.04138056
000360 5b a6 ce bd 9b b6 c4 3d 60 46 0b 3d 96 33 8e bd
       -0.100903235 0.09605142 0.03400266 -0.06943433
000370 0a 23 6c 3d 31 68 0f 3e ce 84 17 3d ce f4 a5 3d
       0.057650603 0.1400459 0.036991887 0.081033334
000380 4d ff 00 3c ff fd bb 3d ea 9f 3e 3d c7 21 5b 3d
       0.007873368 0.09179305 0.046539225 0.05349901
000390 1d 3a 04 bd 0c 69 29 3d 19 56 1b 3d 7c fe 87 3d
       -0.032281984 0.041359946 0.037923906 0.06640336
0003a0 5a ab 2e 3d 63 48 19 3e bb 91 b8 3d f0 1f 93 3d
       0.042643882 0.1496902 0.09012171 0.07183826
0003b0 a5 77 8f bd fe dd c0 3d a5 f4 d9 bb ea 9a b6 3d
       -0.07005242 0.09417342 -0.0066514784 0.08916266
0003c0 9b 7b 17 3e 9c 20 07 bc 30 98 59 3d 1a 6a ac 3d
       0.14793245 -0.008247521 0.053123653 0.08418675
0003d0 d2 23 e8 3d 31 10 99 bc a7 15 b9 3d 05 50 7e 3d
       0.11334957 -0.018684478 0.09037333 0.06208803
0003e0 20 65 bd 3d 53 5e 50 3c 76 f9 1f 3c 25 d9 2e 3e
       0.09247804 0.012717801 0.009764066 0.17075022
0003f0 ce 83 2a bd 5e 24 05 3e 69 47 33 bd 3c 48 03 3d
       -0.041629605 0.13002154 -0.043769274 0.03205131

features.layers.1.logic.2.layer.0.mlp.0.bias f4 [8]
000000 b7 b3 f5 bd b3 23 89 3d 8e b8 47 3d 7c 89 13 3d
       -0.119971685 0.06696262 0.04875999 0.036019787
000010 79 1a b6 3c 8c 54 af 3c b6 9e 2e be 12 a4 ac 3d
       0.02222942 0.02140262 -0.17052731 0.084297314

features.layers.1.logic.3.layer.0.mlp.0.weight f4 [8, 48]
000000 7c 9e 17 3e 6d 3f a5 3d 5b f5 63 3d f5 84 91 3d
       0.1480655 0.08068738 0.05565391 0.07105438
000010 04 a4 84 3d 26 ae 57 3c 4a 22 a5 3c cf 9d 6b 3d
       0.06476596 0.013164079 0.020157952 0.057523545
000020 2e 96 43 bc 45 fb a7 3d 96 6d 7b 3d b7 7d a4 bd
       -0.011937661 0.08202223 0.061383806 -0.08031791
000030 a0 dd 46 3d e9 86 73 3b 6c cd 2b bd 5c 1a aa 3d
       0.0485512 0.003715927 -0.041943952 0.08305809
000040 ca a0 06 3e 28 ae 05 bc 13 4e ee 3d af e1 9c 3d
       0.13147274 -0.008159198 0.11635985 0.07660233
000050 27 0b 79 3d 49 4d fb 3d 4d 8c 8f 3d 84 fe 03 3d
       0.06080165 0.122706 0.07009182 0.032225147
000060 91 02 8a 3c bc f0 bc 3c bc ae e0 3d 8f d8 7a 3b
       0.016846927 0.02306401 0.10970828 0.0038276052
000070 06 d7 2c bd 25 3e 5d 3d 5f 8a dd 3c a6 20 7e bc
       -0.04219725 0.054014344 0.02704352 -0.015510714
000080 ed bb f9 3b d5 88 40 bd a8 98 bd 3d 77 17 1d bd
       0.0076212795 -0.047005493 0.092576325 -0.038352456
000090 dc 74 c8 3d d9 b6 8b 3d cc 00 19 bd bd 6b 9f 3d
       0.09787914 0.06821985 -0.037354276 0.07784221
0000a0 15 6f d1 3d a2 97 df 3d e9 a4 9e bc 8f ea cd ba
       0.10226265 0.109175935 -0.019365745 -0.0015710163
0000b0 e0 01 83 3d 4c 4e 53 3d 48 48 b4 3d 9c 4a c7 ba
       0.06396842 0.05158834 0.08802849 -0.001520473
0000c0 86 07 ba bc 00 13 89 3d 2d 7b c4 3d b3 63 e0 3c
       -0.022708666 0.06693077 0.095938064 0.02739129
0000d0 b1 8c 82 bc 6c 23 80 3d 77 3c ee 3d e6 1d 36 3d
       -0.015936228 0.06256756 0.116326265 0.044462107
0000e0 5f 81 67 3c 6b bd 9c 3c 24 9c 93 bd c5 81 0a 3e
       0.014129966 0.01913329 -0.07207516 0.13526066
0000f0 c6 64 64 3d 1c fa 85 3c 5d d7 7d bc 4f bd 87 bc
       0.055760168 0.016354613 -0.015493241 -0.016569762
000100 d0 58 ac bd 1c 41 b6 bd d4 ff f5 3a 79 f3 e9 bc
       -0.08415377 -0.088991374 0.0018768259 -0.02855848
000110 ec b5 09 3d ca 4d 64 bd 19 23 1b 3d 3a ce aa 3a
       0.03362076 -0.055738248 0.03787527 0.0013031431
000120 54 b7 c0 3d c9 3f ee 3d 04 11 ab 3d 58 6f e2 bd
       0.09409967 0.1163326 0.08352855 -0.110563934
000130 6e 7a 61 bd f2 a6 7c 3d c0 2a 05 3d 39 8a 52 bc
       -0.0550484 0.06168265 0.032511473 -0.012850338
000140 83 d1 93 bd 4f b6 ee 3d 1a af 2d bd a8 3f 96 3d
       -0.072176956 0.11655866 -0.042403318 0.0733636
000150 78 d2 30 bd 7e 5c 87 3c c0 49 25 bc 6d 67 3e bd
       -0.04316947 0.016523596 -0.010088384 -0.046485353
000160 4c 26 80 bd 05 2c 88 bc 8d 73 a7 bd 2f 4a b9 bd
       -0.062573045 -0.016622553 -0.081763364 -0.090473525
000170 ea 00 00 3b 96 50 de 3c 66 b5 90 bd c7 ac 8d 3c
       0.0019531795 0.027138036 -0.07065849 0.0172943
000180 1e c7 e0 3b d6 d1 93 bd 99 72 15 bd 5e e3 92 3d
       0.006859674 -0.072177574 -0.036486242 0.07172273
000190 3b ba 3e 3c 94 40 9a 3d ff 68 e5 3d 98 a0 c9 3d
       0.0116410805 0.075318485 0.11201667 0.09845084
0001a0 f5 56 c6 bc 6e 64 b4 bb dc 46 98 3d 7b 24 b7 3d
       -0.024211386 -0.005505136 0.0743539 0.08942505
0001b0 7d 2b 26 bd bf 17 66 bd 10 cb b0 3d 4c 24 53 3d
       -0.040568817 -0.05617499 0.08632481 0.051548287
0001c0 60 af 30 3d 27 e6 de 3c 50 64 3e 3d e6 18 4e bd
       0.043136 0.027209355 0.046482384 -0.050316714
0001d0 79 df 7b 3d dc b6 a4 3d 08 1e 4f bb c8 87 1d 3d
       0.061492417 0.0804269 -0.0031603593 0.03845957
0001e0 c8 5b 06 3e d9 c3 04 bc 04 2d 1e 3d 8d 86 d2 3c
       0.1312095 -0.008103334 0.03861715 0.025698924
0001f0 7f 95 fd 3c 77 e6 35 3d f8 ad 87 3c 2c ce 5e 3d
       0.030955074 0.04440924 0.016562447 0.05439584
000200 3a a5 70 bc 34 48 71 bd b8 dd ba bd 24 e8 c3 3d
       -0.014687831 -0.05890675 -0.09124321 0.09565762
000210 90 9d dd bd 0a d0 d5 bc e3 42 7f 3c dd 2a 91 3c
       -0.10821068 -0.026100177 0.015579912 0.017720634
000220 9c 43 04 3e 1e 28 54 3c 9b a4 cc bd d3 c9 f3 3c
       0.12916416 0.012949018 -0.099923335 0.029759323
000230 1f 86 91 3b e6 86 bb 3d cb a8 d2 3d d3 30 36 3d
       0.0044410373 0.09156589 0.10286101 0.044480156
000240 d3 c6 d1 3c 2e 7f 81 bd 0c 69 ae bd ca 0f c0 3b
       0.025607502 -0.06323086 -0.0851613 0.005861257
000250 db bd 10 bd ab a8 62 3d 00 d3 f6 3d 61 5d 47 3d
       -0.03533731 0.055336636 0.12051964 0.048673037
000260 01 47 90 3d c1 f5 c6 bc b3 47 4c 3d f9 19 c1 3b
       0.07044793 -0.024287106 0.049873065 0.0058929888
000270 6d 95 bb 3d 9a b4 11 3e 0f f3 c0 bc 0f f9 de 3d
       0.0915936 0.1422905 -0.0235534 0.10887348
000280 51 31 83 3d 21 79 ed 3b 06 af 58 bd 26 e9 ec bb
       0.06405891 0.0072471057 -0.05290129 -0.007229942
000290 eb db 43 bd 7d 19 77 3d 9f ad 3a 3d fa e4 78 bd
       -0.047817152 0.060327042 0.045575734 -0.060765244
0002a0 7d 56 15 3e fa 70 f4 3d 6a 20 c7 3d c2 03 3e 3d
       0.14583774 0.11935611 0.09722979 0.046390302
0002b0 ef 2b e2 3c af 5d 1e 3e 59 16 f5 3d 4a 90 05 3d
       0.02760884 0.15465425 0.11967153 0.032608308
0002c0 4d 78 b7 3d 47 af 43 bd 83 28 9a 3c a9 6a a5 bd
       0.089584924 -0.04777458 0.018818146 -0.080769844
0002d0 ee ce ad bd cc 58 9d 3c 5e 27 a8 bd bd 7e 70 bd
       -0.08486734 0.01920738 -0.08210634 -0.058714617
0002e0 e0 da c8 3d fd 3a 08 bc 04 eb df 3c 3f b0 28 bd
       0.09807372 -0.008314845 0.027333744 -0.041183706
0002f0 09 1d 83 bc a3 b4 9a bb 64 29 27 bd 2c 3e 00 3e
       -0.016005056 -0.0047212406 -0.040810958 0.12523717
000300 ea 19 c1 3c 6a ce e0 bc 76 7a 2a bd ac c8 bc 3d
       0.023571927 -0.027442176 -0.041620694 0.092179626
000310 4a 41 5a bd 85 f0 e7 3d 80 01 20 bd b4 13 dc 3c
       -0.05328492 0.11325172 -0.03906393 0.026864864
000320 af aa 2a 3d 34 a1 b3 bc d2 43 25 3d 87 8a 34 3d
       0.041666683 -0.021927454 0.04034788 0.044077422
000330 eb a7 27 3d 02 e5 43 3c 1f ae cf 3d 1d fe df bc
       0.040931623 0.011956455 0.10140633 -0.02734285
000340 e0 85 60 bd 54 e4 ba b9 d5 75 85 bd fc 7f 97 3d
       -0.054815173 -0.00035646802 -0.06516615 0.07397458
000350 22 e6 62 3d f1 97 fb 3d 9c 7a de 3d 29 8c 86 bd
       0.055395253 0.1228484 0.1086323 -0.06569702
000360 e4 75 93 3d d5 b1 99 bd 8f 10 cc bc 52 29 6b bc
       0.0720022 -0.07504622 -0.02491024 -0.014353113
000370 05 cc 2c 3d 66 57 8c 3a 11 98 b1 bd f5 8b 70 bd
       0.042186756 0.0010707199 -0.086715825 -0.058727223
000380 af c3 c5 bc 54 fe b9 bd 2d ea b3 3c 9e 95 94 3d
       -0.02414116 -0.09081712 0.02196225 0.072551
000390 aa ce f6 bc 13 8b ac bb c8 f2 92 3d b5 ef af bd
       -0.030127842 -0.0052656024 0.07175213 -0.08590642
0003a0 43 05 2a bd a6 d8 de 3d 2d ae 59 3d fa 49 6e bc
       -0.041508924 0.10881166 0.053144623 -0.014544005
0003b0 2b 58 f4 3b a0 77 9b 3c 0c ca 71 3d 88 9f 58 3d
       0.0074567995 0.01897794 0.059030578 0.052886516
0003c0 02 34 32 bd 60 f0 c9 3d 56 4a 11 3d 4f 39 97 bd
       -0.04350663 0.09860301 0.035471283 -0.073839776
0003d0 d0 8c 8e 3d 85 b3 6d bc 36 26 8d 3d ba 32 b7 3d
       0.069604516 -0.014508133 0.06892054 0.08945222
0003e0 9b 5e d6 3d 37 a1 04 3d df 9f ab bc 0e 6a 8f 3d
       0.10467263 0.03238031 -0.020950256 0.0700265
0003f0 03 f0 cd bc 36 70 b7 3d a2 be ca 3d 18 6e 9f bd
       -0.02513886 0.089569494 0.098996416 -0.077846706

features.layers.1.logic.3.layer.0.mlp.0.bias f4 [8]
000000 b9 ce 93 3d 20 c9 9b bd d4 59 ba 3a f2 01 e6 3a
       0.072171636 -0.07606721 0.0014217445 0.0017548187
000010 de b2 bc bc 02 da f9 3b da 59 ff 3d 90 91 6c 3d
       -0.02303451 0.0076248655 0.1246831 0.057756007

features.layers.2.logic.0.layer.0.mlp.0.weight f4 [8, 66]
000000 3d 70 58 bd 98 4e d5 3d 57 56 de 3d d6 7c 7d 3d
       -0.052841414 0.10415381 0.10856312 0.06188663
000010 be ee 2d 3c 5f 5a a0 3c 6c 56 b9 3d f4 d4 dd bc
       0.010616003 0.019574342 0.09049687 -0.027079083
000020 71 5b 47 bd 46 bb b3 3d 9e a1 8e bc 30 c5 40 3b
       -0.04867119 0.08775954 -0.01741105 0.0029414408
000030 59 3a f3 3d e8 cd 8e 3d 9c 80 5e 3d 8b a5 4c 3c
       0.11876363 0.06972867 0.05432187 0.01249064
000040 d2 bb 18 3d 43 50 a8 3d 59 72 c8 3c f1 e4 31 3d
       0.037288494 0.08218434 0.024468588 0.043431226
000050 f6 4b de 3c a9 c0 99 ba a5 0b 09 3d 36 6b e2 3d
       0.02713583 -0.0011730391 0.03345837 0.11055605
000060 69 31 11 3d 8b af 14 3d 35 9d e6 3d 1f d2 e2 ba
       0.03544751 0.036300223 0.112604536 -0.0017305053
000070 b6 4f 94 3d 06 64 ca 3d 23 6f 22 bd be 27 22 3d
       0.07241766 0.09882359 -0.03965677 0.039588682
000080 1a 03 02 3e 0a ff ee 3d d0 f3 6e 3c 91 fb 37 bd
       0.12696496 0.116697386 0.014584497 -0.044917647
000090 83 f8 af bb 65 41 e2 bc ec e7 47 bd c5 37 7e bd
       -0.005370201 -0.027619073 -0.048805162 -0.062064905
0000a0 e1 bd f1 3d 5c 2b 27 3a 8e 05 2b bd 9c 22 4c bc
       0.11803795 0.00063770055 -0.041753344 -0.012459423
0000b0 ea 4b 7b 3d 01 de f9 3d 12 93 b6 3c 07 5a cc 3d
       0.061351694 0.12200547 0.022286925 0.09978109
0000c0 40 59 2b bd 35 cc 39 3d 2f 37 6d 3d 3c 52 56 bd
       -0.041833162 0.045360763 0.057913955 -0.05232452
0000d0 a5 06 06 bd 37 79 42 bd 70 41 96 3d 95 54 19 3d
       -0.03272118 -0.04747888 0.073367 0.03743418
0000e0 cd 99 7a 3d e6 dc fb 3d c1 ea 3a 3d 8f 81 11 3e
       0.061181832 0.122979924 0.045634035 0.14209579
0000f0 a2 a1 ce ba a2 97 c8 3d 91 91 23 3d 2b 35 8c 3d
       -0.0015764723 0.09794547 0.039933745 0.068460785
000100 26 a6 7b 3d a2 36 ad 3d a6 ee 22 bd a2 f1 98 3d
       0.06143775 0.08457686 -0.039778374 0.07467963
000110 36 bb 9d 3d ab 8e 90 3d 92 27 c9 3c c4 51 03 bd
       0.07701723 0.07058462 0.024555001 -0.0320604
000120 ac 23 8a 3d d5 62 91 3d 97 57 56 3d 00 60 65 3d
       0.06745085 0.07098929 0.052329626 0.055999756
000130 b1 ea 80 3d c4 3f ad 3d b4 fc 1d bd 1c bc cf 3d
       0.06294764 0.08459428 -0.038571075 0.10143301
000140 f0 f0 c2 3d 17 82 47 bd 1f 42 03 3d e7 39 14 3d
       0.095186114 -0.048708048 0.03204548 0.036188032
000150 24 18 b6 bc d9 4f ab 3d a2 de d1 38 9e f1 e2 bc
       -0.022228308 0.08364839 0.00010007365 -0.027703103
000160 4c 1e 07 3e 84 8f 64 3d 59 0f 01 3e 15 11 95 3d
       0.13195151 0.05580093 0.12603511 0.07278649
000170 e4 f5 d4 3b 65 dc 92 3d 5b fa ef 3d ce 48 28 bd
       0.006499039 0.07170943 0.117176734 -0.041085057
000180 10 a3 0d 3d 9f 8a e2 3d ab 6b 02 3d bf d0 af 3d
       0.034579337 0.11061596 0.03184096 0.08584737
000190 26 8c fa 3d 36 24 64 3d e6 76 a4 3d e0 8c 37 bd
       0.122337624 0.055698596 0.080304906 -0.044812083
0001a0 d7 d5 36 3d 59 c5 af 3d d8 e8 ca 3d f3 e9 c5 3d
       0.044637527 0.08582563 0.09907693 0.09663763
0001b0 2d de 02 bd a9 0c a7 bc 45 6f 39 3d 16 56 eb 3d
       -0.031950165 -0.020391779 0.04527213 0.11491029
0001c0 53 76 63 3c 23 47 16 bd fa 7a cd bc dc fe a6 3c
       0.013883191 -0.036688935 -0.025083054 0.020385198
0001d0 e2 44 52 bd f8 6d 3a bd c0 74 c9 3d 60 a8 bf 3c
       -0.051335223 -0.04551503 0.098367214 0.023395717
0001e0 d4 e5 0c 3d ed 0c a3 bc 76 1f 57 3d 2e dc bf bc
       0.03439887 -0.019903624 0.052520238 -0.02342042
0001f0 ef c5 c8 3d 70 14 92 3d 31 f5 60 3d d3 99 85 bd
       0.09803378 0.071328044 0.054921333 -0.0652348
000200 98 ad a0 3d da ef ac 3b 22 1b d4 3c e2 1d b2 3d
       0.078456104 0.005277616 0.025891844 0.08697106
000210 c2 b0 20 3d 78 4a 5c bc 7d 5b ca 3d 8f d1 98 bd
       0.03923107 -0.013445489 0.09880731 -0.07461845
000220 83 e8 55 bd 54 d0 b2 3d 71 de 9c 3c 93 df 15 bd
       -0.052223694 0.08731142 0.019149037 -0.03659017
000230 c7 f7 ec 3c d4 ed e4 3c 5f 6c ea 3d 19 5a 6d bd
       0.028926743 0.027945437 0.114464514 -0.057947252
000240 30 76 29 bd 97 e9 ee 3d aa 4d 0e 3c 3f ea 19 bd
       -0.041372478 0.116656475 0.008685509 -0.03757691
000250 ad a0 a1 3c fa 57 a3 3d 0c 6a dd 3d f5 cb 02 3d
       0.019729936 0.079757646 0.108112425 0.03193279
000260 da a8 ef 3d 48 ed a8 b9 28 2f 80 3d d6 f3 7d 3d
       0.11702128 -0.00032220245 0.06258994 0.06200012
000270 aa 98 d4 3c f8 2a c6 3d 31 98 9f bc 18 e2 44 bd
       0.025951702 0.096761644 -0.01948175 -0.048067182
000280 86 d6 cf bc fa b9 5e 3c 72 98 f7 bb 17 7b f1 3d
       -0.025370847 0.013594145 -0.0075560147 0.11791056
000290 a9 a7 d3 3d 00 53 c8 3b 3c e5 c4 3d bb f7 17 3b
       0.10334713 0.00611341 0.096140355 0.002318843
0002a0 b2 e8 d1 3b 32 9f c2 3d 3b ef 47 3c 01 1e 84 3d
       0.0064059133 0.0950302 0.012203033 0.06451035
0002b0 56 11 0f 3d f1 55 31 3c 07 cc 5c bd ad 68 e0 3d
       0.034928642 0.010823713 -0.053905513 0.10957465
0002c0 03 3b f4 bc 79 12 21 3d a9 30 66 bc b3 cf 80 3d
       -0.029813295 0.039324258 -0.014049687 0.062896155
0002d0 a7 0c f8 3c d3 0f 99 3d 88 37 31 bc a8 2d 4e bc
       0.03027947 0.07473721 -0.010816462 -0.0125841275
0002e0 ce 8b a8 3d 30 3f 9b 3b 01 52 81 3d c7 04 93 3d
       0.08229791 0.004737757 0.06314469 0.071786456
0002f0 61 8f 06 bd 72 f5 af 3c 4f d8 5b 3c d7 0b 05 3e
       -0.03285158 0.021479342 0.013418271 0.12992798
000300 4e b9 73 bd 16 6d ca bc f2 89 a6 3d bc 11 12 3e
       -0.059502892 -0.02471022 0.0813178 0.14264578
000310 14 f8 9b 3d 5e 51 e6 3d 41 13 bd bd f2 f7 1a bd
       0.076156765 0.11245988 -0.09232188 -0.037834115
000320 1a ab e3 bb c9 91 b8 bd 2d 31 20 bb e0 43 0f bd
       -0.006947887 -0.09012181 -0.0024443374 -0.03497684
000330 a2 83 18 3d dc 16 76 bb 5a 10 34 bd a8 22 75 3d
       0.03723491 -0.0037550246 -0.043960907 0.059847504
000340 85 02 b9 bc 4f 2d bb 3c f9 18 d2 3c 21 b3 0e bc
       -0.02258421 0.022848753 0.025646674 -0.0087097
000350 e6 b4 08 3d 12 9d 90 ba 48 1d a5 3d a3 40 bd bd
       0.033375643 -0.0011033139 0.080622256 -0.09240844
000360 ec 04 8a 3d 96 76 d4 bc 84 bf cd 3d 20 99 20 3d
       0.0673922 -0.025935452 0.10046294 0.03920853
000370 62 64 11 3e 56 ed e0 bd 09 33 0e 3d ca ce c5 bd
       0.14198449 -0.10982768 0.03471664 -0.096585825
000380 28 ee 9f 3c e6 98 84 3d ca 99 42 bc 9f 5a 5e ba
       0.019522741 0.064744756 -0.0118774865 -0.00084821315
000390 5c 28 a9 3c a4 27 86 3d 2b 68 6f 3d 85 ad bf 3b
       0.020649128 0.065505296 0.05844895 0.0058495426
0003a0 02 45 15 3c c8 87 b7 3d 3a 2a 2c bc 5f bf 3a 3d
       0.009110691 0.08961445 -0.0105081145 0.045592662
0003b0 17 83 e4 bd 04 a0 0b bc 37 aa 3a bd 6c 20 54 3c
       -0.11157816 -0.008522037 -0.045572486 0.012947183
0003c0 86 e9 59 3d 55 c4 84 3d d0 2f 96 3d d2 79 6e 3d
       0.05320122 0.0648276 0.07333338 0.058221646
0003d0 62 86 78 bd 0c b0 d1 3c db 0e 45 3d 39 bd 4d 3d
       -0.060675032 0.025596641 0.04810987 0.050229285
0003e0 92 f2 89 bd c3 d8 59 bd e0 dc 23 3d f8 03 96 bd
       -0.0673572 -0.053185236 0.040005565 -0.07324976
0003f0 32 89 08 3d 61 dd e3 b9 f9 46 1c bd 6c e0 02 3d
       0.033333965 -0.00043461754 -0.038153622 0.031952307

features.layers.2.logic.0.layer.0.mlp.0.bias f4 [8]
000000 81 d0 a3 3d 79 f0 2d 3d eb ba 4d bc b7 08 83 bd
       0.07998753 0.04246566 -0.012556772 -0.063981466
000010 32 c3 74 3d 1e 8f 05 3d 1b 15 9d 3d 5b 87 33 3d
       0.059756465 0.03260719 0.07670041 0.043830257
