models_every10epochs/checkpoints/checkpoint_20.pth (torch, 178410 bytes, 101 tensors)

features.layers.0.logic.0.layer.0.mlp.0.weight f4 [8, 18]
00000000: e311 b3bc 6138 1ebd 9e3f b3bd 640b f8bd
00000010: 3674 40bd d92f 273e 57b1 dcbc 3aa5 d8bb
00000020: 8164 5b3b 3674 463c aa13 163e 71e3 e5bd
00000030: ba45 81be c577 613d 0c5d 2ebe da01 1ebd
00000040: 81a3 6cbe c7fa 543d 3945 043e 185f 0b3e
00000050: 075f 07be e569 4a3e c958 853d 15e2 c1bd
00000060: b1bb d73d 1d3a 2e3e ea66 733e 42d9 99bd
00000070: e5f5 0d3e 2288 34be 3bf7 043d b6c5 87bd
00000080: c5c2 48bc 7302 d9bd e6e2 54bc 9521 2c3c
00000090: 9a48 2b3e 52ef d4bd f19a f23d 202c 893e
000000a0: 9cb0 123c 5f61 1f3e d8c7 1e3d 6c1a 473d
000000b0: 3ae0 083e 2ec0 433e f61e b03d 2746 ab3e
000000c0: 5b5e 75bd 84c9 183e e307 1c3e d4d4 b73e
000000d0: 188f c1bd 783b 063e db06 193e 8368 0f3e
000000e0: c034 e63d ab21 5dbe 0ee5 76be ba0b ba3d
000000f0: baeb 72be c2a5 223e 1430 84bd 77c8 213e
00000100: 170d 783d b365 59bc a0b4 86be 5665 193e
00000110: 79a7 08be 4dde 173e 53ea 8fbd 46c1 233d
00000120: 5eda db3d 89f8 03bd 2475 2a3e 53f8 8a3e
00000130: 3d98 953e 734f b13d 2694 5b3e 48fc 92bd
00000140: 9427 4dbd 82ba 613e d539 9ebc e7e7 cd3d
00000150: cf5d b1bd 1c7f 793e beae bb3d c455 613e
00000160: 6b5b 4f3e 4eb0 623e 11eb 08be 8b88 c13d
00000170: a1b4 143e bd22 5cbe 3f35 e8bb 7fd3 8ebe
00000180: d146 b4bd a402 ccbd 8d53 71be b8f8 33bd
00000190: f178 343e 9767 083e c82f 873d 7398 d9bd
000001a0: 005a 30be d8aa 44be c6ff 40be 58ec 0c3e
000001b0: 9328 2c3d 1e27 a5bd 9c47 a03d 3fbd 4abe
000001c0: a76e 9f3d b60a 9e3d cccb dfbd 6f24 5dbe
000001d0: 0319 21be 91f3 ed3d f602 b93d 6994 55be
000001e0: d492 60be 86cb 26be cb13 3e3d f8a9 c73d
000001f0: a69d 3ebe 0b2d 11be 3912 fbbd 94ee 1abe
00000200: 9927 813d cfc2 b8bc 11b4 8d3d 940c 2b3d
00000210: 1662 16be 75cc 0cbe 3365 1ebe 4bae d1bd
00000220: eaf1 583d a921 51be 849e 5abe 1933 f6ba
00000230: c7cd 65be f1b9 c0bd 82b7 3ebc 8f33 3c3e
-0.021859115 -0.038627986 -0.087523684 -0.121115476 -0.046985827 0.16326846 -0.026940031 -0.0066114934
0.0033476653 0.012112668 0.14655939 -0.11225022 -0.2524851 0.05504586 -0.17027682 -0.038575985
-0.23109247 0.051996972 0.12917031 0.13610494 -0.13219844 0.19766958 0.06511075 -0.0946695
0.10533846 0.17014356 0.23769727 -0.07512142 0.13863333 -0.17630056 0.03246234 -0.06629507
-0.012253468 -0.1059617 -0.01299355 0.010506053 0.16726914 -0.10397209 0.11845959 0.26791477
0.00895324 0.15564488 0.038764805 0.048609182 0.13366786 0.1911628 0.08599655 0.3345196
-0.059904438 0.14920622 0.15237384 0.35904562 -0.09451121 0.13108623 0.14944021 0.14004712
0.1124053 -0.21594875 -0.24110815 0.09084268 -0.23722735 0.15883544 -0.06454483 0.15799128
0.06055936 -0.013268876 -0.2630968 0.14980063 -0.13345136 0.14830895 -0.07027116 0.03997924
0.107350096 -0.032219443 0.16646248 0.2714258 0.2921771 0.08657732 0.21443233 -0.07177025
-0.050086573 0.22043803 -0.019314686 0.100539975 -0.08660471 0.24364895 0.09164189 0.22005373
0.20249717 0.22137567 -0.1337092 0.09449872 0.1452203 -0.21497627 -0.0070864256 -0.27895734
-0.0880257 -0.09961441 -0.23567028 -0.04393837 0.1762426 0.13320766 0.066009104 -0.106247805
-0.17221832 -0.19205797 -0.1884757 0.13762033 0.042030882 -0.08064102 0.078261584 -0.19798754
0.07784777 0.07716887 -0.10927543 -0.2159593 -0.15732197 0.11618722 0.09033768 -0.20857395
-0.2193101 -0.16288576 0.046405595 0.09749216 -0.18614826 -0.14177339 -0.12259335 -0.15130073
0.06306381 -0.02255383 0.069191106 0.041760042 -0.14685854 -0.13749869 -0.15468292 -0.10238322
0.052965082 -0.20422997 -0.21349531 -0.0018783539 -0.22441779 -0.094104655 -0.011640431 0.18379043

features.layers.0.logic.0.layer.0.mlp.0.bias f4 [8]
00000000: 9b86 c63c 68f7 623c 673a b83d 897f adbd
00000010: b6e8 45bd a5d8 3f3e 2a23 b1bd 43ed 093e
0.024234107 0.013852932 0.08995514 -0.08471591 -0.048317634 0.18734987 -0.08649285 0.13469414

features.layers.0.logic.1.layer.0.mlp.0.weight f4 [8, 9]
00000000: 38cb 243c bdb2 73bd c8ba c43d 5310 6a3e
00000010: 78d1 823d 2de0 e13d f607 b23d 504b b23e
00000020: 0260 5b3e 3397 443e 8848 663e 14d5 6b3e
00000030: 1bd1 d83d 681d 9abb c3d3 a6bc 146d daba
00000040: 3951 093d d48b c53e bd08 ebbd be35 9e3d
00000050: 144f b53c 587d bdbe 6111 f03d abdd 53be
00000060: 7827 89be 01fb a9be f408 05be eda9 c7be
00000070: ed3f 03bd 1cba c2be fde0 56be dc45 093d
00000080: 304b aabe 2f25 263e b334 083c ed67 343d
00000090: 6652 673e f254 c9be 56c9 31be f044 a7be
000000a0: c16a cabe 2567 82bd 71fd eaba 9b32 9c3d
000000b0: 5743 bc3d 9f1a a9bd c990 d43d c454 7d3e
000000c0: 0aec 78bd 29ea 373e 3f21 8e3e 9949 223e
000000d0: 3d2a 683e 6149 31be 9faf 623e fd6e 6e3e
000000e0: 21ee 733e 157d f7bd dec8 b6bd cc45 4b3e
000000f0: 3ae6 ee3b b6a1 c43c 68a2 8f3e e8d3 223a
00000100: 1ec1 87be cc99 80be b252 3dbe 0bfc b8bd
00000110: 546a 573e 6eb5 45bd c465 9ebe 6c5f 88be
0.010058217 -0.05949663 0.09605938 0.2285779 0.06387609 0.11029086 0.08692925 0.34823084
0.21423343 0.19198303 0.22488606 0.23030502 0.10586759 -0.0047032125 -0.020364648 -0.0016664588
0.033524726 0.38583243 -0.11476276 0.07725094 0.022132434 -0.37009692 0.11722065 -0.20690028
-0.26787925 -0.33199313 -0.12991697 -0.3899683 -0.032043386 -0.38032615 -0.20984264 0.03351389
-0.3326049 0.16225122 0.008313346 0.044044424 0.22590026 -0.3932262 -0.1736196 -0.32669783
-0.39534572 -0.063673295 -0.0017928315 0.0762684 0.091925316 -0.08257031 0.10379178 0.24739367
-0.06077198 0.17960419 0.2775974 0.15848388 0.22672363 -0.17313148 0.22137307 0.23284526
0.23821308 -0.120844044 -0.08925031 0.19850844 0.0072906287 0.024002891 0.28053594 0.0006211386
-0.26514524 -0.25117338 -0.18488577 -0.090324484 0.21036655 -0.048268728 -0.30937016 -0.266353

features.layers.0.logic.1.layer.0.mlp.0.bias f4 [8]
00000000: d094 b53e 9255 473e fb5f dfbe 9e68 04be
00000010: 0b45 c2be 8fe2 aa3e 6554 c73c ec8c 323e
0.35465097 0.19466236 -0.43627915 -0.12930533 -0.379433 0.33375975 0.024332235 0.1743657

features.layers.0.logic.2.layer.0.mlp.0.weight f4 [8, 18]
00000000: facf 613e 286a 613e e188 0e3e 5467 6f3d
00000010: 7298 c9bd aa26 083e 0b17 9e3a 822e 823d
00000020: 8335 85bd 981c 9a3d 7c78 243e 75ee b2bd
00000030: f8d2 213d 1cd9 603d 4504 88bd d581 4c3e
00000040: 7409 863e c0a0 53bd 7aea cebd 944c 0b3e
00000050: 6835 833e 92b6 b3bc cbb0 89bd e45b 72bb
00000060: 6560 13be 2d9f bfbd 880f 18be 2216 4fbc
00000070: 77df 903e 2bb7 cf3d 14ac 423d ebce 31bd
00000080: b8e0 1bbc ea9c 4c3e 8117 bfbc 1924 66bd
00000090: 69a0 af3d 9834 3fbe db48 393d 857e 9fbd
000000a0: 7fef f4bd db43 f2bd 667b 06bd 3740 33be
000000b0: db92 093e 5d99 ae3d 0b82 a9bd 58ba 42bc
000000c0: 3249 66bd 8dbd f5bd 19b8 3cbd eb33 23be
000000d0: 36e6 f53d fac8 01bc a763 9abd 9d5e 14be
000000e0: 81c2 9d3d d181 dabd 05a3 7bbd d167 f3bd
000000f0: 795a df3d de82 62be d3f9 3c3e 0c55 313e
00000100: f1b1 49bd 16c1 0a3e 1b5e 263e 5993 25bd
00000110: 63b9 97bd f77f 5cbe f152 063d e849 133e
00000120: deea 573d bb01 46bd 0479 ed3d 0742 2a3e
00000130: 5e41 1d3e 5f6d 4abe bc86 623c c1b5 17be
00000140: 2825 7dbd 5398 433e a146 5cbe 7047 61bd
00000150: f1bc 393d 4032 c43d 2c9a 99bd 6211 e33d
00000160: fcb8 9d3d 70aa b63d eb68 843d 4ec7 40be
00000170: d91c 333c e079 1cbd d079 e0bd ba10 2abe
00000180: fecb 3f3e 06db e43c 45b9 88bd 30d9 4abe
00000190: d5e8 3abd ebc8 583e 4851 07be 0474 99bd
000001a0: 4b46 253d 946e 7c3e 0df7 26be be5b 643e
000001b0: b799 08be b37a 133d ade2 09be c56f 66bd
000001c0: 97c3 b83d 0fc3 5d3c f3f9 d03d 2eb5 52be
000001d0: 853d 403e 7b4e 07be 722c 683e 56c5 b4bd
000001e0: 8070 253e 6bc4 4b3e be9f 053e 63bb c23d
000001f0: 23d8 e5bd 7e39 91bd 8fee 50be a473 e2bd
00000200: a4c0 9e3c 99c7 b6bd f039 e43c fd73 39be
00000210: 1798 203e bf29 0abe 40f7 07bd 340f cebd
00000220: 72aa 99bd dcd8 a3bd 757a 00be 5ddb 78be
00000230: a546 6a3d d40d 56be 409f 633d cec4 11be
0.22051993 0.22013152 0.13919403 0.05844815 -0.0984353 0.13295999 0.0012061311 0.06356527
-0.06504347 0.07524985 0.16061586 -0.08736888 0.039507836 0.05489455 -0.06641439 0.19971402
0.26179087 -0.051666975 -0.101033166 0.13603431 0.25626683 -0.021937642 -0.06723174 -0.003698104
-0.1439224 -0.09356532 -0.14849675 -0.012639554 0.2829549 0.101423584 0.047527388 -0.043410223
-0.009514026 0.19981733 -0.023326637 -0.05618677 0.08575518 -0.18672407 0.045235496 -0.077878036
-0.11959743 -0.11829349 -0.032832526 -0.17504965 0.13434927 0.085253455 -0.08276757 -0.011885248
-0.05622215 -0.119990446 -0.046074007 -0.15937774 0.120068 -0.007921452 -0.075385384 -0.14489217
0.07703114 -0.10669292 -0.061434764 -0.11885036 0.10905928 -0.22120234 0.18454675 0.17317599
-0.049241964 0.13550219 0.16246836 -0.040423725 -0.074084066 -0.2153319 0.032793943 0.14383662
0.05271422 -0.048341494 0.115953475 0.1662675 0.15356967 -0.19768284 0.0138260685 -0.14815427
-0.061803013 0.19101076 -0.21511318 -0.05499977 0.045346204 0.09579897 -0.07500109 0.110873
0.077012986 0.08919227 0.06465324 -0.18826029 0.010932171 -0.038202167 -0.10960734 -0.16607943
0.1873016 0.02793647 -0.06675962 -0.19809413 -0.045632202 0.21170394 -0.132146 -0.07492831
0.04035024 0.24651557 -0.1630518 0.22300622 -0.13339888 0.036005687 -0.13465376 -0.056258935
0.09021681 0.013535275 0.10203924 -0.20576927 0.18773468 -0.13213532 0.22673205 -0.08826701
0.16156197 0.19899146 0.13049218 0.095083974 -0.112228654 -0.07091044 -0.20403503 -0.11057213
0.019378968 -0.08924789 0.027859658 -0.18110652 0.15683018 -0.13492487 -0.03319478 -0.100614935
-0.07503213 -0.08000347 -0.12546714 -0.2430243 0.057196278 -0.20903713 0.055571795 -0.14235231

features.layers.0.logic.2.layer.0.mlp.0.bias f4 [8]
00000000: 1b84 8a3e 5939 8bbd 92f8 0b3e d737 edbd
00000010: aaa2 0e3e 02ec 1b3e 7b86 45bb 7202 29be
0.27053913 -0.067980476 0.13669041 -0.11582916 0.13929239 0.15226749 -0.003013997 -0.16504839

features.layers.1.logic.0.layer.0.mlp.0.weight f4 [8, 42]
00000000: e39f 80bd 1a30 833d cf0a f33c 05d3 f9bc
00000010: 2f1c 173e 16d9 78bd 11aa 0c3e 34bb d83d
00000020: 2be3 52bd 3b98 efbc 3541 183e 9462 c43d
00000030: d6a6 d63d bedd e13d 869d f03d cf2b bfbd
00000040: 6553 173e 8f4f 173e 0f3e a63d d443 10bc
00000050: defb b03d f4b7 ec3d a8f0 93bd 611e 273d
00000060: 48d3 193e 3b13 d7bb 9509 3abd 8122 ed3d
00000070: 200d d8bd 4b60 06bd cd25 55bd f900 8fbd
00000080: dad0 d13d 6714 e23c 558d 3cbd 1fc9 663d
00000090: 7f39 d4bb 2085 8bbd caa2 823d f005 ea3b
000000a0: 67d9 d23b 6b48 f7bc 6394 31bd 3b32 ffbc
000000b0: 74c6 123d 8fd2 023d 04ed 8cbd f4c2 c83d
000000c0: ae87 c9bd 2824 bebd 0737 06be a1ec ffbd
000000d0: 7709 12be b9a7 bb3d aa64 433d 017e ea3c
000000e0: ea17 47bd 9213 fe3c b654 96bd f3e0 303d
000000f0: f86b 683d 6cc8 6c3c 2798 6bbd 5a66 5ebd
00000100: 5af4 40bd 32e2 c73d 2520 9abd 43d3 19bc
00000110: 77db e1bd 8f8b 273d 77fc b93d f3fd debd
00000120: cbf0 aa3d 8a6e 0dbd 6b28 083e d603 23bc
00000130: 8e63 2c3d 33d4 0b3e 628c 02bd a596 033e
00000140: 85c6 44bd 97b1 d33c 7270 2abd 8873 cc3d
00000150: 797d 8cbd 3837 b43c 5ce7 873c 7747 01be
00000160: 3b0c e3ba 052b 973c 8139 1b3e 983a 09bb
00000170: da1e d03d 54f3 983c 29e4 8b3d 448f d83d
00000180: 139e c6bd db35 c5bc 9cdd fc3d cb23 673d
00000190: b438 c33d af78 4fbc 5424 393d d86d 97bd
000001a0: dbea a33d 5b1b 263e c336 523b 982b eabd
000001b0: c33c 693d 477d cc3d 0415 833d 52bf 3b3e
000001c0: 8fce 023e 5233 00bd 2341 b73d e348 0dbb
000001d0: f386 41bc 7ac0 fc3d c465 ed3d 8445 bdbc
000001e0: 0d6b 53bd 47a2 523e be2e b9bd df37 aa3d
000001f0: 3170 203e 3967 7d3d 4c82 f63c 6446 5dbe
00000200: e01c 57bd b7e8 a6bc 3a6e a33c 3479 2dbe
00000210: 471c 733d 2594 b23d 5b7b 053c bc54 4fbe
00000220: 9cbd 01be e8f3 2e3d 3ab6 4abe 23bb 8abd
00000230: 688f 49bd 8df7 993d 3f94 343d f550 1cbe
00000240: 4aca 15bd 29cd 1fbe f548 62ba c79d bebd
00000250: a358 573c 6540 a43c a490 03be 6d0b 643d
00000260: 366a 9abd 8e20 10bd 429e 7b3c d2ef 673d
00000270: 71b1 32be 8d45 20be 64d0 31bd f204 08bd
00000280: 9cf3 23be cb5a 7e3c 8ff3 99bd 1c96 b1bd
00000290: 8b3d b1bd d636 2abe f3f9 d7bd b347 8b3c
000002a0: 7579 a53d 680a 1a3e f7fb 153e b82b fc3c
000002b0: feda 55bd f8dc b63d f877 a8bd c84f 8ebd
000002c0: e049 24bd ef07 513d 39b2 0d3d 5902 a7bd
000002d0: a2ea 453e e662 3a3e b2d6 663d 51d1 5dbd
000002e0: 7bc3 6fbd 5c6a 123e 9252 6b3d b70e 5a3e
000002f0: 326d 353e cefc da3d 15ac 2e3e cfbf 193e
00000300: ea00 ad3d 307d 52bd a8ce 023e 7bf3 ed3d
00000310: 058b 14bd 00f2 cf3d 2978 bfbd 24f3 5d3d
00000320: 76e9 0c3e bbb6 d63b 5b9f b23d 914b b7bc
00000330: 4d20 45bd f9c3 e83d 173b 063e 6031 7ebd
00000340: 938c 083c 6004 f2bc f1a8 b4bd da97 983d
00000350: ca42 e63d 2411 aebd 35fa ba3d 7fe7 103e
00000360: 6c9b d93d 8f75 b23d 740a 3a3e 83c1 55bd
00000370: 8331 103e a993 c93d 284a 88bd 0fdd 5fbb
00000380: 4bd8 de3c 739d 463d c9bc a63d 7448 98bd
00000390: bf75 59bc 7d92 583e 8692 c63d 7c3e 07bd
000003a0: 8e75 d73d 421e 273e 9a48 0d3e 15b7 3bbd
000003b0: 512a 463e b382 233e fa78 133d e246 61bc
000003c0: 6dba 3f3c 8f2e 20bd 15ae 323d f09b 6ebc
000003d0: 5189 3dbd e183 083e 7038 153e 0468 05bd
000003e0: 49e0 74bc 04dd 82bc b3e7 493d 90ff 433d
000003f0: 78e1 233e a862 1c3d 302a e93d 51ce 87bd
-0.06280496 0.06405659 0.02966824 -0.03049613 0.14756845 -0.060753904 0.1373675 0.10582581
-0.051486176 -0.029247394 0.14868625 0.09589115 0.1048104 0.11028622 0.11748795 -0.09334528
0.14777906 0.14776443 0.081173055 -0.008805234 0.0864179 0.11558524 -0.07223636 0.040800456
0.15022004 -0.0065635717 -0.045419294 0.11578847 -0.105493784 -0.032806676 -0.052038003 -0.069826074
0.102449134 0.02759762 -0.046033222 0.056344148 -0.0064765806 -0.06812501 0.06378706 0.007141821
0.006434608 -0.030185899 -0.043354403 -0.031151881 0.03583379 0.031939086 -0.06881145 0.09802809
-0.09840332 -0.0928424 -0.13106929 -0.12496305 -0.14261423 0.0916285 0.047703423 0.028624536
-0.04860679 0.031015191 -0.07340376 0.04318328 0.056743592 0.014452081 -0.05751815 -0.05429683
-0.04710803 0.0975994 -0.07525662 -0.009388748 -0.11028188 0.040904578 0.09081357 -0.10888281
0.08346709 -0.034529246 0.13296668 -0.009949645 0.04208713 0.13655166 -0.03187216 0.12850435
-0.048040885 0.025841517 -0.041611142 0.09982973 -0.068598695 0.021998987 0.016589813 -0.12624918
-0.001732237 0.01845313 0.15158655 -0.0020939466 0.101621345 0.018670715 0.068306275 0.10574201
-0.09698119 -0.024073532 0.12346956 0.05643062 0.095323 -0.012663051 0.04520066 -0.07393998
0.080037795 0.16221373 0.0032076098 -0.11434096 0.056942713 0.09984832 0.06400493 0.18334702
0.12774108 -0.031298943 0.08947971 -0.0021558336 -0.01181196 0.123413995 0.11591676 -0.023104437
-0.051615763 0.20569716 -0.090421185 0.08311438 0.15667798 0.06186602 0.030091427 -0.21608883
-0.05251777 -0.020374639 0.019950021 -0.16940767 0.05935314 0.087196626 0.008147086 -0.20247167
-0.12669986 0.042713076 -0.19796076 -0.06773975 -0.04920903 0.0751792 0.04408669 -0.15265258
-0.03656987 -0.15605606 -0.0008632087 -0.093074374 0.013143691 0.020050237 -0.12848145 0.05567496
-0.075397894 -0.035187297 0.015357556 0.056625195 -0.17450501 -0.15651532 -0.043411627 -0.03320784
-0.16010898 0.015524576 -0.07517158 -0.08671209 -0.086543165 -0.16622481 -0.10545721 0.017001962
0.08079807 0.15043032 0.14646898 0.030782565 -0.0522108 0.08928865 -0.08226007 -0.06948811
-0.040109515 0.051032957 0.034593794 -0.08154745 0.19327787 0.1820179 0.056357093 -0.054154698
-0.058536034 0.14298385 0.057451792 0.21294676 0.17717436 0.1069275 0.17057832 0.15014575
0.0844744 -0.05138892 0.12774146 0.11618706 -0.03626539 0.1015358 -0.093490906 0.054186955
0.13760933 0.006552545 0.08721801 -0.0223749 -0.048126508 0.11365504 0.13108478 -0.062058806
0.008334297 -0.029543102 -0.088212855 0.074508384 0.11243208 -0.08499363 0.091297545 0.14150809
0.106253475 0.08713829 0.1816805 -0.0521865 0.14081387 0.09842617 -0.06654769 -0.003415886
0.027202746 0.04849 0.08141477 -0.07435694 -0.013272702 0.21149631 0.09695916 -0.033018574
0.10520469 0.16320136 0.13797227 -0.045828898 0.1935208 0.15967827 0.036004044 -0.01374981
0.011702162 -0.0391069 0.04362305 -0.014563546 -0.046273533 0.13331558 0.1457231 -0.0325699
-0.014946052 -0.01597453 0.04929323 0.047851145 0.16003978 0.038180023 0.11385 -0.066311486

features.layers.1.logic.0.layer.0.mlp.0.bias f4 [8]
00000000: 8d06 1e3e 76dd ca3c b670 a0bd 8004 5c3d
00000010: e5c5 5b3d e858 e43d 48b5 153e 1650 d43a
0.15432186 0.024763804 -0.07833998 0.05371523 0.053655524 0.1114977 0.14619935 0.0016198184

features.layers.1.logic.1.layer.0.mlp.0.weight f4 [8, 41]
00000000: e548 d0bd d36e 7fbe 4252 0cbe d1b4 de3d
00000010: 85a5 31bd 88b5 b43d df30 4a3d fb18 04be
00000020: f63c efbd 82e4 f2bd bc64 bdbc 6da0 08bd
00000030: 1496 aebb b3c7 86bd b423 cfbd ebb5 cf3c
00000040: b0d9 8abd 7895 67be 1f17 9bbc bc85 923c
00000050: 316e f4bd 97bb b43c eba9 c83d 1987 183d
00000060: d095 65bd ff4e cebd e684 abbd d898 04bd
00000070: 5137 573d ff7c 01be 6197 02be ac7b 28be
00000080: 1310 0ebe fcb5 b6bd a83a 87bd 80ed a7bd
00000090: 53f0 dfbd 03ef 7cba b254 d7bd 3c5f b6bd
000000a0: cbbe 18be 5779 44bd f4f8 a5be 439f 9fbe
000000b0: 00a0 28be ff51 f1bd 441d 19be 9f7c 55be
000000c0: 1b6b 35bd 628c 86bd 1ef6 86bd 91a0 253d
000000d0: 823b bd3d 9f3c 3abe 5921 c9bd f3e3 8a3c
000000e0: 99b6 ffbd 5af7 1cbd 6ae4 96bd a8b8 08be
000000f0: 7309 a0bc 5c74 edbd a632 b5bd 38af c6bd
00000100: 5948 e4bd ae3a 0c3d 10c7 69be ea1a 14be
00000110: 0bf0 1a3d 29a2 bf3d cd6b 4ebd c963 0c3d
00000120: f8f5 2bbe 6cf6 5bbe a93e ccbc 04ac b5bd
00000130: 4aef 65bd 8de4 0cbe 68af 7fbe c84d 11be
00000140: 004f 993d e684 88bd b7e6 df3d a1d6 efbd
00000150: 5352 66be e50a c13d 3fb9 79be 9adf d33d
00000160: be2c a63c 9e70 c23d fe00 633d 5829 e3bd
00000170: bbcd 22bb f828 bbbd 0c15 a4bd ce32 5ebb
00000180: af4a 1b3d 8b33 5dbe e4dc ddbd 5935 c2bd
00000190: 0c99 a5bd bf97 98bd 1357 933d fc01 83be
000001a0: 8b2f 833c 9bd2 81be 5e86 ecbd bbea 3cbe
000001b0: 2dd7 51be 539f 69bd c213 263d e724 323d
000001c0: bf03 8f3c 2abc 0abe 036e 74bd eb31 003d
000001d0: 7df1 c5bd 9795 99bd 7467 bcbd ab06 0a3c
000001e0: e349 133d 9cfd 1d3d d1ce a1bd c4f3 ae39
000001f0: 3758 553e 499e a73e fe02 a23d c0a6 863e
00000200: 9782 633d 8178 3c3e d862 283e 075a 83bd
00000210: 80e4 85bd 7001 01bd bbbc 8bbc d10a 503d
00000220: e6bc 883d 8601 f53d 06e6 41bd dcb2 373e
00000230: 02c7 113e fd81 a33d 2a69 283e 3ba7 d23d
00000240: 1d8b 24bd 84a8 af3d b19d 463d 04f3 953d
00000250: 7017 0f3e 4fe1 943d f2ad 0a3d a660 133e
00000260: a5a1 d23d eb37 283e bc09 813e c260 2dbc
00000270: 34df 043e 141a c03d 208d 293e 2056 ddbc
00000280: ac72 7f3e 5288 0c3e df05 0b3e b2cf 183e
00000290: f945 2c3d 522b 913e 493d ff3d addd 283d
000002a0: ae72 6f3e bcbb 9cbd 1332 e53d dc98 dbbd
000002b0: a744 93bc fa69 e23d 7744 9b3d 9505 3dbd
000002c0: 170c 243e fb0f 223c af78 5bbd 900b 943e
000002d0: 58ee 6c3d d0ad e93d a082 0e3e 21da 15be
000002e0: 1e9d 933c f743 ae3d 96b9 973d 9e5d 99bc
000002f0: 506f fc3d 793f b73d f926 943d 3950 9bbd
00000300: 49b8 413d 8542 e83d 889f 3fbb dd36 623d
00000310: 8688 c6bd 9995 253e 2b44 603d 4cbd 153e
00000320: 00b5 733d fbc8 843e 1fc1 51bd 732a 28be
00000330: 0d16 57bd a17b a53b b38d 8abd d3a0 6abd
00000340: 5d35 9b3d b4e3 40be 58af 9abd 9a4d ccbd
00000350: 8f40 03be 0782 69be 33d1 e03c 78dc afbc
00000360: 5555 34be a4dd 17be 2637 64bd 2113 01be
00000370: 2353 2dbd cd15 1bbe bd1b 7bbd f0c9 c5bd
00000380: 83e3 ab3d 99b9 82bd 14a5 2d3d c035 9bbd
00000390: 198e fbbc 56a3 8dbd 112e e13b 65b8 2fbe
000003a0: ec60 13be 101a 4fbe 5f12 5f3d 6d7b 873c
000003b0: 3694 91bd 8fd7 2f3e 9879 aabd 2905 66bd
000003c0: 6372 1cbe cdb7 583d 0528 6cbe df23 c53c
000003d0: e0ac debd 5219 1e3d 2a16 083e 0151 393e
000003e0: 1a2b 013d 8195 7c3d 357f a73d 2cf9 afbd
000003f0: 2a81 efbd b7d4 37bb c1ee a63d 4d53 f43d
-0.101701535 -0.2494462 -0.13703254 0.10874332 -0.043370742 0.08823687 0.049363013 -0.12900154
-0.11681549 -0.11859991 -0.023119323 -0.03335612 -0.0053279493 -0.06581058 -0.10114232 0.0253553
-0.06779802 -0.22615612 -0.018931923 0.017886035 -0.1193508 0.022062106 0.09798034 0.037238214
-0.056051075 -0.10073661 -0.08374958 -0.032372326 0.05254299 -0.12645338 -0.12753059 -0.16453427
-0.1387332 -0.089214295 -0.06602985 -0.081995964 -0.1093451 -0.00096486526 -0.10514201 -0.08904883
-0.14916532 -0.04796728 -0.324165 -0.31176195 -0.16467285 -0.11783218 -0.1495257 -0.2084832
-0.044291597 -0.06569745 -0.06589912 0.04043633 0.09239866 -0.18187188 -0.09820814 0.016954398
-0.124859996 -0.03832183 -0.07367785 -0.13351691 -0.019535756 -0.115944594 -0.08847551 -0.09701389
-0.11146612 0.03423565 -0.22829843 -0.14463392 0.03782658 0.093571015 -0.050395776 0.03427485
-0.16793048 -0.21480721 -0.024932222 -0.088707 -0.056136407 -0.1375906 -0.24969256 -0.14189827
0.07485771 -0.06665973 0.10932677 -0.11710859 -0.22492342 0.09425906 -0.24387072 0.10345383
0.020285007 0.09494136 0.055420868 -0.1109187 -0.0024841863 -0.091386735 -0.08011827 -0.0033904794
0.03791302 -0.21601693 -0.10833147 -0.094828315 -0.08085832 -0.07450818 0.071943425 -0.2558745
0.016013881 -0.25355992 -0.11549066 -0.18448918 -0.2049224 -0.05703671 0.040546186 0.043492224
0.017457841 -0.13548341 -0.059675228 0.031297605 -0.09665201 -0.07499235 -0.091994196 0.008424441
0.035959136 0.03857194 -0.07900775 0.00033369486 0.20834433 0.3273795 0.07910727 0.26299095
0.055544462 0.18405344 0.16443956 -0.06413656 -0.065377235 -0.03149551 -0.017057767 0.050791565
0.066766545 0.11963181 -0.047338508 0.17939323 0.14236072 0.07983778 0.16446367 0.10285803
-0.04017173 0.08577064 0.04849023 0.07321742 0.13973784 0.07269537 0.033857293 0.14392337
0.102847375 0.16427581 0.2520274 -0.010582151 0.1297577 0.09379974 0.16557741 -0.027018607
0.24946088 0.13723877 0.13576458 0.1492298 0.04205892 0.28353363 0.12462861 0.04122703
0.2338359 -0.07652995 0.111911915 -0.10722515 -0.017977072 0.1105537 0.07581418 -0.0461479
0.16020237 0.009891505 -0.05358189 0.2891507 0.05784449 0.11410105 0.13917017 -0.14633991
0.018019255 0.08509057 0.074084446 -0.018721398 0.12325919 0.08947653 0.07233996 -0.07583661
0.04729489 0.113408126 -0.0029239375 0.055228103 -0.096940085 0.16170348 0.05475251 0.14622992
0.059498787 0.25934586 -0.051209565 -0.16422443 -0.052511264 0.005050138 -0.06765308 -0.05728228
0.075785376 -0.18836862 -0.075529754 -0.09975739 -0.12817596 -0.22803508 0.027443504 -0.021467432
-0.17610677 -0.14830643 -0.055716656 -0.12604953 -0.042315613 -0.15145035 -0.06130575 -0.09657657
0.08393004 -0.06383056 0.04239376 -0.075786114 -0.030707406 -0.069159195 0.0068719466 -0.17160185
-0.14392442 -0.20224786 0.05446088 0.016538346 -0.07108347 0.17172073 -0.083239734 -0.056157265
-0.1527801 0.05290966 -0.23062141 0.024064956 -0.10872817 0.038598366 0.13289705 0.18097307
0.031535245 0.061666016 0.0817856 -0.08592448 -0.11694558 -0.0028050372 0.081510074 0.11929951

features.layers.1.logic.1.layer.0.mlp.0.bias f4 [8]
00000000: 92c9 62bd b01c 45bd 8895 76bd d71a 9a3e
00000010: d586 6a3e f0dc d0bd 9bbc 373e 71b6 f63d
-0.055368014 -0.04812306 -0.060201198 0.30098602 0.22902997 -0.101983905 0.17943041 0.12046517

features.layers.1.logic.2.layer.0.mlp.0.weight f4 [8, 50]
00000000: e2e3 18bc f7c1 243d 3efa bc3b ccc4 37bc
00000010: 3e36 c7bc fcb2 d3bd 1770 303d d506 493c
00000020: b6b1 9f3d d4dc b3bd f59f c83c 5733 e6bd
00000030: 7dfe e93d 6352 0bbe aad2 a03d 1e87 afbd
00000040: 74af 9f3d 160b 49bc 3fca 29be cfcb 05be
00000050: 4edb 03bc d620 553d 282b 3fbd 8c07 433d
00000060: bd86 12be 2d7a 07be 6ae0 5abc f225 05be
00000070: 2b77 24bd 60dc 91bd 86ec 1bbe 28cd 0cbe
00000080: e3b7 07be bc78 5fbd f98c 173d 0a33 41be
00000090: 3cbe 2e3a 7608 9dbc c3e6 afbd 3ea4 273d
000000a0: 38e3 7bbd 18f2 3cbd 4a06 903d 21dc cabc
000000b0: 94fa 6a3d 365a 45be 3795 91bd d8ea b1bd
000000c0: 4b35 873d 3dd5 69bb fc09 ddbd 3b54 073e
000000d0: 56a6 5d3d 0995 69bd fe71 babd 54d8 d3bd
000000e0: d405 003d fb9d 343d 45cc 2dbe 5759 6e3d
000000f0: 1b8a 1dbe b29d e2bd 9bba 7bbd 4047 40bc
00000100: dc48 813d 908b 29bd 4626 e33c ba28 e03c
00000110: 9dbd 5bbc e3e2 28be 836f 98bd a205 69bd
00000120: 1c68 eb3a 158d c83d 705c 1dbd f75a 3ebd
00000130: a0c2 0d3d 1da2 99bd b476 c1bd 02cf 80bd
00000140: 3696 d43c dd7d aebc 1b5c bebd 0363 273d
00000150: d43c e5bd 7794 4f3d f6e6 113e 8de4 c43d
00000160: 4184 e03d c427 173d 8fd4 9abd c4da 8abc
00000170: 8c4b e8bd beea 523d 79c5 a9bd 9c3a abbd
00000180: 6686 943d 5b1f 34be 3d76 243a c82e 013e
00000190: 26d2 8c3d 0c57 67bd 3de8 f93d cb6c c73d
000001a0: 0cd8 67bd e75a 54bd 3bf7 2a3e ab0f c13d
000001b0: 7166 bebc 785a bb3c 52d2 073e a331 59bd
000001c0: b400 b8bc 4f28 20bb 882c cdbd eeab b33d
000001d0: 0c0a b03c 9869 c8bd a175 3f3d 1a6f 1f3c
000001e0: 838c 8f3d c57b 85bc 75b5 55bd 834b 2d3e
000001f0: 7b95 e73c 229b 9a3c 7fd9 17bd 1f10 2d3e
00000200: a9dd 2b3d 9087 023e dd0d 24bd 3766 c53d
00000210: e1f9 c23d 6170 233e 9278 293e d749 1a3d
00000220: 51f8 b63d d4e4 2fb8 0ba0 c4bd 7fd5 1b3e
00000230: f638 a33d 60c8 d23d 5713 793d 8539 d23d
00000240: d5a8 1abe 6cfe a6bc 63ed fb3d 79f6 873d
00000250: bef4 333e 7805 1abb 3742 0abe 875d 0bbe
00000260: bc63 b43d 4cda b0bd 3d80 08bd 6b98 c1bd
00000270: ac3c 823d 3e05 cabd 24a1 6b3d 949b a0bd
00000280: f365 cbbd 1dd4 c1bd 6696 b3bd e9dc 1abe
00000290: 5295 f6bd 5c43 873c af11 2a3e 9229 a239
000002a0: 41a0 893d 289a 8e3d 342c ff3d 5700 f7bd
000002b0: 08e9 38bc 91a7 20bd b905 c63d ce4b f4bd
000002c0: f2bb c6bc db0b 20bc a5db 263e 4372 ca3d
000002d0: 6298 a6bd a3d4 9b3c 0e49 27be 5a9f 93bd
000002e0: c60a c2bd c34f ed3c 3713 ab3c 0889 52bd
000002f0: 8a63 a8bd 98c5 41bc ab9d 823d b247 6dba
00000300: 702b bcbd 90bb ef3c 9f1f e0bc 589f bdbd
00000310: aff2 bb3d ec51 8b3d dff2 e1bd 07e7 13be
00000320: f730 083d 7cda c33d 89a6 cabc 71f1 ba3d
00000330: 28b8 cabd bc62 aa3c 47b6 c6bd 6aea f23d
00000340: 011b c83d ef66 62bd 8457 4e3e 0738 f23b
00000350: efe8 9e3d 0102 97bb 5ad7 2abd ae35 023d
00000360: 6f20 08be b3af d33d 81c7 ec3c de1d c0bd
00000370: 7aa8 483d 9e35 2a3e 7899 693c adda 9a3d
00000380: 4ba6 343c 20fc d23d 80fa 233d e127 153d
00000390: 7292 8abd 8fd8 c63c 62e8 f33c 7062 873d
000003a0: dc75 043d db98 2e3e 1db6 b73d 124e 843d
000003b0: cf5f bcbd 2a8c fc3d 519a 15bc 0588 a23d
000003c0: 1acc 0a3e 62c3 40bc 967a 513d f057 a03d
000003d0: b085 143e 725a 24bd 6a6f c23d e8ba 6d3d
000003e0: cb00 b93d af65 853c 247e f03a cce2 543e
000003f0: 7f87 84bd 9240 1f3e 542e adbd da9b fb3c
-0.009331675 0.04022404 0.005767136 -0.011216354 -0.024317857 -0.10336873 0.043075647 0.012269695
0.077975675 -0.08782354 0.024490336 -0.11240261 0.11425493 -0.13605647 0.07852681 -0.085706934
0.07797137 -0.0122707095 -0.16581057 -0.13066028 -0.008047892 0.052033268 -0.046672016 0.04761462
-0.14309211 -0.132302 -0.013359169 -0.13002756 -0.04015271 -0.07122111 -0.15226945 -0.13750136
-0.13253741 -0.0545585 0.036999676 -0.18867126 0.00066659204 -0.019169074 -0.08588936 0.040928118
-0.06149599 -0.046129316 0.070324495 -0.024763169 0.057367876 -0.19272694 -0.071085386 -0.08687371
0.06601962 -0.0035680078 -0.1079292 0.13215725 0.05411371 -0.057026897 -0.091037735 -0.10343996
0.031255558 0.044095974 -0.16972454 0.05819067 -0.15384714 -0.11065234 -0.061457258 -0.011735737
0.06312725 -0.041392863 0.027728211 0.02736317 -0.013411907 -0.164928 -0.07443144 -0.056890137
0.0017960104 0.09792534 -0.038418233 -0.04647347 0.034609437 -0.07501624 -0.09446469 -0.062894836
0.025950532 -0.02130025 -0.092949115 0.04086591 -0.11193243 0.050678696 0.14248261 0.09613905
0.109627254 0.036903158 -0.075600736 -0.016950019 -0.113425344 0.0514934 -0.08289618 -0.08360788
0.07252197 -0.17590086 0.00062737224 0.12615502 0.0687602 -0.0564795 0.12202499 0.097375475
-0.056602523 -0.051844504 0.16695873 0.094268166 -0.023242207 0.022870287 0.13263825 -0.053025853
-0.022461273 -0.0024438088 -0.10018259 0.08773027 0.021489166 -0.097857654 0.04674304 0.0097310785
0.07009222 -0.01629437 -0.052175004 0.16923337 0.02826952 0.018872801 -0.037072655 0.16900681
0.04195944 0.12747025 -0.040052284 0.096386366 0.09520317 0.15960838 0.165499 0.037668075
0.08934081 -4.1936364e-05 -0.09600838 0.15218161 0.07969849 0.10292125 0.06080946 0.10264877
-0.15103467 -0.02038499 0.12301137 0.06638808 0.1757383 -0.0023501795 -0.13501821 -0.13609897
0.08808085 -0.08635387 -0.033325423 -0.094528995 0.063592285 -0.09864281 0.057526723 -0.07842174
-0.09931555 -0.094642855 -0.087689206 -0.15123333 -0.12040199 0.016511612 0.16608308 0.0003093002
0.06720019 0.06962997 0.12459603 -0.12060612 -0.011286028 -0.039222304 0.0966906 -0.11928521
-0.024259541 -0.009768452 0.16294725 0.09885075 -0.081345335 0.019022292 -0.16336462 -0.07208128
-0.09474711 0.028968697 0.020883186 -0.051400214 -0.082221106 -0.011826895 0.06377729 -0.0009051516
-0.091879725 0.029264241 -0.027358828 -0.09258908 0.091771476 0.06802735 -0.11032652 -0.14443599
0.03324982 0.09563157 -0.024737613 0.091280825 -0.09898406 0.020799033 -0.097027354 0.11861117
0.097707756 -0.055273946 0.20150572 0.007391933 0.07759272 -0.004608393 -0.04170928 0.031789474
-0.13293622 0.10336246 0.028903725 -0.09380697 0.048988797 0.16622016 0.014257781 0.0756124
0.011025975 0.10301995 0.040033817 0.036414985 -0.067662135 0.024273185 0.029773895 0.06610572
0.032338962 0.17050497 0.08970282 0.06460203 -0.091979615 0.12331422 -0.00913103 0.079361
0.13554421 -0.011765333 0.051142298 0.07829273 0.14504123 -0.040125318 0.09493907 0.058039576
0.09033354 0.016283838 0.001834814 0.20789641 -0.06471156 0.15551975 -0.08456102 0.030713964

features.layers.1.logic.2.layer.0.mlp.0.bias f4 [8]
00000000: 697f 23be 00b6 ab3d 449b 273d 9c26 0e3d
00000010: 2aed 883a 4378 a1bb 4950 5dbe eac9 b53d
-0.15966572 0.08384323 0.040919557 0.03470479 0.0010446657 -0.0049276664 -0.21612658 0.08876403

features.layers.1.logic.3.layer.0.mlp.0.weight f4 [8, 48]
00000000: ae84 3a3e 473e c53d 1167 933d 485c b03d
00000010: 775d 973d 7b34 133c 6e90 8e3c 22c4 9b3d
00000020: 0ef3 e7bc 2ed9 ca3d f1d2 a23d aa18 eabd
00000030: f271 603d 403e acbb 7d0c 84bd 5bdc df3d
00000040: d412 263e a349 afbc dd08 1b3e 648c c03d
00000050: 6db6 8e3d cfc1 1c3e 87d7 a73d ca66 2d3d
00000060: 9b79 3e3c 0026 a13c fc80 113e f8fd b4bb
00000070: 359a 88bd f422 7f3d 225d c23c 0f85 a8bc
00000080: 518a 27bb 54aa 97bd 9b1b f63d 5d8b 77bd
00000090: f0df eb3d 217d 9f3d 6833 72bd 2d9a d13d
000000a0: 10c4 fc3d e1b0 043e a283 e4bc 716a 32bc
000000b0: c90c 903d 970e 6c3d a2a9 d33d 16bd 0dbb
000000c0: ba60 3cbd 64f3 993d cc89 fe3d d813 cf3c
000000d0: 9670 0ebd 7b05 8e3d c433 103e 905f 703d
000000e0: c75d d13b 76f4 f53b 3187 c5bd 355e 283e
000000f0: 0561 753d 286a 013c 322d 0abd acb1 afbc
00000100: b248 00be 11c0 08be f2f3 363a c1bc 42bd
00000110: 4aa3 eb3c 8790 aebd e958 173d 1a82 013b
00000120: 1e7c e03d a812 0b3e 2ec3 dc3d 91e2 21be
00000130: 2242 b7bd 1613 8f3d 51a4 eb3c d8b4 8bbc
00000140: 19f6 ddbd c969 0b3e a799 6cbd 7a2f ab3d
00000150: 95fe 96bd a14f 153c 421b d8bc 27dc 77bd
00000160: 18e5 c2bd 6cab 10bd 81d8 e0bd 5eba 06be
00000170: 2788 7abc a155 cd3c e5a5 d9bd ed61 b83c
00000180: 67b6 10bc 59ab dcbd a7e6 4cbd b5d4 aa3d
00000190: 50ff a1ba d0f4 ae3d 81be 083e c178 043e
000001a0: cf7a 50bd 4f86 bebc 7e4b c33d 0858 d53d
000001b0: cb72 8abd 2042 b0bd 8d2c cc3d a9dc 8a3d
000001c0: 0fbb 223d d2ed c63c 4b3b 723d 1111 9ebd
000001d0: 2097 823d 6698 bc3d 0971 8bbc 86ee 503d
000001e0: 1838 203e 237d e9bc e4af 473d d5c6 a33c
000001f0: c5ea c83c cd8c 3e3d 83f0 ff3b 7cbe 913d
00000200: bd90 15bd 6085 bcbd be2f f9bd 180d e53d
00000210: 2023 21be 3972 43bd c5a7 a93b 561b bf3c
00000220: b19c 1d3e a712 cdba 184a 08be 201b cf3c
00000230: baec 35bc a2a7 de3d efa5 f63d bf3f 6e3d
00000240: c8b3 8f3c b771 d1bd f817 eabd 27a2 9fbb
00000250: f15d 83bd a135 743d 75fd 0e3e 3f50 833d
00000260: f70f 923d ccd9 48bd a9af 803d a69e 00bc
00000270: ad46 cb3d d594 2c3e 02f4 4abd f585 123e
00000280: f06f 853d 7360 12bc a753 92bd 8627 b6bc
00000290: 7487 a6bd 876c 863d f94e 2f3d 01d6 a1bd
000002a0: 9345 303e 066a 083e 46a6 fd3d 60c0 2d3d
000002b0: 0222 5a3c f780 413e 8ef4 0a3e 2d4e 2f3d
000002c0: a345 c43d a050 a7bd 73d9 b23c cdb0 fbbd
000002d0: 0f9b 03be 26b8 f63b 4507 00be 1e8c 9dbd
000002e0: 0fb5 e53d 9bb0 01bd 89ad 023d 82d2 8abd
000002f0: b425 29bd a6f8 9fbc beab 97bd 7f28 283e
00000300: 4bb3 6a3c d17e 47bd 2ebd 67bd 3ab4 df3d
00000310: b12f aebd 83b0 0b3e 5313 83bd 87c6 113d
00000320: e5a0 163d 06a9 30bd 7716 513d e529 393d
00000330: e560 1d3d 2547 17ba 1443 f43d 3517 12bd
00000340: 5af4 b2bd a25c 8fbc 4113 b4bd c621 ae3d
00000350: 69cf 593d 9473 1a3e 11c6 033e 6e9c afbd
00000360: 8e74 a33d c2a3 eebd 75ff 0fbd 588d 06bd
00000370: 7567 143d d594 0cbc 8729 04be f14c 9ebd
00000380: d945 4bbd 72a5 0abe b9b5 d93c 9d23 a53d
00000390: 2a17 6abd c9e1 c0bc eb28 a23d ed84 e6bd
000003a0: 5a8e 91bd 1992 ff3d 6800 893d 7ac2 0dbd
000003b0: 661f 07bc 3355 5f3c 5f34 763d c1de 8d3d
000003c0: 554e 91bd b6f9 ec3d 88e9 373d cf53 dabd
000003d0: 3acb a43d 1e1e f2bc 42bf 9e3d a967 f03d
000003e0: 312b fc3d 198a ed3c 4160 f5bc 06df a33d
000003f0: a8b5 3fbd bf75 d83d 67ae f13d 0c50 d1bd
0.18214676 0.09631019 0.07197393 0.08611351 0.07390874 0.00898468 0.017402854 0.07605769
-0.02831414 0.09904705 0.0795039 -0.114304855 0.054796167 -0.005256444 -0.064476945 0.10930701
0.1621812 -0.021397417 0.151401 0.094017774 0.06968389 0.15308307 0.081954055 0.042334355
0.011625673 0.01967144 0.1420936 -0.0055234395 -0.06670038 0.062289193 0.02372605 -0.02057126
-0.002556462 -0.074055344 0.12016984 -0.06043564 0.11517322 0.07787538 -0.059131056 0.10234485
0.123420835 0.12958099 -0.027894799 -0.010889635 0.070336886 0.0576311 0.10335089 -0.0021627597
-0.045990683 0.07517126 0.124286264 0.025278017 -0.03477534 0.06934639 0.14082247 0.058684886
0.006389353 0.0075059487 -0.09644926 0.16442187 0.05990698 0.007898845 -0.033734508 -0.021447025
-0.12527731 -0.13354518 0.00069790997 -0.04754329 0.028764386 -0.0852366 0.036950026 0.0019761384
0.109611735 0.13581336 0.10779415 -0.15809084 -0.08948161 0.06986062 0.028764876 -0.017054006
-0.10837955 0.13614573 -0.05776372 0.08358665 -0.073727764 0.009113223 -0.026380185 -0.060512688
-0.095163524 -0.03531973 -0.10978795 -0.13157031 -0.01529125 0.025065245 -0.10627345 0.022507632
-0.008832551 -0.107748695 -0.050024655 0.08341352 -0.0012359414 0.08542788 0.13353921 0.12936689
-0.05089837 -0.023257403 0.09535883 0.10417181 -0.06760176 -0.08606362 0.09969435 0.06780369
0.039729174 0.024283323 0.059138577 -0.07718099 0.06376481 0.09208755 -0.017021673 0.051008724
0.15646398 -0.028502053 0.048751727 0.019992271 0.02452601 0.046520997 0.0078106537 0.0711641
-0.036514986 -0.09205127 -0.12167309 0.11184138 -0.15736055 -0.047716353 0.0051774704 0.023328464
0.15391804 -0.0015645818 -0.13309515 0.025281489 -0.011103803 0.10871817 0.12043368 0.05816626
0.017541781 -0.102267675 -0.11430353 -0.004871625 -0.06414402 0.059621457 0.13963874 0.0641179
0.07131951 -0.049035832 0.062835045 -0.007850325 0.0992559 0.1685365 -0.04954911 0.14308913
0.06515491 -0.008934128 -0.07144862 -0.022235643 -0.081313044 0.06563669 0.042799924 -0.07902146
0.1721404 0.13321695 0.1238523 0.04241979 0.013313772 0.18896852 0.13569853 0.042799164
0.09583595 -0.08169675 0.021832203 -0.122895814 -0.12852119 0.0075292764 -0.12502773 -0.07692741
0.11216175 -0.031662565 0.031903777 -0.067784324 -0.041295722 -0.019527745 -0.07405804 0.16421698
0.014324973 -0.048704926 -0.0565769 0.10923047 -0.0850519 0.13641553 -0.0640017 0.03558972
0.036774535 -0.043129943 0.051046815 0.04520597 0.038422484 -0.0005770794 0.11926857 -0.035666663
-0.087380126 -0.017500225 -0.08792735 0.085025355 0.053176317 0.15083152 0.12868525 -0.085747585
0.079812154 -0.11652328 -0.035155732 -0.03284964 0.036231477 -0.008580406 -0.12906466 -0.07729519
-0.04962716 -0.13539675 0.02657591 0.08063433 -0.057150997 -0.023545163 0.07917961 -0.11255822
-0.071072295 0.12479038 0.066895306 -0.034609295 -0.008247232 0.013631153 0.06010854 0.069272526
-0.07095019 0.11571066 0.044900447 -0.106605165 0.08046575 -0.029555377 0.07751323 0.117385216
0.123129256 0.028996514 -0.029953124 0.08001523 -0.0468041 0.10569333 0.11800843 -0.10220346

features.layers.1.logic.3.layer.0.mlp.0.bias f4 [8]
00000000: 69e7 aa3d b077 ecbd 9b2e 7abc 3543 8ebc
00000010: 27be 3fbd 0db4 26bb 8646 163e 7dac 833d
0.08344919 -0.11546266 -0.015269901 -0.017366031 -0.046812203 -0.0025436908 0.1467534 0.06429384

features.layers.2.logic.0.layer.0.mlp.0.weight f4 [8, 66]
00000000: 7632 8ebd f8f8 003e 956f 083e b0e2 a53d
00000010: 3bc4 cc3b 1ad2 ce3c 417e ef3d f82c 14bd
00000020: 0bb2 92bd ddd4 e63d 25e3 febc b135 773b
00000030: 80ba 173e e1b8 ab3d 1845 823d 136d 0c3c
00000040: f23a 043d ae51 d43d 10c7 7c3c baab 553d
00000050: 5ec3 9a3c cd6a edbb 74e6 df3c 11ca 113e
00000060: 25b1 f73c d4a6 353d 3967 063e 0cb6 b1bb
00000070: f141 a03d b74f 033e c4d2 8cbd 46b0 493d
00000080: 7379 193e e94e 143e ab53 3b3c 83b9 8abd
00000090: 9476 71bc f244 35bd 406a 83bd 7ee4 a6bd
000000a0: 3f40 1e3e 3e40 583a 1a97 63bd 2e11 86bc
000000b0: 296e 943d 09c5 153e b71b a83c 2cdb ec3d
000000c0: 4949 63bd f5ea 733d 5505 9b3d 80d8 8cbd
000000d0: 6ae0 30bd 409d 7fbd 81c1 c43d cf24 493d
000000e0: 1577 933d 5320 183e 6aa5 533d ad2f 323e
000000f0: 4073 0ebb 4fab 033e ce58 353d b903 a13d
00000100: 4dfa 943d 0755 cf3d 0123 56bd b4c7 b33d
00000110: 9d37 bb3d 6847 bd3d 15b4 cc3c 412c 2ebd
00000120: a06b b13d b192 bd3d df88 7b3d 4b1b 913d
00000130: 10f1 983d 0a4e e33d 4066 6dbd 41eb 003e
00000140: ab0b f13d dd1c 92bd 054c d53c 38a8 303d
00000150: a200 39bd 7d92 d73d f93c 82bc 59fe 2abd
00000160: e808 213e 3be9 903d ef76 193e 213d bd3d
00000170: 3e76 fabb 3116 ba3d e813 0d3e eea6 64bd
00000180: ab99 f03c 41a5 113e c9fe d23c e72b d73d
00000190: ce06 1d3e c895 843d 3514 c93d 1f1e 88bd
000001a0: fbb1 6f3d 41c5 e63d 4eb6 043e 03ea 013e
000001b0: d6d3 2ebd 4262 dbbc 8377 543d 50ff 0d3e
000001c0: 213c 223c 77d3 81bd 6d01 09bd 3b37 db3c
000001d0: b09d 8abd f40b 75bd 3b0a 043e ac22 fb3c
000001e0: 2b23 383d 8059 d6bc 070f 7a3d 8c41 31bd
000001f0: 08a1 f73d b506 a73d ad7c 933d d36e afbd
00000200: fe33 c33d 18d0 80bb be81 d83c ba0e d63d
00000210: 2bf5 513d 6d61 23bd 0d0b d43d c109 cbbd
00000220: 30fc a7bd c859 e83d be64 913c 0caf 50bd
00000230: 1709 c83c f289 d23c 687b 083e f629 9cbd
00000240: 1022 8bbd 2cf0 0e3e 2e76 09bb 6665 81bd
00000250: 020d bb3b bb02 c53d f070 f93d b16c 113d
00000260: 589c 083e c4cf 27bc 2a2d 7e3d 19f3 9e3d
00000270: 4468 693c 635c f83d 6328 3dbd c61e 8ebd
00000280: 2fc0 5bbd 4dd2 6d3c b136 f7bc ec29 183e
00000290: 5153 ec3d 27c0 c3bb 61c8 e63d b337 75bc
000002a0: 17c0 a6bb aca3 e03d 1fce 813c 746c ad3d
000002b0: 47e5 373d 9030 683c 9c98 93bd a846 133e
000002c0: d441 5abd e959 853c 5147 10bd 58f2 0a3d
000002d0: 6172 1b3d e8e6 c83d ef2c 74bc 3a5a 89bc
000002e0: d68d dc3d ccc1 c53b b809 a93d b9e2 c03d
000002f0: df51 72bd ff62 b3bb eba5 153b 932b 0d3e
00000300: e79c a0bd 3a22 05bd 05b3 bc3d 53b9 233e
00000310: a3b5 ae3d 2f6e 023e 4c93 f8bd 5201 9dbd
00000320: 241f 17bd db1d f5bd 8b30 efbc ac44 44bd
00000330: 19e6 043d 0366 24bc e74d abbd 6412 7b3d
00000340: 938d 65bd 49bf f33c d126 f23b d98c 19bd
00000350: 788e 903c d802 e4bc 5cbe 9cbb 9105 0bbe
00000360: 5dc1 b2bc 0581 2bbd 5575 a03c 03fe 143d
00000370: 1fb5 9e3d 636b 0cbe 1d67 74bd 16e6 0abe
00000380: 550f b0bd b46f b33d 5494 01be 9b09 b7bb
00000390: 1d18 b1bd 70be 923d 72ca 0bbd f63f d8bc
000003a0: c7b7 65bc 63ad b93d 199f 22bd a587 073d
000003b0: b6ed 15be bb5a 37bc 0f16 7abd 651d 8b3c
000003c0: 55e1 8c3d 634b ae3d d8d5 8f3d 2f84 423d
000003d0: ae76 d9bd 2b09 8b3b ccd0 813d d40e 873d
000003e0: 2f0b b6bd 57d7 8ebd 16d5 553d af15 c5bd
000003f0: 0c14 313d 49f1 24ba e2e0 9cbd 8566 723c
-0.069432184 0.12594974 0.13323815 0.08099878 0.0062489784 0.025246669 0.11694003 -0.036175698
-0.07162865 0.11271069 -0.03111417 0.0037721212 0.14817238 0.08384872 0.06360835 0.008570927
0.032282777 0.10367142 0.01542832 0.052165724 0.018891986 -0.0072453977 0.027331568 0.14237238
0.030235836 0.044348553 0.13125314 -0.005423313 0.07825077 0.12823378 -0.06876138 0.049240373
0.14987735 0.14483227 0.011433522 -0.06773665 -0.014737744 -0.044255204 -0.0641675 -0.0814905
0.15454195 0.0008249319 -0.055564024 -0.016365614 0.07247574 0.14625944 0.020521028 0.11565241
-0.055489812 0.059550244 0.075693764 -0.068772316 -0.043182768 -0.062405825 0.096072204 0.04910737
0.072004475 0.1485608 0.051671423 0.17401 -0.0021736175 0.12858318 0.044274144 0.07862038
0.072743036 0.101236396 -0.052279476 0.08778325 0.09141467 0.09242135 0.024988214 -0.042522673
0.08663106 0.09256495 0.061409827 0.07085284 0.07467854 0.11098869 -0.05795884 0.12589742
0.117698036 -0.071344115 0.026037225 0.043129176 -0.04516662 0.10525987 -0.015898215 -0.04174647
0.15726054 0.07075735 0.14986776 0.09240175 -0.00764349 0.09086264 0.13777125 -0.05582326
0.02937015 0.14223196 0.025756257 0.105064206 0.15334627 0.06473881 0.09818307 -0.0664637
0.058519345 0.11268092 0.12960169 0.12686925 -0.04268249 -0.026780251 0.051871788 0.13866925
0.009902031 -0.06339162 -0.033448625 0.026759734 -0.06768358 -0.059825853 0.12894528 0.030656181
0.044955414 -0.026165724 0.061049487 -0.0432754 0.12091261 0.08155576 0.072015144 -0.0856606
0.09531401 -0.0039310567 0.026429053 0.104520276 0.0512592 -0.039887834 0.1035367 -0.0991397
-0.08202398 0.113452494 0.017748233 -0.050948188 0.024418397 0.025700543 0.13328326 -0.07625191
-0.06793606 0.13958806 -0.0020974982 -0.06318168 0.0057083378 0.096196614 0.12179744 0.035504047
0.1334089 -0.010242406 0.06205479 0.07761211 0.01424605 0.12126996 -0.046181094 -0.06939463
-0.053650077 0.014515472 -0.030177446 0.14859742 0.11539329 -0.005973834 0.11268688 -0.014966893
-0.005088817 0.10968718 0.015845357 0.084679514 0.04489639 0.014171734 -0.07206842 0.14382422
-0.053285435 0.016278224 -0.035224263 0.033922523 0.037950877 0.09809667 -0.014903291 -0.016766656
0.107692406 0.0060350653 0.08253807 0.09418244 -0.05916011 -0.0054744477 0.002283449 0.13786153
-0.07842427 -0.032503344 0.09213833 0.15988664 0.08530738 0.12737344 -0.1213747 -0.076662675
-0.036894932 -0.11968585 -0.029197952 -0.047917053 0.032446 -0.010034087 -0.08364468 0.061296836
-0.05604322 0.029754298 0.007389881 -0.03748784 0.01764606 -0.027833387 -0.004783435 -0.13576342
-0.021820718 -0.04187109 0.019587198 0.036375057 0.0774939 -0.1371284 -0.05966865 -0.13564333
-0.08596674 0.0876154 -0.12654239 -0.005585862 -0.08647177 0.07165229 -0.034128614 -0.026397686
-0.014020867 0.09066274 -0.03970251 0.033088345 -0.14641461 -0.011191065 -0.061056193 0.01698179
0.06878916 0.085104726 0.07023209 0.04748934 -0.106183395 0.0042430363 0.06338653 0.06594625
-0.08888852 -0.069746666 0.052205168 -0.096232764 0.04323201 -0.0006292058 -0.076600805 0.01479495

features.layers.2.logic.0.layer.0.mlp.0.bias f4 [8]
00000000: 195b c73d acb6 463d e52a f5bc ed12 e1bd
00000010: d3da 8b3d e64c 193d a352 553d 166f 683d
0.097341724 0.048514053 -0.02992768 -0.10989938 0.06828847 0.03742685 0.05208076 0.056746565

features.layers.2.logic.1.layer.0.mlp.0.weight f4 [8, 73]
00000000: be45 08be 07a3 bbbd 6c84 01bd f5cd 813c
00000010: 27f3 12be 1db7 4bbd e76e 9cbc b3fd f1bc
00000020: dee9 46be 010d 6fbd 22f9 43be 1a92 87bc
00000030: 2740 4dbe 942c 9fbd 4c99 27bd 86f5 96bd
00000040: 5a75 35bc 7bd0 1abe 1737 8dbc 5758 bf3c
00000050: 24ed 84bd 2210 05bd ef84 813d fcce 8b3c
00000060: c077 9ebd 1b13 e43a 1dfb 58be 7acb 293c
00000070: a9e8 77ba 27f5 16bd f047 743c c6de 09bd
00000080: 0b37 26bc 58dc 66be ccc9 9abd 33d3 cf3d
00000090: 254b 163d 81d5 11be 4c8c dc3c 7351 23be
000000a0: 8ad9 edbd c691 10be d165 0ebe 7907 f0bd
000000b0: af30 7dbc bb92 d4bd 600d 41bc 0120 22be
000000c0: 9bf4 01be 4108 babd 0cae 83bc cfd6 d9bc
000000d0: 7ae3 b93d 978b 0fbe 439f 1d3d 8915 973d
000000e0: da42 a03d e767 06bc febd 92bd 6af4 46bc
000000f0: 77b9 02be 1913 33be 4b72 35bd 7c73 efbc
00000100: d3e3 593d a28f 28be 3d95 e3bd 5ad8 4fbe
00000110: 6a0b fdbd 6cf7 263d 4c93 d83c 76fa 90be
00000120: 9f1a 1dbe 647e c53c 9c09 02bc a32d 54be
00000130: 061b c5bd 8e04 b8bd 322c b6bd 7099 3dba
00000140: 2040 e3bc 15a5 b83c 5159 9bbc 7b6d 2cbe
00000150: 1e38 a63d 8d7e 1dbe 5ed9 e7bd a36e 27be
00000160: 5b69 843b 0fb7 8c3d 62af 8cbc c038 b7bd
00000170: b52b 8fbd 23c3 2b3c b3c9 66bd 1dca 53be
00000180: efba 84bc a3cf 88bd d066 d8bd ca9a 883b
00000190: 6f58 4e3d e51d 303d ee3c b63d 23f5 5fbd
000001a0: df4b 53bd 774a 473d 26e0 4fbd eddb 03be
000001b0: b99d 573d 9e75 24be da61 163d 39bb bd3c
000001c0: 7935 1dbe 0bf3 72bc 5f73 babd 95af 0ebe
000001d0: f22d 41bd 97cc c43d 834a 05be 7938 f7bc
000001e0: cd9d 2ebe 45d4 99bd 64ad 5cbc 0d86 83bd
000001f0: d8e8 91bd 0fae 7d3d f162 88bd d4fd 083a
00000200: 0c28 2e3d 8057 c9bd f5c5 e03d 0462 f93d
00000210: 56dc c23b a159 cbbd bf5a 64bc 75b0 f0bd
00000220: 0616 e93c c7b7 05be 2c71 2abe 349c 173d
00000230: dfdb 3ebc 0252 36be ee4a 833c f0b9 80bb
00000240: 4b15 a6bd 8f60 84bd 0c01 183d 79c2 3abc
00000250: e618 3bbe 4b0a 27bd d4c5 80bd 06f1 25be
00000260: 517b 88bd b12d de3c 0bb4 cdbc 0eb0 d9bd
00000270: 64d0 52be ff44 83bc 7835 c3bd d695 02be
00000280: e54e 04be cfc4 5abd 0711 97bd 91d9 85bd
00000290: 675c 5d3c 730d 10bd 1fb0 6abd 0f8c 00be
000002a0: 5d41 01bc 2759 68bc 4da3 033d d129 0dbe
000002b0: 48b2 1dbe 1589 6a3c 2ef6 103d a9fb 6c3c
000002c0: 303f 85bd dc23 e3bd 1319 613d a10c 34bd
000002d0: adb8 cf3d 0abd 82bd d5bb fdbc d79e cabd
000002e0: ab58 98bb 951b 07be 757c 2cbe 8798 82bc
000002f0: 071b 953c e795 fabd 9e79 10be ddc8 bb3d
00000300: 44c3 b33d 991e 843d 03af 153e 7c49 32bd
00000310: 3171 803d 4f18 04be b869 2dbd 304a 46be
00000320: bbad 3e3d 1d37 283d cec6 b53d 8025 8e3d
00000330: 0a78 7a3d 4f5a 23bd 3588 f2bd b09f 48bd
00000340: 8110 bebb facb be3d f66e 413c 8db4 b2bd
00000350: e6b5 d8bd 4954 c6bd a6a1 18bd 7736 aa3d
00000360: d7f7 a13d 300f 13be cb5f 30be f9ff b93d
00000370: 1638 c1bb 14f7 103d e35a 87bd 3f90 013d
00000380: 84f4 a93d ad1c 89bd fccd 41bd 6a90 95bc
00000390: 86c3 67bd 5c07 7d3d de0d cbbd ec70 8b3d
000003a0: 83d8 723d b22f 2b3e 82bc f83c b16b f93d
000003b0: 864e 23bc 3a79 923d 0c87 e93d f65d 3f3d
000003c0: 1f97 483d 4528 a43d 0be0 bb3d c1c6 a2bd
000003d0: 30b5 f83d 70d3 b73c 2087 b2bb e4f5 d9bd
000003e0: 4f83 fc3d d911 f63d b6bc 5c3d d8ee 303d
000003f0: 54e2 9abd 42c4 1abe 3351 9bbd 85ab 05bd
-0.13307855 -0.091619544 -0.031620428 0.015845278 -0.14350568 -0.049735177 -0.019095851 -0.029539919
-0.19425151 -0.05836201 -0.19138005 -0.016549159 -0.20044003 -0.077721745 -0.04091768 -0.07371049
-0.011075342 -0.15118591 -0.017238183 0.023357553 -0.064905435 -0.03248609 0.06324183 0.017066471
-0.07737684 0.0017400713 -0.21189542 0.010363454 -0.00094569713 -0.03685489 0.014909729 -0.03365972
-0.010144959 -0.22544992 -0.07558021 0.10147705 0.036692757 -0.14241602 0.026922368 -0.15949039
-0.11613758 -0.14118108 -0.13906027 -0.11720175 -0.015453502 -0.10379549 -0.011782974 -0.15832521
-0.12690966 -0.090836056 -0.016074203 -0.026591687 0.09076591 -0.14018093 0.038481962 0.073771544
0.07825251 -0.008203483 -0.071651444 -0.012143234 -0.12766062 -0.17487754 -0.04429845 -0.029229872
0.053195786 -0.16461042 -0.11112449 -0.20297375 -0.12355693 0.040763304 0.026437424 -0.28316087
-0.15342186 0.02410812 -0.007936861 -0.20720534 -0.09624295 -0.08985244 -0.08895148 -0.0007232642
-0.027740538 0.022539655 -0.018963488 -0.16838638 0.08116172 -0.15380307 -0.113207564 -0.16350798
0.0040408797 0.06870853 -0.017173473 -0.08946371 -0.06990758 0.010483536 -0.0563447 -0.20682569
-0.016202418 -0.066802286 -0.10566485 0.004168843 0.050377306 0.04299726 0.0889834 -0.05467714
-0.05158603 0.048655 -0.050750874 -0.12876864 0.05264065 -0.16060492 0.036714412 0.023160564
-0.1535243 -0.014828454 -0.091040365 -0.13934167 -0.047162957 0.09609335 -0.13016705 -0.030178295
-0.17052384 -0.0751119 -0.013469074 -0.064220525 -0.071244895 0.061933573 -0.066594966 0.00052258116
0.04251866 -0.098311424 0.10975257 0.12176898 0.0059466762 -0.09929205 -0.013937651 -0.117524065
0.028452884 -0.13058387 -0.16644734 0.0370142 -0.011649101 -0.17804721 0.01602694 -0.0039284155
-0.0810953 -0.064637296 0.037110373 -0.011398905 -0.18271217 -0.0407813 -0.06287733 -0.16205224
-0.06664146 0.027121397 -0.025110265 -0.10629283 -0.20587307 -0.01602411 -0.09531683 -0.1275247
-0.12920721 -0.053410348 -0.073762946 -0.06535638 0.0135108 -0.035169076 -0.05729687 -0.12553428
-0.007889119 -0.014181412 0.032138158 -0.13785483 -0.1540004 0.014314909 0.035391025 0.014464297
-0.06506193 -0.11090824 0.054955553 -0.043957356 0.10142646 -0.063837126 -0.030973354 -0.098935775
-0.004649242 -0.13194115 -0.16844352 -0.015941871 0.018201364 -0.12235623 -0.14108893 0.09169171
0.08777478 0.064511485 0.14617543 -0.04352711 0.062715895 -0.12899898 -0.04233715 -0.19364238
0.0465524 0.041068185 0.088758096 0.06940746 0.061149634 -0.039881047 -0.11842386 -0.048980415
-0.0058003073 0.09316249 0.01180624 -0.087258436 -0.105815694 -0.09684045 -0.037263535 0.083111696
0.079086 -0.14361262 -0.17224042 0.09082026 -0.0058965785 0.035391882 -0.06609132 0.031631704
0.08298591 -0.066949226 -0.047315583 -0.018257339 -0.05658295 0.061774597 -0.09914754 0.068086475
0.059288513 0.16717413 0.030363325 0.12178744 -0.009967452 0.071520284 0.11402711 0.046720468
0.048972245 0.08015493 0.09173592 -0.079480655 0.12143934 0.022439688 -0.005448237 -0.10642603
0.123297326 0.12015123 0.053890906 0.04319653 -0.075627 -0.15113929 -0.07583847 -0.032634277

features.layers.2.logic.1.layer.0.mlp.0.bias f4 [8]
00000000: 53e7 43be 65c1 20be 7054 34be cbf6 9b3c
00000010: a593 273d 57d5 7fbd b28e 0a3e 58a5 2fbe
-0.19131212 -0.15698774 -0.17610335 0.019038578 0.04091229 -0.062459316 0.13530996 -0.17152917
