models_every10epochs/checkpoints/checkpoint_30.pth (torch, 178410 bytes, 101 tensors)

features.layers.0.logic.0.layer.0.mlp.0.weight f4 [8, 18]
00000000: f3e0 b0bc 4608 1fbd 9bcc aebd 5fec f2bd
00000010: 473b 3cbd 356c 223e 6c37 d9bc 01fe c3bb
00000020: 918a 403b 6719 413c e559 113e f452 dfbd
00000030: b560 7bbe 6ddd 5a3d fea7 29be 3ac8 18bd
00000040: 261f 66be 7081 4d3d ff5c 033e 14e1 093e
00000050: 0a7b 00be ae11 483e 3f42 873d dfe1 b6bd
00000060: 5967 d73d 17fa 2a3e 5111 6f3e 9228 94bd
00000070: 3cb6 0c3e 0983 2dbe 10fa 0c3d ca77 83bd
00000080: 34b1 14bc bb5f d0bd a2d9 1fbc 3735 563c
00000090: a902 2a3e f95f c7bd 1fd8 f23d 4373 873e
000000a0: c948 483c 88b8 1d3e 7cec 283d ebeb 473d
000000b0: 395c 083e fb0d 3f3e 9321 b23d ab35 a73e
000000c0: 968b 5fbd c546 143e 0a19 1b3e 04d5 b33e
000000d0: 7e9c b4bd 8051 063e c718 153e e485 0b3e
000000e0: 1380 e03d ab33 56be 3b29 6fbe 04f3 b83d
000000f0: 1f44 6bbe e8c2 1f3e 5fb1 7ebd 4b51 1d3e
00000100: c4e4 723d d221 40bc 177e 82be 2373 143e
00000110: 7226 04be 202e 143e 7bb3 8abd aa0f 223d
00000120: e309 dd3d a719 f1bc 594b 293e bdfc 873e
00000130: c21c 933e 70c9 ae3d e1fa 583e 3ecc 8dbd
00000140: 4ce1 38bd 59c5 5b3e 6bab 75bc b840 c93d
00000150: 0ca4 a4bd 1320 723e 04a2 bd3d c9af 5b3e
00000160: 8618 4d3e 9709 5e3e 791d 05be 390f b83d
00000170: d726 103e c855 56be 8bc9 e6bb b2ae 89be
00000180: 703e afbd e9c2 c1bd 7686 6abe 380f 30bd
00000190: bff5 2e3e b23c 043e 8c11 833d fdc4 d5bd
000001a0: 6e5d 2bbe 20ff 3ebe 5496 3bbe c589 093e
000001b0: 6e71 303d 00cd 9abd 294b a03d bac4 3bbe
000001c0: 9f72 9f3d 0d6c aa3d f33b d4bd 4775 53be
000001d0: d489 1abe 0c08 e33d c2bb b73d fa34 52be
000001e0: 0844 57be c721 29be 2899 413d 31ec c03d
000001f0: 03b3 36be 5cbb 08be e10d f2bd ea4c 17be
00000200: 9a92 7e3d b30d a5bc 91a7 8b3d ef9a 323d
00000210: e8eb 10be c17c 05be 3bdf 18be 395c cabd
00000220: e16e 563d 8198 4abe 6225 53be 5951 3dbb
00000230: 990d 5ebe 1045 b7bd a09a 29bc 0d5a 383e
-0.02159164 -0.03882625 -0.08535119 -0.118614905 -0.04595497 0.1586159 -0.026515685 -0.0059812074
0.0029379467 0.011785842 0.14194448 -0.10904494 -0.2454861 0.053433824 -0.1656799 -0.037300326
-0.2247282 0.05017227 0.12828444 0.13464767 -0.12546936 0.19537994 0.06604432 -0.089298
0.10517759 0.16696964 0.2334645 -0.07234301 0.13741392 -0.16944517 0.034418166 -0.06419332
-0.009075452 -0.10174509 -0.009756478 0.013074211 0.16602577 -0.09735102 0.11857628 0.26455125
0.012224385 0.15402424 0.041241154 0.048808973 0.1331643 0.18657677 0.0869781 0.32658133
-0.05457648 0.14480121 0.1514627 0.35123456 -0.08818911 0.13117027 0.14560233 0.13625294
0.10961928 -0.20918147 -0.23355572 0.090307266 -0.22975205 0.15601695 -0.062180873 0.15363042
0.0593002 -0.011726813 -0.25486824 0.14497046 -0.1290529 0.1447072 -0.067725144 0.03956572
0.10792901 -0.029431177 0.16532649 0.26560012 0.28732878 0.08534515 0.21189453 -0.06923722
-0.045136735 0.21462001 -0.0149944825 0.09826797 -0.08039102 0.23645048 0.09259418 0.21453775
0.20028886 0.21683346 -0.12999524 0.089872785 0.14077316 -0.2093116 -0.0070430688 -0.26891094
-0.08556831 -0.09461004 -0.22902855 -0.042983264 0.17085932 0.12913778 0.06399831 -0.10437963
-0.1673486 -0.1865201 -0.18319064 0.13431461 0.043076925 -0.07558632 0.07826836 -0.18336764
0.07785534 0.0832139 -0.10362997 -0.20650207 -0.1509164 0.11085519 0.08971359 -0.20528021
-0.21022046 -0.16516791 0.0472652 0.0942005 -0.17841725 -0.13352722 -0.118190534 -0.14775434
0.06215153 -0.020148134 0.0681907 0.043604787 -0.14152491 -0.13035871 -0.14928906 -0.09880871
0.052351836 -0.19784738 -0.20619729 -0.0028887598 -0.21684875 -0.089487195 -0.010351807 0.18003102

features.layers.0.logic.0.layer.0.mlp.0.bias f4 [8]
00000000: 260c be3c 2735 853c a1eb b93d ac86 a7bd
00000010: 031e 39bd 8510 3a3e d181 a7bd 92bc 063e
0.023199152 0.016260697 0.09078146 -0.081799835 -0.045194637 0.18170364 -0.081790574 0.13157871

features.layers.0.logic.1.layer.0.mlp.0.weight f4 [8, 9]
00000000: c3a0 b23c fec5 28bd c66a e03d 17cf 643e
00000010: 0ea6 a23d 2a8c e83d 151e ef3d cf52 b73e
00000020: 80c4 663e 81e6 3f3e 52d0 6d3e 800b 693e
00000030: 44f8 e83d 1116 fa3b 7830 bcbb 0ef9 443b
00000040: 95ec 283d 7ed0 c13e b75a e9bd bee4 7d3d
00000050: 51de 993b eb36 b8be fda1 c53d ee2f 53be
00000060: c50b 8cbe dbf2 aabe b42f 14be 807d c3be
00000070: 41da bcbc dd9d b6be 709b 50be a7ee 083d
00000080: fb7d a8be 81fa 2c3e beaa b53b cf8e 473d
00000090: a9fe 563e db54 c6be a7d9 2abe 7d09 a5be
000000a0: cebc c5be f99b 90bd 47de 76bb 4107 8d3d
000000b0: cd9c a33d 8e75 86bd 6932 da3d 042b 7c3e
000000c0: cbd8 1cbd 85a9 4a3e 84ca 8e3e 9157 253e
000000d0: b8f9 693e aabf 1ebe a785 613e bc8c 6c3e
000000e0: 04e9 713e f2f6 d4bd be6e 9abd 20a7 4b3e
000000f0: 6cce 4d3c db96 063d 4284 8d3e 4ebf 69bb
00000100: e545 88be 99f3 7abe 34bb 3cbe 39ca b6bd
00000110: 6996 4a3e 9907 55bd ed3d 9cbe 4b31 84be
0.021805173 -0.041204445 0.109578654 0.22344624 0.07941829 0.11354859 0.116756596 0.35805365
0.22535896 0.18740274 0.23223999 0.22758293 0.11375478 0.007632025 -0.0057430826 0.0030055675
0.041241247 0.3785438 -0.113942556 0.061985724 0.0046956916 -0.359794 0.096500374 -0.20623752
-0.2735273 -0.3338841 -0.14471322 -0.38181686 -0.02305329 -0.35667315 -0.20371795 0.03343072
-0.32908615 0.16892435 0.0055440357 0.048720177 0.20995583 -0.38736615 -0.1668459 -0.322338
-0.3862061 -0.070609994 -0.0037669109 0.06886149 0.07988892 -0.065653905 0.10654146 0.24625784
-0.038292687 0.19791229 0.27888882 0.16146685 0.22849166 -0.15502802 0.2202364 0.23100561
0.23624045 -0.103986636 -0.07540654 0.19887972 0.012561422 0.03285871 0.27639967 -0.0035667005
-0.26615825 -0.24506988 -0.18430787 -0.0892529 0.1978394 -0.0520092 -0.30515996 -0.25818858

features.layers.0.logic.1.layer.0.mlp.0.bias f4 [8]
00000000: d959 ba3e dfb8 4f3e d60c e2be e73b f2bd
00000010: 0dec bfbe ed94 b03e 57ff 123d f014 273e
0.36396673 0.20285366 -0.44150418 -0.11827832 -0.3748478 0.3448862 0.035888042 0.16316581

features.layers.0.logic.2.layer.0.mlp.0.weight f4 [8, 18]
00000000: 0307 5c3e f535 5b3e 7e69 0a3e bb50 653d
00000010: 1923 c2bd 50ac 053e 997a b53a dcec 803d
00000020: 402d 84bd 8b72 933d 7468 203e 8c3a a8bd
00000030: 87b5 183d 209b 533d 4a0c 85bd ae51 463e
00000040: 1ac5 823e 9448 47bd 55ae c3bd bcbf 083e
00000050: de2d 7d3e 4f98 b4bc b80b 7dbd 95ad a838
00000060: b968 0ebe 2cf1 b7bd b773 13be 3f52 1ebc
00000070: e175 8d3e 25d9 ce3d f768 583d 78eb 27bd
00000080: de2b 12bc fe57 4b3e 26ac b4bc 9f63 5abd
00000090: 875c ab3d f345 3abe 8645 383d 0564 9cbd
000000a0: e093 e9bd d2ac e9bd ccc4 06bd a976 2dbe
000000b0: 87c2 053e 5473 ad3d 5b0d 9fbd cdff 48bc
000000c0: 923c 67bd c5e0 eebd 5619 34bd d1bd 1abe
000000d0: 520b f33d 56e7 24bc aff7 82bd ad3e 09be
000000e0: 7896 9f3d cf7d d0bd 5e02 58bd e1b4 e1bd
000000f0: 99e4 dd3d 6e56 54be 9d5f 3a3e b404 313e
00000100: 86d8 2cbd 8865 153e 52b8 2c3e 7522 03bd
00000110: 4e0c 8abd a309 57be d9d9 193d 258b 173e
00000120: 8fed 883d 1823 14bd 82a3 f03d d6f1 2b3e
00000130: 66f4 273e 67c0 34be 0c4f 883c 0f99 03be
00000140: 12a7 61bd 6cee 4a3e 6384 47be 349c 21bd
00000150: 8c39 703d 9664 d33d b6dc 62bd df5e 023e
00000160: 640c a13d 7574 d23d ad65 973d 190e 33be
00000170: c04c 983c 4e75 debc f71f c8bd e746 1abe
00000180: 6890 3c3e c83a 213d cb99 7cbd 272a 42be
00000190: 3a48 05bd 1c80 5c3e e0c0 ebbd 3f51 7fbd
000001a0: fcd4 303d 7ee7 7e3e c606 17be 7b30 6c3e
000001b0: 323c f9bd c332 2b3d 330a 02be 9526 57bd
000001c0: 70e1 c23d 65bf a33c 15ce d03d b5e8 45be
000001d0: 4760 3f3e e103 01be bfc5 663e c686 98bd
000001e0: 49a3 243e aa3e 4b3e 884e 0b3e 661f cc3d
000001f0: efde d1bd da5f 65bd 9660 4cbe d0d8 dabd
00000200: 65c8 8d3c cb58 b2bd d3f5 dc3c 43b8 37be
00000210: eda5 1c3e 7f80 05be cd73 febc f165 c6bd
00000220: 58e8 91bd ffe7 9cbd ff9d f7bd 9a4c 71be
00000230: 3232 633d d7b7 50be 9953 613d d759 0dbe
0.2148705 0.21407302 0.13516805 0.055985194 -0.094793506 0.13054013 0.0013845741 0.06295177
-0.06453943 0.07199582 0.15664846 -0.08214292 0.037282493 0.05166161 -0.064964846 0.19367096
0.25541002 -0.0486532 -0.095547356 0.13354391 0.24724528 -0.022045283 -0.061778754 8.0431964e-05
-0.13907136 -0.08981547 -0.1439961 -0.009663164 0.27628997 0.10100011 0.052834477 -0.040996045
-0.008921592 0.19857785 -0.022054743 -0.053317662 0.083672576 -0.18190746 0.044988178 -0.07636265
-0.11405158 -0.11409916 -0.032902524 -0.16939797 0.13062488 0.08469263 -0.07766219 -0.012268019
-0.05645425 -0.11663965 -0.043969475 -0.15111472 0.118673936 -0.01006492 -0.06394898 -0.13402815
0.077923715 -0.10180246 -0.052736633 -0.11020828 0.10834617 -0.20736095 0.18200536 0.1728695
-0.04219868 0.14589512 0.16867188 -0.032015283 -0.06740628 -0.2099977 0.03756127 0.14799173
0.06685936 -0.03616628 0.11749937 0.16791472 0.16401824 -0.1765152 0.016639255 -0.12851356
-0.05509097 0.19817513 -0.19484095 -0.039455608 0.05864863 0.103219196 -0.055386268 0.12731503
0.078636914 0.10276119 0.0739244 -0.17485847 0.018591285 -0.027155545 -0.09771722 -0.1506611
0.18414462 0.0393627 -0.061670106 -0.18961392 -0.032539584 0.21533245 -0.11511397 -0.06233334
0.043171868 0.24892995 -0.14748678 0.23065369 -0.121696845 0.041796457 -0.12699203 -0.05252703
0.09515655 0.019988725 0.10195557 -0.19327052 0.1868907 -0.12599136 0.22536372 -0.07447581
0.16077913 0.19848123 0.13604176 0.09966926 -0.10247599 -0.055999614 -0.1995872 -0.10685885
0.01730747 -0.08708342 0.026972687 -0.17941384 0.1529767 -0.13037299 -0.031061077 -0.096874125
-0.07124394 -0.07661437 -0.12090682 -0.23564377 0.05546779 -0.2038263 0.055011366 -0.13803802

features.layers.0.logic.2.layer.0.mlp.0.bias f4 [8]
00000000: d7b7 863e 3326 82bd 38ae 083e b2b9 cabd
00000010: 17ea 1c3e 0031 243e 618a 113c c6cf 23be
0.26312134 -0.06354942 0.13347709 -0.098987 0.15323673 0.16034317 0.00888309 -0.15997228

features.layers.1.logic.0.layer.0.mlp.0.weight f4 [8, 42]
00000000: a9b7 79bd 0073 863d d590 043d e46c f2bc
00000010: bb1e 153e cf48 71bd 42b4 083e 6375 d23d
00000020: a9c8 3dbd aefa d8bc a37f 173e 5aad c23d
00000030: 6ab1 d73d b18d df3d 3a28 f13d f697 b5bd
00000040: 917f 163e bbef 133e aad1 a83d 342c e8bb
00000050: 224c b33d 84dd e53d 1e4d 88bd 362f 273d
00000060: ad17 193e 26c8 65bb cef5 2abd 2f2f ec3d
00000070: fdf5 ccbd 0a77 f0bc 48aa 4ebd 58d8 8abd
00000080: d0c8 cb3d eb8a db3c 479c 35bd a116 603d
00000090: cbe6 76bb fee8 7dbd c76d 843d 9334 413c
000000a0: ac84 d03b dd14 f0bc d558 2cbd 75e2 e0bc
000000b0: 7c8c 173d 3cdd fd3c 38f3 84bd af22 c33d
000000c0: 163e c5bd 9590 b8bd 2b7b ffbd 1172 e9bd
000000d0: 30c5 0bbe 6692 bd3d 0809 463d 4c50 0e3d
000000e0: 01c5 36bd f365 0f3d e9e1 8ebd 77e3 1b3d
000000f0: cabe 683d 3ebb 693c 675c 5bbd f266 84bd
00000100: fdeb 32bd 103e b53d d3ac 90bd 61f5 693a
00000110: 9960 d7bd f432 2b3d 517a b83d 13fa d4bd
00000120: 05f6 a63d cb5e 09bd 90ba 013e 0f0f 1ebc
00000130: 1f8e 243d 56c5 073e 352c edbc c214 043e
00000140: 3cd7 35bd 5621 e63c 9e2a 2abd 2975 c63d
00000150: 3946 88bd 44e9 cc3c 5bc4 9f3c 6fde fabd
00000160: 33c7 093a 91bd 933c 75f5 163e 4b4c ffba
00000170: b8da ce3d e5e2 a43c 6684 8c3d 3951 d63d
00000180: 4835 bcbd cdec acbc 4954 fa3d 6ff6 6b3d
00000190: aafe c13d 29dd 42bc 1cd8 3c3d 6503 90bd
000001a0: 34e6 a33d d723 213e edb6 b03b 9afd e0bd
000001b0: cfec 6b3d 6b43 cc3d 1ada 833d 8274 393e
000001c0: 3145 013e 1afe e2bc 3523 b23d e626 09bb
000001d0: 2211 3ebc 6671 f53d e019 e73d 4d99 b7bc
000001e0: f572 43bd bbe5 543e 732e aebd e09a bc3d
000001f0: bab0 1b3e 2713 763d 672e ef3c 9c6c 58be
00000200: 1a5e 62bd 9640 a2bc 5853 983c d075 28be
00000210: 38a8 6b3d da56 ad3d 2563 e83b 6cbe 49be
00000220: 3595 fdbd 966f 273d 38a6 45be b638 88bd
00000230: da1f 47bd 9df9 933d f706 2c3d bded 17be
00000240: 6ebd 14bd baaf 1bbe 725a d8ba b2c7 b8bd
00000250: 52dc 433c aabf 9b3c a594 00be d375 593d
00000260: a686 97bd 67e6 10bd d68d 673c e36d 5d3d
00000270: f486 2dbe e29c 1bbe f8d0 2cbd d914 04bd
00000280: 2b4f 1fbe d0e0 763c 7032 97bd a07b b2bd
00000290: af2f aebd e443 2cbe b98f d1bd a334 873c
000002a0: d4b1 a03d 111f 193e 9bdc 163e 5bfb f43c
000002b0: 780f 47bd dcb5 b13d c148 a3bd e722 8abd
000002c0: d529 14bd fcc1 513d fca4 143d 7eab 9ebd
000002d0: 52ee 423e c5d9 363e d889 6b3d 904f 4fbd
000002e0: 7002 5ebd 9cbf 0e3e 8ab4 6f3d 63fa 543e
000002f0: 99f4 323e e4ea d33d a75a 2c3e 8230 163e
00000300: cca2 ad3d a399 41bd 082c 013e 7d2d ed3d
00000310: 91ab 07bd efa9 ce3d d9b6 b9bd c37f 573d
00000320: 24d9 083e b8a2 d03b 2b22 ae3d 86f0 b1bc
00000330: 4f3b 36bd 3466 ec3d 05d7 043e f8d2 5ebd
00000340: 30c2 033c 3bf7 eabc e963 afbd e472 983d
00000350: d290 e73d 02fc a8bd 9f39 b83d 7fbc 0c3e
00000360: 276e d33d 7f4a ad3d b179 363e 84bd 4abd
00000370: 96d4 0d3e a841 c63d 50bb 80bd d7bc 12bb
00000380: cf1d e73c 2986 453d 8567 a53d f207 93bd
00000390: 35fb 36bc fee2 523e 4576 c43d 6f23 03bd
000003a0: 2cd0 d43d 9cbb 223e 8601 0b3e 4390 2fbd
000003b0: b1c2 413e 54a2 203e ac8f 143d 3f37 42bc
000003c0: cfe0 3a3c 1486 1bbd e95e 2d3d b09e 67bc
000003d0: 3411 37bd 6b8c 043e cf4f 123e c3ee e9bc
000003e0: 504e 53bc 93a8 43bc 0719 443d e34d 3e3d
000003f0: a220 1f3e 41fc 223d a621 ec3d ddd5 83bd
-0.060966168 0.06564903 0.032364685 -0.029592939 0.14562504 -0.058907326 0.13350013 0.10276296
-0.046333943 -0.02648672 0.14794783 0.095057204 0.10531886 0.10915697 0.11775251 -0.08866875
0.146971 0.14446919 0.08243115 -0.0070853475 0.087547556 0.112238914 -0.06655334 0.04081651
0.14950438 -0.0035061925 -0.041738324 0.11532437 -0.10007856 -0.029353637 -0.05045536 -0.067795455
0.09950411 0.02679964 -0.04433849 0.05470908 -0.0037674184 -0.061989777 0.06466251 0.01179232
0.006363472 -0.029306823 -0.042076904 -0.027451733 0.03699921 0.030989282 -0.06491703 0.095281
-0.096309826 -0.09011952 -0.12474664 -0.113987096 -0.1364944 0.09256439 0.048348457 0.034744546
-0.04462147 0.035009336 -0.06976683 0.038058724 0.056822576 0.014265833 -0.05355492 -0.06464948
-0.043682087 0.08849728 -0.070642136 0.0008924809 -0.105164714 0.04179664 0.09007705 -0.1039926
0.08152393 -0.033537667 0.12668824 -0.009647145 0.0401746 0.13258871 -0.028951744 0.12898543
-0.044394717 0.028092068 -0.04154455 0.09690315 -0.06654019 0.025013573 0.01950281 -0.12249457
0.0005255818 0.018034728 0.14742072 -0.0019477693 0.10100311 0.020127723 0.068611905 0.10464711
-0.0918985 -0.02110901 0.12223107 0.057608064 0.094724014 -0.011893549 0.046104535 -0.070318975
0.08002892 0.15736328 0.0053929 -0.10985871 0.057598885 0.099737965 0.06438084 0.1811085
0.1262405 -0.027709056 0.086981215 -0.0020927726 -0.0116007645 0.1198452 0.11284232 -0.022411967
-0.047717053 0.2079076 -0.08504953 0.092092276 0.15204135 0.06007686 0.029196931 -0.21135181
-0.055265523 -0.019806188 0.018594429 -0.16451192 0.057533473 0.08463831 0.007091897 -0.19701546
-0.123819746 0.0408779 -0.19301689 -0.06651442 -0.04861436 0.07225344 0.04199883 -0.14836784
-0.036313467 -0.15203753 -0.0016506447 -0.09022464 0.011954384 0.019012291 -0.12556703 0.05309088
-0.07398729 -0.03537598 0.014132937 0.054059874 -0.16946012 -0.15196565 -0.042191476 -0.032246444
-0.15557544 0.015068248 -0.07382667 -0.08714986 -0.08505189 -0.16822773 -0.10232491 0.016504591
0.07846418 0.14953257 0.14732592 0.029905012 -0.048598737 0.08677265 -0.07972861 -0.06744938
-0.036172707 0.05121039 0.036290154 -0.07747553 0.19036224 0.1785651 0.057504505 -0.050612986
-0.054201543 0.1394028 0.058521785 0.2079864 0.17476119 0.10347536 0.16831456 0.14666942
0.08478317 -0.04726566 0.12614453 0.11580942 -0.033122603 0.10091006 -0.090680785 0.052612077
0.13364083 0.006367054 0.08502611 -0.021721136 -0.044490155 0.11542931 0.12972648 -0.054400414
0.008041903 -0.028682342 -0.08563978 0.07443789 0.11306919 -0.08251192 0.08995365 0.1374378
0.10323744 0.084614746 0.17819859 -0.049497142 0.13850626 0.09680492 -0.06285727 -0.002239039
0.028212456 0.04822365 0.080763854 -0.0717925 -0.011168291 0.20594403 0.095928706 -0.032016214
0.10391268 0.1589188 0.135748 -0.042862188 0.18921925 0.15686923 0.03626983 -0.011853992
0.011406138 -0.037969664 0.04232684 -0.014136955 -0.04469414 0.1294419 0.14288257 -0.028556233
-0.012897089 -0.011942047 0.04787543 0.046460997 0.15539792 0.03979135 0.115298554 -0.064372756

features.layers.1.logic.0.layer.0.mlp.0.bias f4 [8]
00000000: dbd3 1b3e b37a d43c c243 97bd 6173 523d
00000010: 86e8 5d3d 9861 e03d 6a03 133e f30a 8e3b
0.15217535 0.025937414 -0.07385971 0.051379565 0.05417683 0.109561145 0.14356771 0.0043348013

features.layers.1.logic.1.layer.0.mlp.0.weight f4 [8, 41]
00000000: 6231 ccbd b372 85be 608c 1abe 7d57 d53d
00000010: abdd 5bbd cfe7 ad3d 50ba 333d 9e2b 02be
00000020: eedd e7bd 7835 f2bd 59fe d1bc 61d3 29bd
00000030: 7bb5 51bc 85c6 95bd 45b2 d3bd af06 803c
00000040: 26bc 8dbd a937 6cbe 4022 f8bc c109 8b3c
00000050: 14f6 ecbd 335a af3c 7798 af3d af27 ca3c
00000060: 0ba2 60bd 7a29 e1bd 5024 c0bd 2ee2 24bd
00000070: 7e0a 363d 68b0 fabd b335 fdbd 7479 29be
00000080: b7de 02be 06e5 c5bd 24ce 93bd bafd bcbd
00000090: 72ab ddbd 77a1 46bc 7eb6 debd 0acd afbd
000000a0: 0ab7 14be a12f 44bd 82dc a9be 3399 a2be
000000b0: 7af8 24be 6ff8 01be b312 16be 734a 55be
000000c0: 0d7f 3dbd 2dcf 8abd 1336 90bd 8d4c fa3c
000000d0: 4cf6 a83d 1734 36be f657 cbbd c9e9 f53b
000000e0: 48e2 ffbd e545 21bd 0167 aabd 7fae 10be
000000f0: e573 9bbc 619c e6bd c7fb afbd 5e9f d6bd
00000100: a1d3 f1bd 1c4e 063d ad32 6fbe 9162 1bbe
00000110: eb6e d53c cc50 993d 8a00 4ebd 9de3 073d
00000120: a84e 31be 0d29 5cbe ca93 12bd 5274 c7bd
00000130: ad1f 85bd 16b7 14be 3dcb 83be a6a0 13be
00000140: 1121 903d 0d2e 87bd 88c4 d53d e4c7 04be
00000150: 3db9 6fbe 7cf3 b63d 461a 80be da28 c93d
00000160: 001d 5a3c a47d b03d 47fa 253d 5e8b e0bd
00000170: 663a bcbb 9ec9 cbbd 88d3 b3bd 4f79 55bc
00000180: 4799 d03c 8d9c 58be fd5d d4bd ab76 d7bd
00000190: 840e bcbd 1968 95bd f834 923d 77f1 7fbe
000001a0: dce3 473b 5b93 84be 90fb fabd 1562 45be
000001b0: 516a 5abe b12a 8abd 2994 113d 44d9 2b3d
000001c0: 5c1c 873c 3487 14be c76d 2bbd 3cef 843c
000001d0: 0263 e4bd bbf7 b4bd c057 bcbd a81f b6bb
000001e0: 3ddc ba3c d131 173d 7d5e 9abd 2435 993b
000001f0: 5c2e 5f3e 845b aa3e dad1 a33d af2d 8a3e
00000200: 644b 693d a002 3f3e 6d0d 2c3e c87e 4bbd
00000210: 0f66 5ebd 4824 dfbc a892 90bc 61de 753d
00000220: 7860 933d b0fb ee3d d2c7 1ebd 254c 383e
00000230: dff8 1c3e 43a6 bb3d 3df6 223e 971f cd3d
00000240: bf8f 1dbd ce01 c53d 30cd 733d 8dc1 913d
00000250: acd3 193e aa6a ac3d f056 393d 8ae7 1b3e
00000260: 193e cf3d c270 233e 3f01 823e 2026 08bc
00000270: 85c0 0d3e 087a c43d 2643 2c3e 504c 92bc
00000280: 40e9 833e 61d5 0c3e 70aa 083e c8d5 133e
00000290: f845 313d a649 933e 5f64 073e 25d5 333d
000002a0: 7a6f 733e 4272 94bd a5eb eb3d dd50 cabd
000002b0: 4df5 f1bb 32bd e13d a40e a33d 8ccc 18bd
000002c0: 80fd 213e 434d 8a3c 85cf 35bd 6faf 913e
000002d0: baac 6a3d 8395 f83d 8583 153e 5956 11be
000002e0: ebb9 883c 924e ac3d b860 ab3d 18b2 f9bb
000002f0: 68f3 003e 65d7 c73d 9d55 a63d 4362 7dbd
00000300: 74ec 5d3d c9c7 e73d 38d7 02bb b0e3 833d
00000310: 4f04 c2bd 5063 2d3e c921 8a3d 7376 1f3e
00000320: a64d 893d 4d4c 863e b900 31bd 82e9 22be
00000330: ae1e 53bd b84a a83b f15f 7abd 31bd 50bd
00000340: c944 973d 6ffb 37be 27d1 95bd 6b51 c2bd
00000350: 8ed9 febd 9fab 62be 7b13 e33c 5aca aabc
00000360: bae0 2ebe 5e5f 10be 0da1 44bd 342c f3bd
00000370: 5056 1fbd 7fd9 14be 015c 63bd 22a6 b9bd
00000380: 2220 a43d 1327 78bd 1cdd 243d 6c99 8fbd
00000390: 19b8 d4bc 9673 81bd d6c0 223c 252a 26be
000003a0: 2153 0bbe 32eb 48be 0be4 5b3d 9a83 803c
000003b0: 6217 87bd 7a03 343e bffc 9cbd 76e1 56bd
000003c0: 4d28 10be ac52 593d ef3b 61be ff11 d13c
000003d0: 1dba cbbd c8cc 223d 684f 063e cde6 463e
000003e0: cded 3c3d 1c96 843d 1231 bc3d 7973 a8bd
000003f0: 7725 dcbd ca5e 733a 59d0 aa3d 0bd5 f43d
-0.099703565 -0.2606407 -0.15092611 0.10417078 -0.053678196 0.084914796 0.043878853 -0.12711951
-0.113216266 -0.118266046 -0.025633978 -0.041461352 -0.012799616 -0.07313255 -0.103367366 0.015628187
-0.06920652 -0.23068108 -0.03028977 0.016972424 -0.11570373 0.021405315 0.08574002 0.024677126
-0.054842036 -0.10994239 -0.09381926 -0.040254764 0.0444436 -0.12240678 -0.12363758 -0.16550237
-0.12780271 -0.096628234 -0.072170526 -0.09228082 -0.10823716 -0.012123457 -0.10874651 -0.0858403
-0.14522949 -0.047896985 -0.33176047 -0.31757507 -0.16110411 -0.12692426 -0.1465557 -0.20829181
-0.046263743 -0.06777797 -0.07041564 0.03055408 0.082501024 -0.17793308 -0.099288866 0.007504676
-0.124943316 -0.039373297 -0.08320428 -0.14129065 -0.018976161 -0.11260296 -0.085929446 -0.10479616
-0.11807943 0.032789335 -0.23359175 -0.15174319 0.026053866 0.07486114 -0.050293483 0.033176053
-0.17315161 -0.21500035 -0.035785474 -0.09738983 -0.06500182 -0.14522967 -0.25740996 -0.14416751
0.07037557 -0.0660058 0.10437876 -0.12966877 -0.23410507 0.0893316 -0.25020045 0.09822245
0.013312578 0.08617714 0.040521886 -0.10964082 -0.0057442663 -0.09950565 -0.08780581 -0.0130294105
0.025463713 -0.2115347 -0.10369489 -0.10520681 -0.09182456 -0.07295246 0.07139009 -0.24994455
0.0030500805 -0.25893673 -0.12255013 -0.19275697 -0.21329619 -0.06746424 0.035541687 0.041955248
0.016493015 -0.14504701 -0.04185274 0.016227357 -0.11151697 -0.08836313 -0.091964245 -0.005557973
0.022810096 0.036912743 -0.075375535 0.0046755243 0.21795028 0.33272946 0.079990104 0.2698798
0.056956664 0.18653345 0.16801997 -0.049681455 -0.05429655 -0.02723898 -0.017648056 0.06002653
0.07196134 0.11669099 -0.038764782 0.17997797 0.15329312 0.09162571 0.15914245 0.10015791
-0.038467165 0.09619485 0.059521854 0.07116995 0.15022153 0.08418782 0.045248926 0.15225044
0.10119266 0.15960982 0.25391576 -0.008309871 0.13842972 0.09593588 0.1682249 -0.017858654
0.25763893 0.13753273 0.13346267 0.1443702 0.043279618 0.28767127 0.13221882 0.043904442
0.23772994 -0.072483554 0.11519555 -0.09878705 -0.0073839785 0.11022414 0.07961777 -0.037304446
0.15819359 0.016882544 -0.04438736 0.28454158 0.05729363 0.12137892 0.14600952 -0.14193095
0.016690215 0.084134236 0.08368057 -0.0076201074 0.12592852 0.0975788 0.08121798 -0.061861288
0.054180577 0.11317403 -0.0019964706 0.06439912 -0.09473478 0.16932416 0.06744725 0.15572529
0.067042634 0.26230088 -0.04321358 -0.15909389 -0.05154293 0.0051358603 -0.061126653 -0.050961677
0.073861666 -0.17967008 -0.07315283 -0.094881855 -0.12443839 -0.22135781 0.02771925 -0.020848442
-0.17077914 -0.1409888 -0.048005152 -0.118736655 -0.038900673 -0.14536093 -0.055507664 -0.090648904
0.08013941 -0.06058414 0.04024993 -0.07011685 -0.02596669 -0.063208744 0.009933671 -0.16227014
-0.1360593 -0.1962097 0.053684276 0.015687753 -0.06596257 0.17579451 -0.07665395 -0.05246111
-0.14077874 0.053057358 -0.21995519 0.025521277 -0.09947608 0.039746076 0.13116229 0.19423981
0.046125222 0.064739436 0.09189047 -0.0822515 -0.10749333 0.0009283839 0.083405204 0.11954697

features.layers.1.logic.1.layer.0.mlp.0.bias f4 [8]
00000000: 89b8 85bd c293 72bd a329 93bd a110 9d3e
00000010: d5a7 6e3e 0e3e c4bd 822b 3f3e f341 fb3d
-0.06529338 -0.059222944 -0.07185676 0.3067675 0.2330621 -0.095821485 0.1866894 0.12268438

features.layers.1.logic.2.layer.0.mlp.0.weight f4 [8, 50]
00000000: 114e 14bc f2b5 213d d3eb b13b 23bd 32bc
00000010: b4c5 c5bc 7c81 cdbd 7b00 2b3d 01d2 3f3c
00000020: af6d 9b3d f21e afbd f025 c13c 1684 dfbd
00000030: 94f0 e23d 0c40 07be 58d0 9b3d 97e1 aabd
00000040: 8b1a 9b3d 5819 46bc 51f9 24be 43f2 01be
00000050: 858e 04bc 9aac 4e3d 109d 39bd 99fb 3c3d
00000060: e2db 0ebe 8734 04be f4b9 5bbc 6f25 01be
00000070: 257d 21bd 5f7d 8ebd b143 17be fe48 08be
00000080: 636e 03be 6d54 58bd d931 123d e1e5 3bbe
00000090: 4101 113a fc77 98bc 991e abbd 2b2e 223d
000000a0: 4213 77bd 9cae 38bd 0584 8b3d 8a9c c4bc
000000b0: b1aa 633d 817f 3fbe 630f 8ebd 9753 acbd
000000c0: 767e 833d ea54 60bb ac55 d8bd 2fdf 013e
000000d0: fada 5b3d d7bf 63bd feee b6bd 5594 cbbd
000000e0: f72c 053d a456 2d3d 5c2c 2bbe 4e0f 673d
000000f0: 3919 19be 310a dcbd 28d0 73bd 8d0c 3bbc
00000100: 6e2f 7b3d 37bd 24bd 9844 e23c 8b57 d93c
00000110: 6a82 56bc 88de 23be 713d 92bd 25a8 5ebd
00000120: 3316 0b3b 96fc c03d 575f 12bd aa45 32bd
00000130: 93c6 053d 0b7f 98bd 55a9 bbbd 17d3 78bd
00000140: 0c06 d13c 0a20 a5bc f84b b5bd 7d19 1e3d
00000150: 76b5 debd 0c54 493d 2171 0d3e a5b1 be3d
00000160: 7324 db3d 39e4 123d f89f 96bd 6367 76bc
00000170: 2091 e1bd c74b 4c3d b47d a5bd 8ed9 aabd
00000180: 35fb 8f3d 5554 2cbe 31b4 013a 755a fa3d
00000190: b7ba 913d acb3 48bd 86fa f73d c050 c53d
000001a0: caa7 51bd 641b 44bd 478f 273e e3ad bf3d
000001b0: 2acc 8fbc dbbc ef3c d6d0 093e 33c4 51bd
000001c0: a852 b4bc b4fa 17bb 1e9f bcbd 2a61 bd3d
000001d0: 2a0b ad3c e8c3 b4bd 5222 5f3d a53d 213c
000001e0: 53d5 923d 79f1 32bc 2fbc 3cbd aa16 2d3e
000001f0: 2d24 dc3c bce1 b63c 0e1a fdbc 17a3 2a3e
00000200: da1a 3f3d daff 013e 514b 01bd 6a15 c93d
00000210: c2c9 c83d 1d58 213e ddd3 2a3e e934 2c3d
00000220: cc0f b13d d908 8e38 1f90 bebd 2772 1f3e
00000230: 7112 b93d fbdf cb3d d11f 863d 293b e33d
00000240: fab6 15be 4299 89bc af86 fe3d 285e 933d
00000250: d619 333e 9d0b 11bb 1db0 05be 58a1 06be
00000260: c47d af3d f7b0 adbd 86dd fdbc f26f bbbd
00000270: a8de 733d 5199 c3bd a11c 673d b048 9bbd
00000280: 85f1 c4bd 953b bcbd eb5a aebd 7158 16be
00000290: 6468 eebd ec53 853c 00b9 243e 938a 203a
000002a0: e994 883d 8c8c 8a3d 2972 f83d b44e f0bd
000002b0: b6d9 3dbc 1c12 19bd cfd3 c03d 80b3 edbd
000002c0: f91e afbc cdaf 01bc 6a7a 223e 20da c33d
000002d0: 7c78 a1bd 1deb 953c 43db 22be 1665 8fbd
000002e0: 045f bbbd b391 e93c 40c4 a53c a6f1 4cbd
000002f0: 27c9 a3bd 100b 34bc 1806 7f3d bde8 b0ba
00000300: c73b b6bd dd68 ed3c 49cc d9bc b44f b6bd
00000310: fea1 b63d ec38 853d 820c dcbd d210 0fbe
00000320: 52ac 0b3d bfe8 be3d 7df6 c0bc 490a b83d
00000330: 308f bdbd 66e8 b73c 02d4 bebd 9a56 ee3d
00000340: f5e0 c23d e744 4dbd 5829 4b3e 2c32 ec3b
00000350: c351 993d d027 94bb 936c 1cbd 6866 083d
00000360: 181c 03be aabe d23d 7fa5 e63c adb5 babd
00000370: 5765 463d 90ad 263e 9dfb 7d3c 1a84 9b3d
00000380: d9cd 0d3c aa6a d23d dcc6 213d 87f4 1f3d
00000390: 07d4 81bd 79c8 c13c 9722 d43c cc41 883d
000003a0: ec44 093d e349 2d3e 3da4 b83d c3e9 863d
000003b0: f942 b7bd 77a5 f53d 1848 05bc c79a a53d
000003c0: b87b 0d3e 24d2 3ebc 4254 533d 1ebe a03d
000003d0: c032 113e 5217 18bd af0d c23d f660 703d
000003e0: f8b3 bc3d eede 803c f90f 523b d28d 513e
000003f0: 7190 80bd f99f 1b3e c0b5 a2bd 47ca 043d
-0.009051816 0.039480157 0.0054297238 -0.0109093515 -0.024142124 -0.10034463 0.041748505 0.011707784
0.0758928 -0.08550824 0.02357766 -0.10913865 0.11081043 -0.13208026 0.07608098 -0.08343809
0.07573422 -0.012091003 -0.16110732 -0.12690072 -0.00809062 0.050457574 -0.045315802 0.04613838
-0.13951066 -0.12910663 -0.013411034 -0.12611936 -0.039425988 -0.069575064 -0.14771916 -0.13309094
-0.12835078 -0.05281489 0.03569207 -0.1834941 0.0005531498 -0.0186119 -0.083554454 0.03959481
-0.0603211 -0.045088395 0.0681229 -0.024000425 0.055582706 -0.18700983 -0.069365285 -0.08414381
0.06420605 -0.00342303 -0.105632156 0.12682794 0.05367563 -0.055602875 -0.08932303 -0.099404015
0.032513585 0.042318955 -0.1671614 0.05641108 -0.14951028 -0.10744131 -0.059524685 -0.011416567
0.06132453 -0.04021951 0.027620599 0.026531002 -0.013092617 -0.16002858 -0.07140625 -0.054359574
0.0021222949 0.09423177 -0.035735454 -0.043523468 0.03266008 -0.074461065 -0.09163157 -0.060748186
0.025515579 -0.020156879 -0.088523805 0.038598526 -0.10874455 0.04915242 0.13812687 0.09311227
0.107003115 0.03586218 -0.0735473 -0.015039298 -0.110140085 0.049876954 -0.080806166 -0.083422765
0.07030336 -0.16829045 0.000494781 0.122242846 0.07115691 -0.048999473 0.121083304 0.096345425
-0.051185407 -0.047877684 0.1636325 0.09359338 -0.017553408 0.029264858 0.13458571 -0.0512125
-0.02201207 -0.0023190202 -0.09210037 0.09247048 0.021123488 -0.08826429 0.05447609 0.009841357
0.071695946 -0.010921829 -0.046077903 0.16903177 0.026872719 0.022324435 -0.030896213 0.16663776
0.046656467 0.12695256 -0.031565968 0.098185375 0.09804107 0.15756269 0.16682382 0.042042647
0.08645591 6.772736e-05 -0.09304833 0.1557089 0.090367205 0.0995483 0.06549037 0.11095268
-0.14620581 -0.016796712 0.124280326 0.07195693 0.17490324 -0.0022132166 -0.13055463 -0.13147485
0.0856891 -0.08481019 -0.03098942 -0.09152211 0.059538513 -0.09550727 0.056423787 -0.075822234
-0.09616379 -0.09191052 -0.08513435 -0.14682175 -0.11641005 0.016275369 0.16086197 0.0006124165
0.06669027 0.067650884 0.12131149 -0.117337614 -0.011587551 -0.037370786 0.09415399 -0.116065025
-0.021377074 -0.007915449 0.1586701 0.095630884 -0.07884309 0.018300587 -0.15903954 -0.070017025
-0.09148982 0.028511858 0.02023518 -0.05003514 -0.07997351 -0.010988966 0.06226167 -0.0013497096
-0.088981204 0.028980667 -0.026586669 -0.08901921 0.08917616 0.065049976 -0.10744573 -0.1397126
0.034099884 0.093217365 -0.023555035 0.08986337 -0.092558265 0.022449683 -0.09317781 0.11637612
0.095155634 -0.05011454 0.1983999 0.0072081294 0.07486298 -0.0045213476 -0.038189482 0.033300787
-0.12803686 0.102902725 0.028155087 -0.09116683 0.04843649 0.16277146 0.015501884 0.07593556
0.008655035 0.10274251 0.039496288 0.03905156 -0.06339269 0.023655163 0.0258954 0.06653175
0.033512995 0.16922717 0.09015701 0.06587555 -0.08948321 0.119944505 -0.008134864 0.08086162
0.13816726 -0.011646781 0.051594026 0.07848762 0.14179516 -0.037131615 0.09475266 0.05868622
0.09214014 0.015731301 0.0032052977 0.20464256 -0.0627755 0.15197743 -0.07944822 0.03241947

features.layers.1.logic.2.layer.0.mlp.0.bias f4 [8]
00000000: 6901 1fbe a49e a63d 2dac 373d f748 0b3d
00000010: 15d6 843b a99b 0bbb b305 58be 2923 b13d
-0.15527882 0.08135727 0.044841934 0.03400513 0.004053841 -0.0021302497 -0.21095924 0.086492844

features.layers.1.logic.3.layer.0.mlp.0.weight f4 [8, 48]
00000000: fa0d 353e f0d2 bd3d 49bf 8e3d e6d7 a83d
00000010: 7751 933d d313 e63b 84d1 873c 9022 963d
00000020: 559b e1bc 5081 c33d 8b72 9d3d 0ce2 e4bd
00000030: 4e06 5a3d 3993 adbb 2908 81bd f38e d83d
00000040: c634 213e 740c b3bc fa9f 163e 3fb8 ba3d
00000050: 27d8 8a3d d580 163e 3ed3 a23d 5baa 273d
00000060: 545e 373c 4e7e 963c bdb7 0d3e 82a0 91bb
00000070: 3075 83bd 08b6 713d 4f99 c03c 9194 a3bc
00000080: 28f2 29bb d095 97bd e868 ee3d 9896 70bd
00000090: c4a3 e53d 16ca 9a3d 3a46 6cbd ba14 cb3d
000000a0: a92d f53d 53c4 fe3d 4778 dabc b5f3 20bc
000000b0: 0535 8e3d bb59 603d 684d ce3d 57b2 0bbb
000000c0: d79e 3bbd 3cc5 903d 3afe f63d 92b3 c33c
000000d0: 2e4f 0cbd 624e 813d 18e5 0a3e bf7d 673d
000000e0: eeb8 b13b 1f1e 8a3b e308 c0bd 5215 223e
000000f0: de10 6a3d 3377 ef3b 79e9 0cbd 505b adbc
00000100: 2024 fbbd 7dd8 07be 9a44 243a 52b1 40bd
00000110: 3ac4 e13c 13fe b0bd a8d7 0d3d c843 c83a
00000120: 1310 d83d f875 053e d7b0 d63d 4b40 1cbe
00000130: 3d31 b3bd 5442 843d d19c db3c 030d 88bc
00000140: 487b d9bd 0518 043e 490d 67bd 3150 a33d
00000150: dc5d 95bd 9cb4 093c 1182 e0bc aa29 73bd
00000160: f9ef bebd 6629 11bd 5e8b d9bd 64c1 01be
00000170: 0929 7dbc 1f4e af3c 342c d5bd b1fb b23c
00000180: 02ac 18bc 9146 d9bd 201d 46bd 9fb0 a53d
00000190: 9d4a 9aba d885 a03d f6b2 033e d751 003e
000001a0: 6907 4ebd 7257 c2bc 4873 bd3d ad27 cb3d
000001b0: fef7 87bd cebc acbd d539 c53d ca23 863d
000001c0: 0c58 1b3d 7f26 b53c 6b12 6b3d 6e8c 9abd
000001d0: 6f6b 7c3d b036 b13d acc4 91bc ad16 483d
000001e0: 34e1 1a3e d7e1 eabc f9b0 423d 3de9 a93c
000001f0: 29cf c43c 7669 303d cf89 d23b eda9 8d3d
00000200: bf12 14bd 5925 babd 4ad4 f2bd 0d85 d93d
00000210: 9d9f 1dbe 66ac 3fbd 4550 8b3b 2283 b63c
00000220: 5754 183e 1cff 4abb 010e 04be 06f7 cf3c
00000230: 31b4 27bc 0226 d03d 34ea ed3d 52bb 673d
00000240: c4cf 8a3c b182 d0bd 0dd6 e2bd 585f a0bb
00000250: 1bb7 7ebd 903c 623d a27a 0a3e 4930 7d3d
00000260: 9858 8d3d 6386 50bd e786 793d 5b9b e3bb
00000270: cfff c43d 1656 273e 62c8 48bd 63f2 0d3e
00000280: cd62 813d f5f8 26bc 0b99 8ebd 078a bdbc
00000290: 032e a1bd daf7 7b3d 5e78 263d 10e1 9ebd
000002a0: 4ae1 2a3e c56e 023e 0663 f73d 66e4 303d
000002b0: 9912 653c 598b 383e e57e 073e 93e2 293d
000002c0: db30 be3d 10e5 abbd f1d8 ab3c 9ed8 f6bd
000002d0: 9cb5 ffbd e1d8 e53b bb9f fabd 0f28 9abd
000002e0: aab8 de3d 97d4 06bd 40d8 013d 6480 84bd
000002f0: 164c 22bd 592c b8bc b4b0 92bd 1139 233e
00000300: 73c6 503c 2025 4bbd c1f0 60bd 2513 d83d
00000310: 610f aabd 4a53 033e c5af 82bd 0868 0b3d
00000320: 6176 0c3d 0cde 39bd f611 493d f68e 2e3d
00000330: 15fc 133d 4df8 c2ba ff39 eb3d c076 0fbd
00000340: 7fdc afbd fd7c a8bc e1e9 aebd c117 a63d
00000350: 0dfd 503d 3785 113e b605 fc3d 53b4 abbd
00000360: ee85 9c3d b7ab edbd 5e8a 0abd 6074 fcbc
00000370: 028c 113d 239f 4ebc 9539 01be 80b3 99bd
00000380: af00 4bbd 235a 0abe e0f6 cd3c 2d90 9b3d
00000390: d78b 68bd 29e3 c6bc 74b0 993d 70c3 e0bd
000003a0: b8ef 8fbd 82c4 f13d d41f 863d a4a3 02bd
000003b0: 9dda 05bc 4c33 e53b aa6d 6a3d 6eb0 893d
000003c0: bacb 8abd 82f0 e63d 95af 333d cad2 d3bd
000003d0: bcb9 a13d 6225 f3bc 1eaa 9b3d 7d37 e93d
000003e0: 6c25 f73d 197d eb3c 8c8b ecbc d757 a03d
000003f0: 1ad8 35bd 05e0 d33d e0dc ea3d e1b5 cbbd
0.17681113 0.09268749 0.069700785 0.08244304 0.071932726 0.007021406 0.016579397 0.07330811
-0.027539888 0.09546149 0.07687863 -0.111759275 0.05322867 -0.0052970913 -0.063003846 0.105741404
0.15742788 -0.021856524 0.14709464 0.091171734 0.06779509 0.14697583 0.079504475 0.040933948
0.011191923 0.018370774 0.13839622 -0.004444183 -0.06418836 0.05901149 0.023510603 -0.019968303
-0.002593169 -0.07401621 0.11641103 -0.058737367 0.112128764 0.07558076 -0.05768416 0.09916063
0.119715996 0.124397896 -0.02666868 -0.009823729 0.069437064 0.054773074 0.10073358 -0.0021316016
-0.04580578 0.070688695 0.120602086 0.023889337 -0.0342552 0.063137785 0.13563955 0.056516405
0.0054236567 0.0042150165 -0.09376695 0.15828446 0.057144992 0.007307911 -0.034402344 -0.021161705
-0.1226275 -0.13266177 0.0006266326 -0.047044106 0.027559388 -0.08642211 0.034629494 0.001527899
0.10549941 0.13033283 0.10482948 -0.15258901 -0.08749626 0.064579636 0.026808174 -0.016607767
-0.10619217 0.12899788 -0.056409154 0.0797428 -0.07293293 0.008404877 -0.02740577 -0.059365906
-0.09323115 -0.03543987 -0.10622285 -0.12671429 -0.015451678 0.021399556 -0.10408822 0.021848531
-0.009318354 -0.106091626 -0.04836762 0.080903284 -0.0011771504 0.07838029 0.12861237 0.1253122
-0.050300036 -0.023723338 0.09250504 0.09919677 -0.06639098 -0.08434449 0.09630171 0.06549795
0.037925765 0.022113083 0.05739061 -0.07546316 0.061625894 0.08653009 -0.017793976 0.04884975
0.1512497 -0.028672142 0.047532056 0.0207411 0.024024563 0.043069325 0.0064251195 0.069171764
-0.03615069 -0.09089155 -0.11856897 0.106210805 -0.15392919 -0.04679527 0.0042515122 0.022279326
0.14875923 -0.003097481 -0.12895967 0.025386345 -0.010235832 0.101634994 0.11616936 0.056575127
0.016944773 -0.101811774 -0.11075983 -0.0048941784 -0.06218634 0.05523354 0.13523343 0.061813626
0.069016635 -0.05090941 0.06091967 -0.00694601 0.09619104 0.16341433 -0.049019225 0.13861994
0.06317673 -0.010191192 -0.069627844 -0.023137106 -0.07870104 0.061515667 0.040642135 -0.07757771
0.16687503 0.12737568 0.12079434 0.043186568 0.013981485 0.18021907 0.13232 0.041475844
0.09286662 -0.083932996 0.02097747 -0.12053035 -0.12485811 0.0070143794 -0.122374974 -0.07527172
0.108750656 -0.032917585 0.031700373 -0.06469801 -0.039623342 -0.022482084 -0.0716261 0.15939738
0.0127426265 -0.049595952 -0.0549171 0.105505265 -0.083037145 0.12824741 -0.06381182 0.03403476
0.034292582 -0.045377776 0.049089395 0.042616807 0.036129076 -0.0014875025 0.11485671 -0.03502536
-0.08586978 -0.020567412 -0.085407026 0.081099994 0.051022578 0.14210974 0.12305777 -0.083840035
0.076427326 -0.11605018 -0.033823363 -0.03081721 0.035533912 -0.012611183 -0.12619622 -0.0750494
-0.0495612 -0.13510947 0.025142133 0.07595859 -0.056773987 -0.02427824 0.07504359 -0.10974777
-0.070281446 0.11805059 0.065490395 -0.03189434 -0.008169797 0.0069946405 0.05723349 0.067231044
-0.06777139 0.11276342 0.04386862 -0.10342939 0.07896754 -0.029680911 0.07600807 0.11387537
0.120676845 0.028746175 -0.028875135 0.07829254 -0.044395544 0.10345463 0.1146791 -0.099468

features.layers.1.logic.3.layer.0.mlp.0.bias f4 [8]
00000000: 05b8 a53d 63f4 e7bd d83e 7fbc 360a 8cbc
00000010: a251 3fbd 46d4 ceba 4dbd 113e cb99 7f3d
0.080917396 -0.1132591 -0.015578948 -0.017094713 -0.04670871 -0.0015779815 0.14232369 0.062402528

features.layers.2.logic.0.layer.0.mlp.0.weight f4 [8, 66]
00000000: 9807 8abd db8a 003e 151c 073e 4819 a13d
00000010: 813a 033c 6188 c93c 91c8 e83d 2fc8 0fbd
00000020: 8d6c 8abd 2039 e03d cbc4 e5bc 47c8 713b
00000030: f254 153e beb7 aa3d bd7a 823d e508 293c
00000040: 77ad 0a3d fd22 d23d a12a 8f3c fb33 573d
00000050: a91d aa3c d7b5 a3bb 8b08 ee3c 3de9 0e3e
00000060: 43f4 013d e81e 333d d3f9 043e f53d 97bb
00000070: efcc a03d 0e77 fd3d bebd 83bd d13a 443d
00000080: 6b9a 173e 1fe7 123e 52e0 553c aaf9 81bd
00000090: d1a1 4abc 10d2 27bd 3c07 7fbd f309 a2bd
000000a0: 029a 193e 2dcc 533a 81dc 5bbd 3021 82bc
000000b0: c162 943d 491c 163e e579 b63c 7188 f13d
000000c0: 624a 5bbd 21d4 6c3d f7e4 963d b4ac 88bd
000000d0: f862 2bbd e401 78bd 1b45 bf3d 6e5c 433d
000000e0: 83a2 933d 780c 183e 3e4e 563d b830 313e
000000f0: 14ab 08bb 02b2 ff3d 30be 383d 3a8b a33d
00000100: 10cd 943d 6b00 cf3d b0db 4fbd 8bfe b33d
00000110: b7bf ba3d c1ce b73d 6178 d33c 2bd3 28bd
00000120: c573 ac3d 2018 b83d 1da4 7a3d 1df8 8c3d
00000130: bb2b 983d 22bc dc3d 4b0c 60bd 5b8a fd3d
00000140: d53b ed3d b496 8abd 82ac df3c 4a67 323d
00000150: 8575 2bbd 5886 d43d ae28 5dbc 3310 1fbd
00000160: 386c 1e3e 0630 8f3d cdeb 163e 275f b83d
00000170: 317f b2bb 8863 b63d 4a0f 0b3e 0160 5fbd
00000180: c082 f93c 6db9 0d3e 6d53 dd3c 2d58 d53d
00000190: 3b0f 1a3e e09f 843d cb69 c63d b3cf 80bd
000001a0: 20c4 683d b70f e03d d4ca 003e 9948 fc3d
000001b0: 52be 28bd 0ef8 d4bc 3b10 553d c232 0d3e
000001c0: d6e8 3c3c 1344 67bd f804 04bd 19d8 d43c
000001d0: a456 86bd 30cd 6dbd ce45 003e 8b20 f43c
000001e0: a21c 333d 6606 d0bc 0903 7a3d 2d3c 1dbd
000001f0: 54fa f33d ca3b a93d d33a 8f3d 9552 aabd
00000200: 0b00 c13d c0b3 64ba c7c4 df3c 85c2 d43d
00000210: 2518 4c3d db35 0ebd 9e26 d83d a4f8 c4bd
00000220: a3e7 9ebd 91da e13d e04e 8f3c 4844 4abd
00000230: 322b d33c 025c cd3c 825e 073e d390 97bd
00000240: cad3 82bd b0e7 0c3e 78da b237 6f90 72bd
00000250: 38c0 fc3b 9758 c43d 7997 f63d 4931 143d
00000260: 30c1 063e 0308 02bc a2a4 7f3d 63af 9c3d
00000270: 36b0 813c 7866 f13d 7800 2fbd 3cdc 88bd
00000280: 8c83 4cbd 448d 533c bded debc 7776 133e
00000290: 1ee7 e93d 3101 3abb 114e e43d 567a 3ebc
000002a0: 2cfa 3cbb cbc0 de3d 28f1 7c3c 8562 a83d
000002b0: 777c 323d 94b7 613c 5583 8ebd f004 0f3e
000002c0: b8f9 4abd 2b35 ba3c 36dd 00bd d3c8 393d
000002d0: b7d8 1a3d 7e10 c33d b773 68bc f7a1 84bc
000002e0: f155 d63d 021a c33b 4c65 a43d c350 bb3d
000002f0: bacd 60bd e14b df3a ed38 983b 1718 103e
00000300: 3bda 9bbd d32d 01bd e1df bb3d 0794 243e
00000310: 5653 ae3d 3033 023e d058 f1bd 5941 97bd
00000320: 090f 10bd c9fe edbd 3745 e4bc 8f41 3ebd
00000330: 9e65 003d 887a 1fbc 1458 a5bd 0ffa 723d
00000340: 3ebd 5cbd 7abc ec3c ebac fb3b 1b15 13bd
00000350: 526f 903c dc2a d9bc 77a0 68bb b113 02be
00000360: 02e4 a5bc 56bc 21bd 2d1f a13c feb3 143d
00000370: b344 9c3d 0e05 09be 23e0 6cbd 7a6d 09be
00000380: d6ad a9bd cb0f a63d e031 f9bd b890 23bc
00000390: 6564 aabd 2b63 893d dd8b 03bd e313 b3bc
000003a0: eefc 56bc 77f1 b43d 89ed 1bbd f8de 043d
000003b0: a490 11be 3b13 32bc 7e60 75bd 0c22 873c
000003c0: fad0 883d 743c a93d 3fa1 8c3d b84e 3d3d
000003d0: c70b d2bd 4417 a83b b1f4 7d3d 571d 833d
000003e0: 3365 b0bd 3ad3 8abd f371 4f3d c045 bfbd
000003f0: 0f6f 2c3d 61ae 21ba 7060 97bd 603f 713c
-0.0673973 0.12552969 0.13194306 0.0786615 0.008009554 0.024601163 0.1136638 -0.03510302
-0.06758986 0.10948396 -0.02804794 0.0036893056 0.14583185 0.08335827 0.06371067 0.010317062
0.033856835 0.1026058 0.017476382 0.052539807 0.020766096 -0.0049960422 0.029056808 0.13956161
0.031727087 0.043730646 0.12985925 -0.00461554 0.07851588 0.123762235 -0.06432675 0.047907654
0.14805 0.14345978 0.01305397 -0.06346448 -0.012367682 -0.040971816 -0.06226276 -0.07912054
0.15000156 0.0008079436 -0.053677086 -0.015884966 0.07245398 0.14659227 0.02227492 0.11793602
-0.053537734 0.05781949 0.0736789 -0.066735655 -0.04184243 -0.060548678 0.09339353 0.04769557
0.07208731 0.14848506 0.05232071 0.17303741 -0.0020853924 0.12485124 0.045103252 0.0798554
0.07265675 0.101075016 -0.05074662 0.087887846 0.09118598 0.08974982 0.025814237 -0.04121701
0.08420519 0.089889765 0.061191667 0.06883261 0.07430216 0.10778071 -0.054699223 0.12379905
0.11583678 -0.067670256 0.027303938 0.043555535 -0.041860122 0.103771865 -0.013498468 -0.03883381
0.1547097 0.069915816 0.14738388 0.09002524 -0.0054472913 0.08905703 0.13580051 -0.054534916
0.030457854 0.13840266 0.02701732 0.10417209 0.15044872 0.06475806 0.09688147 -0.062896155
0.056827664 0.10940497 0.12577373 0.123185344 -0.04119713 -0.025997188 0.05201743 0.13788894
0.011530122 -0.056461405 -0.0322313 0.02598195 -0.06559494 -0.05805701 0.12526628 0.029800674
0.04372848 -0.025393676 0.06103805 -0.038387466 0.11912981 0.08263357 0.06993642 -0.083165325
0.09423836 -0.00087242946 0.02731551 0.10388664 0.049827714 -0.03471933 0.10554241 -0.09617737
-0.07759025 0.11028016 0.017493665 -0.049381524 0.025777433 0.025068287 0.13219646 -0.0740067
-0.06388052 0.13760257 2.1320986e-05 -0.059219774 0.007713344 0.0958721 0.1204061 0.036179814
0.13159633 -0.00793648 0.062412865 0.0765064 0.015831094 0.117871225 -0.042725056 -0.066826314
-0.04993014 0.012912098 -0.027212972 0.1440066 0.11421035 -0.0028382058 0.111477025 -0.011625847
-0.0028835637 0.10876616 0.0154383555 0.08221916 0.04357573 0.013776679 -0.06958643 0.13966727
-0.049554557 0.02273043 -0.031460963 0.045357537 0.03780433 0.0952463 -0.014187745 -0.016190512
0.10465611 0.005954028 0.08027133 0.091462635 -0.054883696 0.0017036163 0.004645458 0.1407169
-0.076099835 -0.031537842 0.09173561 0.16072093 0.08511989 0.12714839 -0.11784518 -0.07385511
-0.03517059 -0.11620862 -0.027865035 -0.04644924 0.03134691 -0.009733804 -0.0807344 0.059320506
-0.053891413 0.028898466 0.0076805255 -0.0359088 0.017631207 -0.026509695 -0.0035496035 -0.12702824
-0.020250324 -0.03948625 0.019668186 0.036304466 0.07630291 -0.13380834 -0.05783094 -0.13420668
-0.0828511 0.08108481 -0.12167716 -0.009983234 -0.0831993 0.06708368 -0.032115806 -0.021860069
-0.013121827 0.08835118 -0.038068328 0.032439202 -0.14215332 -0.010868843 -0.059906475 0.016495727
0.06680484 0.08263484 0.06866693 0.04621765 -0.102561526 0.0051297266 0.062000934 0.064020805
-0.08613052 -0.067785695 0.05064578 -0.09339476 0.0420981 -0.0006167647 -0.07391441 0.014724582

features.layers.2.logic.0.layer.0.mlp.0.bias f4 [8]
00000000: 2d87 c53d e947 473d 0e48 ddbc a78d d9bd
00000010: e19c 8c3d 0d35 173d d153 5a3d 18ab 623d
0.09644923 0.048652563 -0.027011897 -0.10622721 0.0686586 0.036915828 0.05330259 0.05533895

features.layers.2.logic.1.layer.0.mlp.0.weight f4 [8, 73]
00000000: 2baa 04be 3eae bdbd ba2f 0bbd 84f7 763c
00000010: 3ee2 11be e8db 48bd 42a0 b4bc 8026 f0bc
00000020: ec57 44be 387e 72bd 87d2 41be 117e 84bc
00000030: 2180 4abe a5f7 a0bd 5290 2fbd a414 99bd
00000040: dea1 47bc 37f5 17be 0357 9bbc 6420 bb3c
00000050: 96ca 7ebd a997 01bd 940d 743d 3c9d 653c
00000060: 3f01 9cbd 20d8 a9ba 37d9 55be 4d39 253c
00000070: 4391 88ba 2ac8 13bd 3467 433c 09f3 10bd
00000080: 273e 0ebc 876d 60be b71f 96bd 8315 ca3d
00000090: 8e98 073d a8b9 10be 4602 d53c aea3 21be
000000a0: 9214 edbd 5b87 0fbe ff2b 0dbe 91aa edbd
000000b0: 65ab 9ebc a0ee cebd b152 3cbc 89cd 1fbe
000000c0: d5af 05be 40e9 b9bd 877d 89bc 4174 e5bc
000000d0: 6948 ab3d e4cc 0dbe 64aa 143d c3be 8a3d
000000e0: 3d76 9a3d 069f 0abc 56b3 8ebd e6cd 4cbc
000000f0: 5b28 ffbd aa13 31be ee09 3dbd f77a fcbc
00000100: 0ce3 4e3d 1ceb 26be 33b5 e3bd 65e5 4cbe
00000110: 8929 fbbd e7d2 213d bb4c d23c eb5d 8ebe
00000120: c38b 1bbe 6592 b73c 664f 9ebc d578 59be
00000130: 2110 c1bd 2f87 c5bd 9f45 b2bd 6de9 65bb
00000140: f0a3 efbc bdf2 4e3c cadc aebc a3ff 31be
00000150: 2ff4 a03d d169 22be bf0e f4bd cd04 2cbe
00000160: 9a87 b3bb 2c88 773d 5f2c adbc 3624 b9bd
00000170: 3fe6 91bd 5cbd 633b 5162 6bbd d59a 4abe
00000180: fc1b b8bc a132 8ebd 8319 e7bd b356 9ebb
00000190: 1f10 493d cce6 293d d106 b23d f436 81bd
000001a0: b087 6ebd 7282 413d 8fb6 4dbd 3e12 00be
000001b0: b420 513d 3ba2 2bbe fc90 d33c 909d b63c
000001c0: 9cae 21be 797d c0bc 698a c7bd 329a 13be
000001d0: fc3c 5bbd c76d ab3d 17c1 02be afa9 f3bc
000001e0: 17bb 2fbe 6b82 9bbd 7f4b b3bc 791e 8cbd
000001f0: 101f 9bbd 6221 593d f123 99bd 9981 a5ba
00000200: 0902 233d ad0e c4bd d206 d93d b1ce f13d
00000210: 718e 903b 8aa6 c6bd 12f7 b9bc c65c fcbd
00000220: daf1 d53c ef99 02be ef3a 2fbe 8a53 d63c
00000230: 9c14 abbc 45d6 3abe 3fdf 743c 5e89 88bb
00000240: 4fb3 b3bd de3d 92bd 8225 123d 0a06 8cbc
00000250: 1ddc 3bbe f59c 27bd c6d4 85bd 5e86 21be
00000260: 55d0 83bd 90ae d13c 260e ebbc 7e33 c9bd
00000270: 1420 52be fdff 7fbc f468 c6bd 893a 03be
00000280: 58df 04be 9178 66bd 001f 98bd dfb5 8dbd
00000290: 7c73 313c 2108 21bd bd9d 4bbd a996 f8bd
000002a0: 368e 35bc b1ad 82bc b220 f03c bb0a 0dbe
000002b0: 170f 1dbe dabd 623c 92dd 113d 08c6 5f3c
000002c0: e7ee 87bd e47b e5bd 80b3 563d d9a1 2dbd
000002d0: 8971 c83d 239a 7ebd c64f 0dbd d825 cdbd
000002e0: 59c0 94bb 04be 07be e9ef 2bbe 33e0 9fbc
000002f0: 85c4 523c 7495 fcbd 4d83 10be d68c b33d
00000300: f78e ad3d 7b6f 6d3d b4e0 163e 32aa 3bbd
00000310: 77f2 6f3d 39d3 05be 3248 20bd 98a5 44be
00000320: 7c38 463d 58b1 3d3d da38 b63d f60b 893d
00000330: ef62 723d 9844 2ebd 5e54 efbd 04cb 53bd
00000340: 2f01 1dbc f843 b83d c7df 3d3c 2871 b6bd
00000350: 8a1d dcbd 39f5 c9bd 8195 2bbd 437f a53d
00000360: 075b 9d3d 180d 13be 28cb 2fbe 9583 b63d
00000370: a624 d73b 0eb8 3d3d f83b 81bd 8e30 253d
00000380: 6383 a63d 8a01 7ebd 1671 33bd 1f20 04bc
00000390: c4c7 4cbd df83 913d 82c2 c4bd aa42 9b3d
000003a0: b9b4 893d 8a16 303e 4f14 213d 54c3 f53d
000003b0: 60fc 54bb cb48 8c3d 3558 e83d 9c42 4a3d
000003c0: 64cd 4b3d 8dbf a33d 839b b83d 8f81 91bd
000003d0: e285 013e 1762 fe3c 4f4f a1bb 267a d3bd
000003e0: 8cf9 f53d 0243 fa3d a423 6f3d 37b6 2d3d
000003f0: 8de1 95bd 770e 16be 2d83 96bd c41d ccbc
-0.12955539 -0.0926175 -0.033981062 0.015073661 -0.14246461 -0.049037844 -0.022049073 -0.029315233
-0.19174165 -0.059202403 -0.18927966 -0.016173394 -0.1977544 -0.078597344 -0.042862244 -0.0747464
-0.012184588 -0.14839636 -0.018962389 0.022842593 -0.06220492 -0.031638775 0.05958326 0.014014538
-0.07617425 -0.0012958087 -0.20883642 0.010084462 -0.0010419268 -0.036079563 0.011926461 -0.035388026
-0.00868181 -0.21916781 -0.07330268 0.09867384 0.03310447 -0.14133322 0.02600206 -0.15785095
-0.11576189 -0.14016478 -0.13786314 -0.116047986 -0.019368837 -0.10104108 -0.011494325 -0.15605749
-0.13055356 -0.09077692 -0.016783489 -0.028009536 0.083634205 -0.13847691 0.03629531 0.06774666
0.075420834 -0.008460766 -0.06967799 -0.012500262 -0.12458869 -0.17292657 -0.046152048 -0.030820353
0.050509498 -0.16300625 -0.111185454 -0.20009382 -0.122637816 0.039507773 0.025671354 -0.2780603
-0.15190034 0.022408674 -0.01932497 -0.212375 -0.094269045 -0.09644925 -0.087046854 -0.003508176
-0.029252976 0.0126311155 -0.021345515 -0.17382674 0.07859074 -0.15860678 -0.11916875 -0.16798706
-0.0054788115 0.060432598 -0.021139322 -0.0904011 -0.07123994 0.0034750318 -0.05746681 -0.19785626
-0.022474281 -0.069432504 -0.11284163 -0.0048321127 0.04908764 0.04147987 0.086927064 -0.063093096
-0.05823487 0.047243543 -0.05022293 -0.12506959 0.05105658 -0.16761105 0.02582597 0.022291929
-0.15789264 -0.02349733 -0.097431965 -0.1441429 -0.053524956 0.08370548 -0.1276897 -0.029743997
-0.17161213 -0.07593235 -0.021886585 -0.0684175 -0.07574284 0.053010352 -0.074775584 -0.0012627124
0.039796863 -0.09573112 0.10597004 0.118070014 0.0044115116 -0.096997336 -0.02270082 -0.12322383
0.0261163 -0.12754034 -0.17112325 0.026162881 -0.02088385 -0.182458 0.014945804 -0.004166766
-0.08774435 -0.071407065 0.0356803 -0.017092723 -0.18345685 -0.04092117 -0.06534724 -0.15773913
-0.064362206 0.025595933 -0.02869327 -0.098242745 -0.2052005 -0.015624997 -0.09687987 -0.12815298
-0.12975824 -0.056267325 -0.07427788 -0.06919455 0.010830756 -0.039314393 -0.049710978 -0.12138111
-0.011081269 -0.015951963 0.029312465 -0.13773625 -0.15337788 0.013839209 0.035611697 0.013658054
-0.06637364 -0.11205271 0.05241728 -0.042390678 0.0978728 -0.062158715 -0.034499906 -0.10016984
-0.004539531 -0.13256079 -0.16790737 -0.019516086 0.012864237 -0.123331934 -0.14112587 0.08767097
0.08474534 0.057967644 0.14734155 -0.045816608 0.058580842 -0.13068856 -0.03913135 -0.19203794
0.04839371 0.046311706 0.08897562 0.066917345 0.05917638 -0.042545885 -0.11686014 -0.051707283
-0.009582802 0.08997339 0.011588997 -0.089083016 -0.10747822 -0.09861226 -0.041890625 0.08080914
0.07683378 -0.14360464 -0.17167342 0.08911816 0.006565648 0.046318106 -0.06310266 0.04032951
0.08130529 -0.062013187 -0.04380902 -0.008064299 -0.0499952 0.071052305 -0.09607412 0.075810745
0.06723923 0.17196098 0.03932601 0.120001465 -0.003249906 0.06849822 0.11344949 0.04937993
0.049756423 0.0799552 0.090140365 -0.071047895 0.12648728 0.031052632 -0.0049227844 -0.10326032
0.12010488 0.12219812 0.0583836 0.0424101 -0.07318411 -0.14653955 -0.073492385 -0.024916537

features.layers.2.logic.1.layer.0.mlp.0.bias f4 [8]
00000000: b669 41be 3f80 25be d07b 33be ae1d e63c
00000010: f9cc 483d cb8f 85bd 822f 0d3e 7e5c 3bbe
-0.18887982 -0.16162203 -0.175277 0.028090324 0.049023602 -0.06521567 0.13787654 -0.18297002
