models_every10epochs/checkpoints/checkpoint_90.pth (torch, 178410 bytes, 101 tensors)

features.layers.0.logic.0.layer.0.mlp.0.weight f4 [8, 18]
000000 b0 d3 96 bc b5 25 08 bd 1b ff 94 bd 71 8e cc bd
       -0.018411487 -0.033239085 -0.0727522 -0.09988106
000010 0d 2a 21 bd 36 c6 08 3e 47 88 b9 bc 77 0e a9 bb
       -0.039346743 0.13356861 -0.02264799 -0.005159195
000020 0b 6d 20 3b b3 79 1e 3c 26 9a f6 3d a0 a2 bb bd
       0.0024479057 0.00967257 0.1204112 -0.09161878
000030 3b bc 55 be 43 21 3a 3d 39 5a 10 be 55 ea ff bc
       -0.20872585 0.045441877 -0.14096917 -0.031239668
000040 8d ad 43 be 86 f0 27 3d d7 50 fe 3d e6 8c f4 3d
       -0.19109173 0.041000865 0.12417763 0.11940937
000050 fd 7a ba bd dc 57 32 3e 2e 7d 92 3d 04 f8 89 bd
       -0.091054894 0.17416328 0.071527824 -0.06736758
000060 4a 54 d6 3d d3 09 19 3e cb 9e 5a 3e 9c 39 5b bd
       0.104652956 0.14945154 0.21349637 -0.053521737
000070 cd 3e 07 3e ff 35 0b be 32 4a 36 3d c7 88 44 bd
       0.1320755 -0.13594817 0.044504352 -0.047982004
000080 5e ae fa 3b 37 05 9f bd 6f 5f e6 3b 09 45 b5 3c
       0.0076501807 -0.077646665 0.0070304195 0.022127645
000090 1b 75 1f 3e 25 db 9d bd a7 95 ec 3d 75 1e 6c 3e
       0.15572016 -0.07707814 0.115519814 0.23058493
0000a0 96 9b ce 3c 63 8d 0c 3e 58 0c 4c 3d 37 23 48 3d
       0.025220674 0.1372581 0.04981646 0.04886171
0000b0 d1 c1 02 3e 03 4e 27 3e 3a a9 b5 3d f1 b6 90 3e
       0.12769248 0.16338353 0.08870168 0.28264573
0000c0 1e 92 01 bd ec a3 01 3e c5 fd 12 3e cb 53 9d 3e
       -0.03163349 0.12660187 0.14354618 0.3072799
0000d0 bb cd 76 bd 76 3f f7 3d c7 ad 0e 3e 9a e0 f1 3d
       -0.060254794 0.12072651 0.13933478 0.118104175
0000e0 65 c0 de 3d c3 d6 31 be 0c d7 3b be 0c 03 9d 3d
       0.1087654 -0.17367081 -0.18343753 0.07666597
0000f0 b1 85 37 be 3c 14 0d 3e 7f 76 17 bd 9f 36 0a 3e
       -0.17922093 0.1377725 -0.03697824 0.13497399
000100 81 45 87 3d 23 30 fe bb b6 19 4e be cb 31 01 3e
       0.06605054 -0.007757203 -0.20126995 0.12616651
000110 36 1e c1 bd 85 da 00 3e 10 b0 2b bd a9 4a 15 3d
       -0.094295904 0.12583359 -0.041915953 0.036448155
000120 74 ed d5 3d a9 9a c5 bc 74 1f 1d 3e fa 95 68 3e
       0.10445681 -0.0241216 0.1534403 0.22713462
000130 66 ad 83 3e ab 04 98 3d 48 7e 45 3e 8c e8 68 bd
       0.2571823 0.07422765 0.19286454 -0.0568624
000140 1f 0d d2 bc 82 da 3b 3e c8 75 0a 3a 1d 57 ae 3d
       -0.025641022 0.18345073 0.0005281833 0.08512709
000150 da ca 62 bd 8b 5c 4e 3e bb c5 bb 3d c6 29 3c 3e
       -0.055369236 0.2015249 0.091685735 0.1837531
000160 db 50 3b 3e 3e 25 3f 3e ed 3c d1 bd e6 38 9c 3d
       0.18292563 0.1866655 -0.10216699 0.0762804
000170 5c 87 02 3e 01 47 33 be 2d 13 c9 3a 2b 43 6c be
       0.12746948 -0.17507555 0.0015340798 -0.23072498
000180 eb 11 84 bd de 59 a1 bd 5c e4 3e be b2 d5 01 bd
       -0.0644873 -0.07878469 -0.186418 -0.031697936
000190 31 07 1d 3e 54 e4 e7 3d f8 a3 7e 3d 69 af ac bd
       0.15334775 0.11322847 0.06216809 -0.08431894
0001a0 86 26 09 be 8c 3c 1c be f6 5d 17 be 05 6c e0 3d
       -0.13393602 -0.15257472 -0.14781937 0.10958103
0001b0 b8 48 f6 3d 1b 33 43 bd db 10 1b 3e b1 33 00 be
       0.12025589 -0.04765616 0.15143149 -0.12519719
0001c0 df bc 18 3e 2d 71 d8 3d ea ac 86 bb a5 13 11 be
       0.14915799 0.105684616 -0.0041099684 -0.1416765
0001d0 1b b8 37 bd f4 83 f4 3d 22 4c 24 3e 4f 14 24 be
       -0.04485331 0.119392306 0.16044667 -0.16023372
0001e0 ca 0e c4 bd 1f c5 e4 bd 9d b6 ff 3d 50 3b 02 3e
       -0.09573133 -0.1117041 0.124860026 0.12717938
0001f0 24 42 8c bd 53 4e 8a bd 3f a0 51 ba 42 56 ec bd
       -0.06848553 -0.067532204 -0.0007996596 -0.1153989
000200 3b 15 1b 3e 1e 23 b6 bb d1 3e 20 3e e6 67 51 3d
       0.15144818 -0.0055583855 0.15648963 0.051124476
000210 9d d6 a9 bc df bb c6 bd 2b 3c db bc 8e a4 82 bd
       -0.020732218 -0.09703802 -0.026762089 -0.063790426
000220 90 2e 13 3e 58 1d 25 be cb eb 9c bd 5e a4 76 3b
       0.14373231 -0.16124475 -0.076621614 0.0037634592
000230 fa ea ab bd 3a 68 65 bd eb c7 b5 3d c1 7c 1f 3e
       -0.083944276 -0.0560076 0.08876022 0.15574934

features.layers.0.logic.0.layer.0.mlp.0.bias f4 [8]
000000 5b d8 a0 3c 2b b6 dd 3c 4c 38 b6 3d f2 b2 80 bd
       0.019634416 0.027064404 0.088974565 -0.06284131
000010 b9 3e 10 bd 3b c8 24 3e d0 98 e2 bb 7e 5b 0b 3e
       -0.035216067 0.16092007 -0.0069151893 0.1360912

features.layers.0.logic.1.layer.0.mlp.0.weight f4 [8, 9]
000000 31 be cd 3d 0a fa a4 3c 5f 5d 21 3e 93 f0 95 3e
       0.10046042 0.02013876 0.15758274 0.29285106
000010 6e ee 12 3e f1 ec 30 3e 61 f9 1d 3e 01 d3 aa 3e
       0.14348766 0.17277886 0.15427162 0.33364108
000020 90 aa b3 3e 27 db 09 3e a0 05 a8 3e e3 3f 98 3e
       0.35091066 0.13462506 0.32816792 0.29736242
000030 c7 c0 12 3e e0 41 a1 3d ae e6 e9 3d 3e 92 04 3e
       0.14331351 0.07873893 0.11420952 0.12946412
000040 29 13 05 3e f1 c3 f2 3e f3 76 d5 bd 34 ab d7 3c
       0.1299559 0.47415116 -0.104230784 0.026326753
000050 34 47 4d bd 66 93 c4 be 4d 2e 26 bd f0 39 42 be
       -0.050116733 -0.38393706 -0.0405715 -0.18967414
000060 da 2f 6c be 7c b4 c7 be d0 7b 81 be de 95 d6 be
       -0.23065129 -0.39004886 -0.25289774 -0.41911215
000070 8e 0a 26 be 70 88 d9 be f5 da 33 be 94 f4 b8 bd
       -0.16214964 -0.42486906 -0.17563994 -0.090310246
000080 6f 3c c4 be d8 ed 6a 3d b2 d8 06 be f0 80 b1 bc
       -0.38327357 0.05735573 -0.131686 -0.021667928
000090 7e 0f 04 3e f8 a5 87 be 3f 48 3f be 94 5b a3 be
       0.12896535 -0.26493812 -0.18679903 -0.31905806
0000a0 5e 23 a9 be 13 15 df bd db b0 c8 bd 1c 42 3a 3d
       -0.33034796 -0.108926915 -0.097993575 0.045473203
0000b0 12 17 13 bd 7b 06 56 3d d7 ce 36 3e 8b 22 9e 3e
       -0.035910673 0.052252274 0.1785234 0.3088573
0000c0 4d 91 81 3d 5a 5d 7c 3e fd fd 99 3e b2 9e 98 3e
       0.06326542 0.24644986 0.3007659 0.29808575
0000d0 85 b1 76 3e c1 c2 25 bd 9a 7a 5e 3e ae a0 92 3e
       0.24091156 -0.040468935 0.21726456 0.28638214
0000e0 a6 74 5f 3e 72 9a bd 3c b7 4f f1 3c c7 81 6e 3e
       0.21821842 0.023144934 0.029456956 0.23291694
0000f0 f4 76 22 3e 4f 53 bd 3d ab a8 9b 3e c4 f7 17 3c
       0.1586569 0.092444055 0.3040212 0.0092753805
000100 66 21 d6 be dc aa 88 be 76 56 5c be 83 44 1c be
       -0.41822356 -0.26692855 -0.21517357 -0.1526051
000110 2c 88 01 3e 47 a3 20 be a5 71 b0 be 42 36 c0 be
       0.12649602 -0.15687285 -0.34461704 -0.37541395

features.layers.0.logic.1.layer.0.mlp.0.bias f4 [8]
000000 a0 78 d2 3e 39 f2 97 3e ce 48 e4 be 21 f3 5a be
       0.41107655 0.2967699 -0.44586796 -0.21381809
000010 69 ca c2 be 32 dd da 3e 2c b5 26 3e 25 9e 88 3d
       -0.38045052 0.42746884 0.16280049 0.06670789

features.layers.0.logic.2.layer.0.mlp.0.weight f4 [8, 18]
000000 2d 8a 3f 3e 46 22 3f 3e 49 ae f6 3d 33 51 60 3d
       0.18705054 0.18665418 0.12044961 0.054764938
000010 97 08 8f bd 4a ad eb 3d 3a d8 23 3c 32 1c 72 3d
       -0.0698406 0.11507662 0.010000283 0.05910892
000020 47 3a 35 bd a3 eb 95 3d 0e 8d 10 3e 14 f1 5c bd
       -0.04424503 0.07320335 0.14116308 -0.053940848
000030 99 b0 2c 3d 30 21 65 3d 7e 6e 1e bd e4 f6 2e 3e
       0.042160604 0.055939853 -0.038679592 0.17086369
000040 ab 7c 68 3e d7 71 d5 bc bc 2d 83 bd 7b 28 04 3e
       0.22703807 -0.02605526 -0.064052075 0.12906067
000050 50 cf 66 3e 16 46 e6 3a 01 ca f3 bc 0d 4f 21 3c
       0.22540021 0.0017568495 -0.029759409 0.009845507
000060 c4 44 c8 bd 99 78 73 bd 07 6e d7 bd b8 56 de 3c
       -0.09778741 -0.059441183 -0.10519033 0.02714096
000070 bc d4 7e 3e fb 1b d8 3d 0a 76 8f 3d 4b f5 04 bc
       0.24885839 0.10552212 0.07004936 -0.008115123
000080 db e4 c5 3c de ab 41 3e 27 57 36 3c 2b 24 c3 3b
       0.024156978 0.18913218 0.011129177 0.0059552393
000090 d5 ff 9d 3d 5f b6 19 be 96 3b 27 3d b6 cc 6e bd
       0.07714812 -0.15010975 0.04082831 -0.058300696
0000a0 8b a3 b4 bd 0f 8f bb bd 4f 96 d1 bc ad ce 0e be
       -0.08820256 -0.09158146 -0.025584368 -0.13946028
0000b0 9e 31 e3 3d cf 95 a6 3d b2 0d 71 bd bf f2 f2 ba
       0.11093448 0.081340425 -0.05885095 -0.0018535479
0000c0 90 8c 1d bd 9e 3a cb bd 3c 8a fc bc 3c 88 f0 bd
       -0.03846413 -0.0992329 -0.030827634 -0.11744735
0000d0 fb e8 eb 3d 6a 3a ee 3a 7e 61 00 bd f5 5f b6 bd
       0.11519047 0.0018175368 -0.031342976 -0.08905021
0000e0 9e 98 a2 3d 73 f7 7d bd 90 ef a0 bc 87 08 a1 bd
       0.07939266 -0.062003564 -0.019645482 -0.078629546
0000f0 b5 c5 de 3d 9c 00 21 be 57 24 2b 3e d5 ad 30 3e
       0.108775534 -0.15722889 0.16713081 0.17253812
000100 4e e7 29 bb 9d 3f 25 3e 36 24 2a 3e 89 93 6d 3c
       -0.0025925222 0.16137548 0.16615376 0.014500507
000110 24 b5 e6 bc a3 93 17 be 94 41 54 3d 2d b5 2b 3e
       -0.028162546 -0.14802413 0.051820353 0.16768332
000120 00 50 a7 3d ef 44 b4 bb a9 90 f5 3d 38 2f 27 3e
       0.08169556 -0.0055013816 0.11990482 0.16326606
000130 32 87 25 3e e2 6d ff bd 23 2f 45 3d b3 f0 a6 bd
       0.16164854 -0.1247213 0.048140656 -0.081513785
000140 53 d2 9d bc bf 1c 3d 3e 6a 9a fd bd a6 86 fc 3b
       -0.01926533 0.18467997 -0.12382968 0.007706481
000150 3e 28 bf 3d b4 2a f0 3d 88 61 85 bb 87 b4 fd 3d
       0.093338475 0.11726895 -0.0040704645 0.123879485
000160 94 89 d6 3d 59 a4 03 3e 56 0e b3 3d 79 0d ed bd
       0.1047546 0.12855662 0.08742969 -0.11574835
000170 c7 40 5f 3d d9 59 87 3c f6 31 79 bd c6 78 dd bd
       0.054505136 0.016522335 -0.060838662 -0.10814051
000180 c6 63 49 3e 29 8e 40 3d ec 88 65 bc 52 ff bd bd
       0.19666967 0.047010574 -0.0140096955 -0.09277214
000190 0c f0 c9 3c 2b d6 5d 3e 5c 21 51 bd 19 3f bd bc
       0.024650596 0.2166373 -0.051057205 -0.023101376
0001a0 70 2e b5 3d 06 18 6b 3e 01 ed 90 bd 88 48 66 3e
       0.08846748 0.22958383 -0.07076455 0.22488606
0001b0 7e d9 a7 bd 49 6f 77 3d cb 7e b9 bd b5 cd bf bc
       -0.0819578 0.060408864 -0.09057387 -0.023413518
0001c0 8b 25 d8 3d 37 e1 fc 3c c1 0e d1 3d a3 8b 10 be
       0.10554036 0.03086911 0.10207892 -0.14115767
0001d0 92 a2 31 3e 97 f2 a6 bd 0c ab 5a 3e 96 50 d5 bc
       0.17347172 -0.08151739 0.21354312 -0.026039403
0001e0 b3 c0 30 3e 45 85 4c 3e 8a 2e 04 3e 60 b5 f2 3d
       0.17261009 0.19972713 0.12908378 0.11851001
0001f0 21 8c 4c bd 56 c6 8f bc 27 cc 31 be cc 0a ba bd
       -0.049938325 -0.017550629 -0.17363034 -0.090840906
000200 13 27 2a 3c 29 38 a9 bd 32 3d 91 3c 78 81 1f be
       0.010385293 -0.08262665 0.017729376 -0.15576732
000210 7f 8c fa 3d ae fc e5 bd 1e d9 ec bc b6 e3 b5 bd
       0.12233829 -0.112298355 -0.028912123 -0.08881323
000220 c8 45 8c bd ba ac 93 bd d0 53 d6 bd 18 5d 4f be
       -0.06849247 -0.07210679 -0.10465205 -0.20250356
000230 a8 48 27 3d 7a 10 38 be 01 74 2b 3d 23 8b f8 bd
       0.040840775 -0.17975035 0.041858677 -0.12135913

features.layers.0.logic.2.layer.0.mlp.0.bias f4 [8]
000000 0e 5f 77 3e fb 64 82 bc f1 cf 00 3e b2 df f8 bc
       0.24157354 -0.015917292 0.12579323 -0.030380104
000010 47 cc 35 3e 0a 97 40 3e 6e dd 62 3d a8 30 11 be
       0.17753707 0.18807617 0.055386953 -0.14178717

features.layers.1.logic.0.layer.0.mlp.0.weight f4 [8, 42]
000000 05 11 54 bd 01 af 79 3d 63 2f 06 3d 2b ad cd bc
       -0.051774044 0.060957912 0.032760035 -0.025106987
000010 3c 11 03 3e fd 38 4c bd 44 f5 e9 3d 3a f8 b2 3d
       0.12799543 -0.049859036 0.11423734 0.08738752
000020 1f 6e e0 bc a6 9f a4 bc 8a fa 0c 3e 66 e0 a9 3d
       -0.02739626 -0.020095658 0.13767448 0.08294754
000030 93 e6 cf 3d e7 e8 c2 3d 94 6f e5 3d 5f a4 96 bd
       0.101514004 0.09517079 0.112029225 -0.0735557
000040 ae f4 0b 3e 46 f1 fe 3d d7 0a a8 3d e5 e9 80 bb
       0.13667557 0.12448363 0.082051925 -0.0039341324
000050 e5 d9 b0 3d f4 d5 c6 3d e4 47 36 bd 80 78 17 3d
       0.0863531 0.09708777 -0.044502154 0.036980152
000060 c5 5a 0e 3e 68 ad 07 3a c6 60 ff bc 45 81 d2 3d
       0.13901813 0.0005175681 -0.031174075 0.102785625
000070 83 60 a5 bd c5 bc a7 bc 87 59 2f bd 52 eb 6b bd
       -0.08075049 -0.020475755 -0.04280999 -0.057597466
000080 0e 06 ae 3d fd 8a ba 3c b3 9c 18 bd ab 63 3e 3d
       0.084972486 0.022771353 -0.037258815 0.04648177
000090 16 bf a2 3a d5 33 40 bd ff f6 73 3d 23 75 83 3c
       0.0012416567 -0.04692443 0.059561726 0.016047066
0000a0 22 60 b8 3b c6 f2 cb bc 74 4a 10 bd 55 5f 33 3d
       0.0056266943 -0.024896037 -0.035227254 0.043792088
0000b0 fb a1 bf 3d e1 f9 dd 3c fc 52 4f 3b 19 dd ae 3d
       0.09357067 0.02709669 0.0031635156 0.08538265
0000c0 72 f5 86 bd b9 d5 99 bd 04 aa 2c bb 2a 01 94 bd
       -0.06589784 -0.075114675 -0.0026346454 -0.072267845
0000d0 04 6e 4c bc d6 60 b0 3d df d0 12 3e ce 0c 68 3d
       -0.012477402 0.0861222 0.1433749 0.056652837
0000e0 9d 39 86 3d d3 f4 e1 3c 0e 38 2a 3d de 2b 3f 3d
       0.065539576 0.027582562 0.041557364 0.046672694
0000f0 7a 7a 1a 3e 4f e9 f9 3c 18 e0 6c 3d 72 62 1c bd
       0.15085784 0.030506758 0.0578309 -0.038179822
000100 77 dc 8b 3d 24 d5 fb 3d b8 22 2f 3d 66 c8 6a 3d
       0.0682916 0.12296513 0.04275772 0.05732002
000110 de 5c fd bc 1c 84 c9 3d bf 1e 0a 3e 53 d2 e4 bc
       -0.030928072 0.09839651 0.13488291 -0.027932322
000120 0f 74 8f 3d 72 35 e9 bc db 7d ed 3d e5 89 05 bc
       0.07004558 -0.028467868 0.11596271 -0.008150552
000130 a6 24 26 3d 76 bf e6 3d 4a d4 10 3d 0e 48 3f 3e
       0.040562294 0.11266987 0.035358705 0.1867983
000140 7f c7 c9 3c 95 4b cc 3d e9 90 04 bd e5 a5 a8 3d
       0.02463126 0.09975354 -0.03236476 0.08234767
000150 e0 d4 66 bd 37 a5 0c 3d 0b 0e ed 3c 0f 89 d4 bd
       -0.056355357 0.03433725 0.02893736 -0.10377704
000160 bc 91 16 3c 8c 73 83 3c c6 b7 05 3e 69 89 74 ba
       0.009190019 0.016046308 0.13058385 -0.0009328337
000170 a8 00 c6 3d 60 db b6 3c b3 3f 8e 3d 3d 7c c0 3d
       0.09668094 0.022321403 0.069457434 0.093986966
000180 17 7c 89 bd 21 9f 4f bc 94 05 eb 3d a7 11 58 3d
       -0.067131214 -0.012672217 0.11475673 0.05275121
000190 22 09 bb 3d a3 d3 a7 bb d1 46 4d 3d 50 8e 5f bd
       0.09132601 -0.0051216646 0.050116364 -0.05457908
0001a0 21 73 a1 3d f8 e3 0c 3e 23 e0 7e 3c b4 e1 b3 bd
       0.07883287 0.13758838 0.015556368 -0.08783284
0001b0 d9 51 75 3d 24 8c bb 3d 7a 1e 82 3d f2 74 29 3e
       0.05989251 0.09157589 0.06353469 0.16548517
0001c0 43 97 ed 3d 49 20 56 bc 5c cc 97 3d 4a f1 e7 ba
       0.116011165 -0.013069221 0.07412025 -0.0017695811
0001d0 89 73 12 bc 12 92 d0 3d 20 5e c6 3d d6 d5 9b bc
       -0.008938679 0.10184111 0.09685922 -0.019022863
0001e0 e4 44 ff bc cb 17 4e 3e bf 35 7d bd 71 56 de 3d
       -0.03116078 0.20126264 -0.061818834 0.10856331
0001f0 ae 7b 05 3e b0 29 51 3d a6 dc ca 3c 54 95 3c be
       0.13035461 0.051065147 0.024763416 -0.18416339
000200 0f db 62 bd ae 6a 8a bc 12 af 54 3c 4f 49 0f be
       -0.05538469 -0.016896572 0.012981193 -0.13992809
000210 76 1b 42 3d 8a dc 92 3d 0d 5d 0a 3b c5 c8 2c be
       0.04738947 0.07170971 0.0021112591 -0.16873462
000220 4f 7d df bd 65 20 08 3d 90 f5 2b be a1 87 6f bd
       -0.109125726 0.03323402 -0.16792893 -0.058478955
000230 44 49 39 bd e7 f6 74 3d e7 be 01 3d 96 5b 02 be
       -0.045235887 0.059805777 0.0316762 -0.1273025
000240 9d 7d 0e bd 73 a2 05 be 8f 20 af bb ae 7a 9f bd
       -0.034787763 -0.1305025 -0.0053444575 -0.07787071
000250 5a 21 cb 3b 80 c3 68 3c 17 89 e2 bd d7 bb 2e 3d
       0.006199044 0.014206767 -0.11061304 0.042659607
000260 6b 89 86 bd 8e 3f 0b bd 0c 79 16 3c 9b d1 2e 3d
       -0.06569179 -0.033996157 0.009184133 0.042680364
000270 3c 76 13 be f3 34 04 be c8 00 14 bd bc 78 e0 bc
       -0.14400572 -0.12910824 -0.036133558 -0.02740132
000280 4d 96 07 be 44 ac 51 3c 8d 97 86 bd b9 66 a6 bd
       -0.13240929 0.012797419 -0.06571875 -0.081250615
000290 ce 13 9b bd 1b 88 1d be c6 9f b2 bd 56 a9 65 3c
       -0.07572137 -0.15383951 -0.087218806 0.014017424
0002a0 9c 95 88 3d 5a 72 08 3e 1f c9 07 3e ff 83 d0 3c
       0.06669161 0.13324872 0.13260315 0.025453566
0002b0 0c ae 15 bd 7e 75 97 3d 8c 40 88 bd c1 2b 6a bd
       -0.036542937 0.07395457 -0.06652936 -0.057170633
0002c0 43 09 a2 bc fd 01 3d 3d 9d 18 2b 3d 1a cf 81 bd
       -0.019779807 0.046144474 0.04177152 -0.063383296
0002d0 74 dc 30 3e d2 16 1e 3e 57 f0 74 3d 29 11 29 bd
       0.17271596 0.15438393 0.05979952 -0.04127613
0002e0 3d 2b 10 bd a2 d2 f6 3d de a8 79 3d b2 5f 37 3e
       -0.035197485 0.12051894 0.06095206 0.17907599
0002f0 71 3d 23 3e 47 ed b7 3d c5 b9 1d 3e 3d 16 02 3e
       0.15941407 0.08980804 0.15402897 0.12703796
000300 f5 fb a9 3d eb 10 14 bd bd 42 e5 3d 99 71 d5 3d
       0.0830001 -0.036148947 0.1119437 0.10422058
000310 fa b7 bf bc 05 f9 b9 3d 84 a6 9d bd ee 16 37 3d
       -0.023403157 0.090807 -0.07697776 0.0446996
000320 1c a8 e9 3d 33 63 b1 3b 00 dd 94 3d 50 27 97 bc
       0.114090174 0.005413437 0.07268715 -0.018451363
000330 67 9e 06 bd 59 73 d8 3d 37 56 ec 3d 76 b8 1c bd
       -0.032865908 0.10568876 0.11539882 -0.038261853
000340 c0 dc e8 3b ee 98 c7 bc ce f5 94 bd bf f2 8b 3d
       0.0071063936 -0.024364915 -0.07273446 0.068334095
000350 b8 56 d2 3d 2b 7c 8f bd 94 b8 a4 3d 4b 82 ef 3d
       0.102704465 -0.07006105 0.08043018 0.11694773
000360 b6 a1 b5 3d 90 6e 93 3d c9 19 25 3e a9 c8 22 bd
       0.088687345 0.071988225 0.16123118 -0.039742146
000370 0c c1 02 3e d1 1d ad 3d dc 25 32 bd 4c 40 ba 39
       0.12768954 0.08452953 -0.043493137 0.0003552459
000380 65 88 0a 3d c0 de 2d 3d 33 bc a0 3d b3 65 70 bd
       0.033821482 0.04244876 0.07848396 -0.058690738
000390 e0 78 e1 39 1c 2e 35 3e da 13 bb 3d 36 13 cf bc
       0.00043005403 0.1769337 0.09134646 -0.025277715
0003a0 17 27 c9 3d 41 82 0c 3e 23 3f 00 3e a2 24 07 bd
       0.09821909 0.13721563 0.12524085 -0.03299392
0003b0 cd bd 28 3e c1 67 0d 3e e6 a3 0e 3d 1d c3 bb bb
       0.16478653 0.1380911 0.034824274 -0.0057300464
0003c0 0d 04 20 3c 7f 20 04 bd c5 0b 15 3d fd b9 44 bc
       0.009766591 -0.032257553 0.036388177 -0.012007234
0003d0 4c ee 19 bd 30 39 e1 3d 5b 8e 00 3e 8d 08 94 bc
       -0.037580773 0.10997236 0.12554304 -0.018070484
0003e0 c2 41 d4 bb db 49 70 bb 8f ba 27 3d 69 b0 21 3d
       -0.0064775655 -0.0036665115 0.0409494 0.03947488
0003f0 df 37 07 3e 04 67 21 3d d8 7a d7 3d 8e d8 5f bd
       0.13204907 0.039404884 0.105214775 -0.054649882

features.layers.1.logic.0.layer.0.mlp.0.bias f4 [8]
000000 3e c2 08 3e 9f 8f a4 3d b0 46 5d bd 54 46 27 3d
       0.13355348 0.08035206 -0.05402249 0.040838555
000010 23 e6 4f 3d f0 d1 c6 3d 15 3b 01 3e 87 50 31 3c
       0.050756585 0.09708011 0.12620194 0.010822422

features.layers.1.logic.1.layer.0.mlp.0.weight f4 [8, 41]
000000 92 5b bd bd c7 c5 b8 be 01 f3 86 be 78 cf 98 3d
       -0.09245981 -0.36088392 -0.26357272 0.074614465
000010 c0 d9 0c be 44 99 71 3d a8 bf 2e be b6 95 2e be
       -0.1375494 0.058984056 -0.17065299 -0.17049298
000020 06 a4 de bd 9b fa f9 bd a8 ce 57 bd 5a fb 8f bd
       -0.10871129 -0.12206002 -0.052687317 -0.070303634
000030 c8 32 51 bd 50 15 c3 bd 34 08 dd bd 17 e5 11 bd
       -0.05107382 -0.095255494 -0.1079258 -0.035618868
000040 ca c5 b2 bd 83 65 91 be cf a0 f4 bd 9e c1 64 3c
       -0.087291315 -0.2839776 -0.11944734 0.013962178
000050 67 ce cb bd 43 ee 60 3c 1d c4 09 bb ac 1d 90 bd
       -0.099514775 0.013728681 -0.0021021434 -0.070369095
000060 7a bc 5d bd 54 06 42 be 26 28 36 be 65 de dc bd
       -0.054134823 -0.18947726 -0.17788753 -0.10784606
000070 9b 71 82 bd 93 e8 f0 bd 5b 46 e3 bd e9 f5 63 be
       -0.06369325 -0.1176311 -0.110974036 -0.22261776
000080 bc 44 2e be 09 7b 26 be b8 9b 1a be 93 3d 2f be
       -0.17018408 -0.16257872 -0.15098464 -0.17113332
000090 04 83 72 be 72 c9 dd bd a3 da 34 be 16 55 a1 bd
       -0.23682791 -0.10829438 -0.17661528 -0.07877557
0000a0 c3 63 ff bd ce d7 46 bd 44 9a c4 be 9d 2b b8 be
       -0.124702 -0.04854565 -0.38398945 -0.35970774
0000b0 da 50 18 be fa 98 3c be 34 f6 0e be 2c 8e 9c be
       -0.14874592 -0.18417731 -0.13961107 -0.3057722
0000c0 fe bd df bd 27 74 9f bd f8 62 bf bd 76 20 06 bc
       -0.1092491 -0.07785826 -0.09345049 -0.00818645
0000d0 3c 61 7a 3c 1c 74 24 be 58 1f cd bd 96 3f 15 bd
       0.015281972 -0.16059917 -0.10015744 -0.036437593
0000e0 f7 04 fc bd a2 58 7e bd 4f b9 11 be fb d5 43 be
       -0.123056345 -0.062096246 -0.14230846 -0.19124596
0000f0 31 6c 83 bc c3 3b c4 bd 47 bf 98 bd 2d a3 1c be
       -0.0160428 -0.09581711 -0.07458358 -0.15296622
000100 9b 1d 24 be 21 f7 cd 3c 6a ea 8a be b7 e5 49 be
       -0.16026919 0.025142254 -0.2713197 -0.19716536
000110 e1 6b 2d bd 8e 6e f8 bc 0c cd 71 bd d9 d9 c6 3c
       -0.04233921 -0.030326154 -0.05903344 0.0242738
000120 43 12 5b be 7b 04 87 be fe 8e d1 bd e8 c0 27 be
       -0.21393685 -0.26370606 -0.10232352 -0.16382182
000130 8f 6b fc bd a7 04 8f be 46 3f a0 be c2 2a 48 be
       -0.12325203 -0.27933237 -0.31298274 -0.19547561
000140 2a 5e 56 3d ce c8 77 bd 6f 87 9b 3d 0b b0 33 be
       0.052335896 -0.060494237 0.07594191 -0.17547624
000150 80 f2 86 be 10 6a 3b 3d cf e5 89 be 21 8a 8c 3d
       -0.26356888 0.045755446 -0.26933143 0.068622835
000160 4b 09 12 be 2f db 03 bd 9a 89 22 3c a4 58 f5 bd
       -0.14261357 -0.03219145 0.009920502 -0.119797975
000170 b1 61 46 bd 1e 93 e8 bd 0a e0 b5 bd a1 c9 07 bd
       -0.04843301 -0.113561854 -0.08880623 -0.033151273
000180 3f f1 cd bc e1 2d 41 be 52 8f 05 be 08 17 17 be
       -0.02513945 -0.18865158 -0.13042954 -0.1475488
000190 2c 16 0b be e9 88 7e bd 5d 3b 73 3d 00 6d 5e be
       -0.13582677 -0.062142286 0.059382785 -0.21721268
0001a0 e2 01 56 bd 1b fc 8c be a8 bc da bd c2 54 62 be
       -0.05224789 -0.2753609 -0.106805146 -0.22102645
0001b0 51 da 74 be 73 2b e1 bd 0d 31 34 bd 7b 15 5f 39
       -0.23911406 -0.109946154 -0.04399209 0.0002127494
0001c0 54 6e 26 bb e5 1e 40 be 20 5e 26 be f0 28 39 bd
       -0.002539535 -0.18761785 -0.16246843 -0.045205057
0001d0 0a 09 26 be 04 fc 15 be ae fb 17 be 2d 34 79 bd
       -0.16214386 -0.14646918 -0.14842102 -0.060840774
0001e0 00 35 35 bd 10 43 71 bc 4b 0d b0 bd 9a f8 f7 3c
       -0.044239998 -0.014725462 -0.085962854 0.03026991
0001f0 0b 34 7e 3e ff 9f af 3e 82 ed d0 3d 3b b4 93 3e
       0.2482454 0.34301755 0.10201551 0.28848442
000200 57 be 9c 3d 73 f3 c9 3e ea 79 99 3e e7 9b 0f bc
       0.07653492 0.3944355 0.29975826 -0.008765197
000210 be b8 b3 bb c4 31 d3 bb b3 bb 6b 3c 2d d1 a9 3d
       -0.0054846695 -0.0064451415 0.014388013 0.0829185
000220 cb c4 9b 3d 23 d0 f0 3d d8 07 38 bc 77 d9 23 3e
       0.07605895 0.11758449 -0.011232339 0.16000925
000230 c8 d9 42 3e 12 48 0b 3e 67 e9 0b 3e b4 f1 ad 3d
       0.1902839 0.13601711 0.13663255 0.08493367
000240 c0 02 0a bd e2 e6 0a 3e 89 60 d1 3d 00 ba 86 3d
       -0.03369403 0.13564637 0.10223491 0.065784454
000250 8d 5b 3f 3e 53 3f 03 3e 24 88 bb 3d 11 0d 3d 3e
       0.18687268 0.12817125 0.09156826 0.18462016
000260 cb e9 c1 3d d0 da 0b 3e 54 42 88 3e db 60 df 3c
       0.094684206 0.13657689 0.26613104 0.027267864
000270 7f 55 32 3e 5f bd 23 3e 0f f4 4d 3e ec b9 7e 3d
       0.17415427 0.15990208 0.20112632 0.062189028
000280 a1 d3 8f 3e 73 6b 3a 3e b4 6a e2 3d ba 61 f9 3d
       0.28091148 0.18205051 0.11055508 0.12176843
000290 35 56 46 3d 3c d8 a3 3e c3 9a 39 3e 67 ae 72 3d
       0.048422057 0.3200091 0.18125443 0.059248354
0002a0 21 20 89 3e ce ee 2a bd cb 43 9a 3e 27 64 1b bc
       0.26782325 -0.04173165 0.30129847 -0.009484327
0002b0 fd 86 03 3d 4e d8 04 3e 17 ee c2 3d 4d 60 35 3c
       0.032111157 0.12973139 0.09518068 0.011070323
0002c0 05 68 1a 3e 75 19 52 3d 78 d6 ad 3c c0 1d 82 3e
       0.15078743 0.05129381 0.02122043 0.25413322
0002d0 58 11 a1 3d ef 11 2e 3e f8 f2 43 3e f7 be f6 bd
       0.07864636 0.16999029 0.19135654 -0.120481424
0002e0 ee 7b 6f 3c 98 f7 96 3d fa b7 12 3e 80 45 6b 3d
       0.0146169495 0.073714435 0.14327994 0.057439327
0002f0 6e df e7 3d fb 32 18 3e a3 4c 09 3e 81 a4 7f 3c
       0.11321913 0.14863198 0.13408141 0.015603186
000300 a8 5e fe 3d 1e ed f9 3d 0d c0 c9 3b d0 9e 04 3e
       0.12420398 0.1220343 0.0061569274 0.12951207
000310 d5 8d 17 3d ba 6b 61 3e b7 7c 1a 3e ae 32 5c 3e
       0.037000496 0.2201375 0.15086637 0.21503708
000320 67 18 39 3e 77 10 95 3e 1f 77 5a 3d 38 8e f0 bd
       0.18075715 0.29114124 0.05333626 -0.11745876
000330 72 58 18 bd 41 eb c9 b8 02 58 07 be 0d 39 ff bd
       -0.037193723 -9.628246e-05 -0.13217166 -0.124620534
000340 9d e2 6d 3d c3 4a 57 be e9 7a 94 bd 26 fe 88 be
       0.058077443 -0.21024613 -0.07250006 -0.267564
000350 ac ae 17 be 87 cf 59 be 3b 23 d2 bc 60 cd 72 bd
       -0.14812726 -0.21270572 -0.025651565 -0.059277892
000360 1b d8 3d be 51 a4 18 be 15 d3 9d bd 48 eb 04 be
       -0.18539469 -0.14906432 -0.07706276 -0.12980378
000370 f2 e8 8b bd 9d bb 25 be 92 d2 e5 bd 27 d9 0e be
       -0.0683154 -0.1618485 -0.11221804 -0.13950025
000380 16 13 89 3d 51 f8 60 bd 96 22 c9 3c 1b 5c ef bd
       0.066930935 -0.054924313 0.024552625 -0.116874896
000390 2e b0 c9 bd c8 5e 66 bd 9e 9c 4c bd f4 fc 59 be
       -0.09848057 -0.056242734 -0.04995405 -0.212879
0003a0 5d ee 3d be d5 bf 8a be 98 2a d6 3c 79 dd cf 3b
       -0.1854796 -0.2709948 0.026143357 0.0063435403
0003b0 60 23 14 be 61 4a cf 3c 67 1c 17 be a6 87 49 be
       -0.1446662 0.025304021 -0.14756928 -0.19680652
0003c0 46 f8 57 be 6d e8 05 be 63 ab 7e be 0e 15 13 bd
       -0.21090803 -0.13076945 -0.24870066 -0.03590875
0003d0 16 68 d7 bd 14 29 ff 3c 3f b7 fc 3d 9e 35 90 3e
       -0.105179 0.031147517 0.12339639 0.28165907
0003e0 5d 17 0f 3e 26 33 ae 3d eb 04 25 3e 84 3d 60 bd
       0.13973756 0.085058495 0.16115157 -0.054746166
0003f0 4d 7e c8 3d 9a e8 d6 3d 26 5c dc 3d bf b0 0d 3e
       0.09789715 0.10493584 0.107597634 0.13836955

features.layers.1.logic.1.layer.0.mlp.0.bias f4 [8]
000000 28 b7 16 be 8a 96 01 be e1 2b f1 bd 6b be a3 3e
       -0.14718306 -0.12655082 -0.11775947 0.31981215
000010 b7 16 87 3e ea eb 0d be b6 71 77 3e 44 3c 21 3e
       0.26384518 -0.13859525 0.24164471 0.15745646

features.layers.1.logic.2.layer.0.mlp.0.weight f4 [8, 50]
000000 ad a8 0a bc 9b 30 10 3d ba f6 9b 3b 19 5b 22 bc
       -0.008463067 0.035202604 0.0047596367 -0.009909415
000010 fd 87 95 bc 15 3b ae bd 95 e3 1c 3d a8 02 15 3c
       -0.01825332 -0.08507363 0.038302977 0.009094872
000020 9e 1d 88 3d 0f 5f 92 bd 85 bb ac 3c ea e9 bd bd
       0.06646274 -0.07147037 0.02108551 -0.09273131
000030 71 7c c1 3d 53 f9 e5 bd a4 56 86 3d 6a 74 8e bd
       0.094475634 -0.112291954 0.06559494 -0.06955798
000040 3e 83 83 3d 2f a3 18 bc 30 dd 0b be 65 3f dc bd
       0.06421517 -0.00931625 -0.13658595 -0.10754279
000050 d7 18 78 bb 36 be 31 3d 56 5a 19 bd 55 a7 29 3d
       -0.0037856603 0.04339429 -0.037439667 0.041419346
000060 5b 1b f1 bd 0e 4a df bd 80 16 3b bc 55 4f d9 bd
       -0.11772796 -0.10902797 -0.011418939 -0.106108345
000070 87 fd 03 bd 83 0b 72 bd a5 47 fd bd 98 94 e6 bd
       -0.032224204 -0.05909301 -0.12367181 -0.11258811
000080 af 23 da bd 9e c9 38 bd e0 9f 02 3d 8d 13 1e be
       -0.10651337 -0.045114152 0.03189075 -0.15437146
000090 42 bf d3 39 73 bc 80 bc a9 86 91 bd 90 72 0e 3d
       0.00040387554 -0.01571486 -0.071057625 0.034777224
0000a0 18 37 47 bd da b3 1c bd e5 86 70 3d 04 05 90 bc
       -0.048636526 -0.038257457 0.058722395 -0.017580517
0000b0 c3 c6 3c 3d c4 8f 23 be 69 9b 6d bd 8f 2f 8b bd
       0.04608799 -0.15972811 -0.05800954 -0.067961805
0000c0 e0 92 65 3d be 99 4c bb bf 35 b2 bd 69 7b cf 3d
       0.056048274 -0.0031219567 -0.087016575 0.101309605
0000d0 98 82 3d 3d 79 7f 2f bd 32 3f 9c bd ea 22 b1 bd
       0.046267122 -0.042846177 -0.07629241 -0.086492375
0000e0 b1 93 f7 3c 89 90 0c 3d e9 28 13 be 47 d2 44 3d
       0.030221792 0.034317527 -0.14371075 0.0480521
0000f0 47 07 02 be 73 fd ba bd da 0e 52 bd 38 a3 16 bc
       -0.12698089 -0.09130373 -0.051283695 -0.009194188
000100 7f 1a 56 3d 06 c5 0c bd 2c 4d c1 3c 74 1a b8 3c
       0.052271362 -0.034367584 0.023596369 0.022473551
000110 5c 61 3b bc 48 78 09 be 95 cb 78 bd e6 cf 38 bd
       -0.0114367865 -0.1342479 -0.060741026 -0.045120142
000120 d1 25 8c 3b a0 55 a3 3d f4 cd f5 bc fe e6 23 bd
       0.004276969 0.07975316 -0.030005433 -0.040015213
000130 c3 9c fa 3c 90 f5 7f bd 5c df a2 bd ca 7b 5b bd
       0.030592328 -0.062490046 -0.07952759 -0.05358485
000140 57 d6 8c 3c cf c0 5d bc da a7 90 bd eb 03 fd 3c
       0.017192049 -0.013534739 -0.07063265 0.030885657
000150 36 3d bd bd af 38 2b 3d fe b3 f0 3d 91 3b a2 3d
       -0.09240191 0.041802105 0.11753081 0.07921518
000160 cd 98 ba 3d 43 c7 f8 3c 22 e4 80 bd 72 36 5b bc
       0.09111176 0.030368453 -0.06293513 -0.01337968
000170 e6 74 bf bd e1 33 29 3d b7 88 8b bd f5 f9 8c bd
       -0.093484685 0.04130924 -0.06813186 -0.06883613
000180 23 b4 78 3d a5 03 10 be bc 8f 8b ba e4 78 d4 3d
       0.060718667 -0.1406389 -0.0010647695 0.103746206
000190 60 cf 89 3d ff a8 fb bc 3e f8 de 3d 8a 02 b6 3d
       0.06729007 -0.030720232 0.10887192 0.08887203
0001a0 0a bb 0d bd 29 5b 13 bd 54 a0 14 3e ee 83 af 3d
       -0.034602202 -0.03597561 0.14514285 0.085700855
0001b0 f1 ef a9 bb 21 2a 23 3d bd d7 01 3e 47 24 32 bd
       -0.005186074 0.0398351 0.12679954 -0.043491628
0001c0 8a 49 93 bc 68 3d ce ba 5c f6 88 bd e3 6e bf 3d
       -0.017979402 -0.0015734853 -0.06687614 0.09347322
0001d0 cf 33 96 3c 04 37 7a bd 9d f2 83 3d eb 67 24 3c
       0.018335251 -0.061087623 0.06442759 0.010034542
0001e0 fc d3 94 3d 87 a5 60 3b 9c 4f 75 bc e7 de 1d 3e
       0.07266995 0.003427835 -0.014972594 0.15417062
0001f0 b9 32 be 3c c3 21 f7 3c e3 b6 56 bc 5a 94 19 3e
       0.023217546 0.030167466 -0.013105127 0.14997998
000200 ad b5 42 3d 9a c5 f0 3d 4c dd 70 bc 44 d6 bb 3d
       0.04753654 0.117564395 -0.014701199 0.09171727
000210 60 26 bc 3d 15 32 13 3e 4e 47 1e 3e a8 d8 42 3d
       0.09187007 0.14374574 0.15456888 0.0475699
000220 7a cb 96 3d cb 83 99 39 e2 b3 9f bd a5 0a 18 3e
       0.07363029 0.00029280627 -0.07797982 0.1484781
000230 97 71 ce 3d aa 24 b2 3d fe d0 8d 3d 33 bb f1 3d
       0.10080259 0.08698399 0.06924628 0.118032835
000240 c8 52 fa bd 51 15 81 ba fa 7d f6 3d 43 37 a3 3d
       -0.122228205 -0.0009848272 0.12035747 0.07969525
000250 42 9e 22 3e 55 39 aa ba 33 fd e4 bd 74 c8 da bd
       0.15880683 -0.0012987057 -0.111811064 -0.10682765
000260 41 bb 94 3d d1 c9 93 bd cf ed ab bc aa 04 96 bd
       0.07262278 -0.07216228 -0.02098742 -0.07325108
000270 d5 90 5f 3d 81 1f a7 bd b4 8f 47 3d 0f 66 79 bd
       0.054581482 -0.08160306 0.04872103 -0.060888346
000280 f6 3d a1 bd 28 d3 9f bd b7 54 93 bd bf 9a 00 be
       -0.07873146 -0.07803947 -0.071938924 -0.12559031
000290 09 e3 c2 bd b4 c4 8c 3c c4 b0 0c 3e 44 a4 79 3b
       -0.0951596 0.01718364 0.13739306 0.0038092295
0002a0 60 98 76 3d 34 06 67 3d 48 ef d9 3d 47 61 c8 bd
       0.06020391 0.0564024 0.106413424 -0.09784179
0002b0 b0 8d 1f bc 64 8c da bc a4 af a2 3d 78 0b c8 bd
       -0.009738371 -0.026678272 0.07943657 -0.097678125
0002c0 52 eb 5b bc a1 73 f2 bb a9 12 0f 3e 9c f9 ad 3d
       -0.013422804 -0.007399038 0.13971962 0.08494875
0002d0 91 46 85 bd fc f1 a0 3c 65 8f 0a be 17 9d 67 bd
       -0.065076 0.019646637 -0.13531263 -0.056546297
0002e0 7d 0b 95 bd 58 20 e6 3c 67 56 8c 3c e8 74 2d bd
       -0.07277582 0.028091595 0.017131044 -0.04234782
0002f0 45 84 8b bd 48 38 cf bb c0 48 6a 3d ea 47 8b ba
       -0.06812338 -0.006323848 0.057198286 -0.001062629
000300 6d b8 93 bd 09 0e f0 3c 99 ff c4 bc b6 41 9b bd
       -0.07212911 0.029303567 -0.02404766 -0.07580893
000310 4f 08 a4 3d a6 29 76 3d 88 d1 ad bd 99 94 f7 bd
       0.08009397 0.060098313 -0.084872305 -0.1208889
000320 d0 7a 03 3d b3 d7 ad 3d de a9 75 bc dd 38 a9 3d
       0.032099545 0.08488407 -0.014994113 0.08262799
000330 c7 3a 8c bd f8 77 b0 3c ca 9d 8f bd d0 85 d2 3d
       -0.068471484 0.02154158 -0.07012518 0.10279429
000340 aa 4c b4 3d f0 d5 c6 bc 12 dd 3b 3e 5d 4d c8 3b
       0.08803685 -0.024271935 0.1834605 0.006112738
000350 d5 72 83 3d 9c 45 6a bb c4 65 ac bc 8b 77 26 3d
       0.06418387 -0.0035747057 -0.02104462 0.04064135
000360 62 e0 df bd fb 6b cc 3d 59 66 07 3d ef b8 9b bd
       -0.109314695 0.09981533 0.03305659 -0.07603633
000370 aa d7 6a 3d db a2 17 3e 50 88 09 3d eb a8 a8 3d
       0.05733458 0.14808218 0.033577263 0.082353435
000380 fc 98 08 3c ca 46 c3 3d 2a 1f 3e 3d f6 bd 50 3d
       0.008337256 0.09534986 0.04641644 0.05096241
000390 3e ec 25 bd c4 80 1d 3d d6 05 0e 3d 3e cd 85 3d
       -0.0405085 0.03845288 0.034673534 0.065332875
0003a0 69 25 27 3d 96 a4 21 3e cd b8 bd 3d bb e6 94 3d
       0.04080716 0.15785441 0.092637636 0.07270571
0003b0 93 59 9b bd 1e d6 d0 3d 82 22 ed bb 39 7d b9 3d
       -0.07585444 0.101970896 -0.0072367797 0.090570875
0003c0 95 1f 1c 3e f2 0e 12 bc b4 0d 5d 3d a7 c7 af 3d
       0.15246423 -0.008914696 0.053968146 0.085830025
0003d0 ec 9b f9 3d e2 67 c6 bc 2a 63 bf 3d 19 43 7f 3d
       0.12187943 -0.024219457 0.09345086 0.06231985
0003e0 9a fb c1 3d e3 22 60 3c a7 a3 f9 3b 63 bd 3a 3e
       0.09471817 0.013680193 0.007618386 0.18236308
0003f0 2c 35 45 bd 72 d9 0b 3e 67 4b 5a bd da 80 03 3d
       -0.04814641 0.13657168 -0.053294566 0.032105304

features.layers.1.logic.2.layer.0.mlp.0.bias f4 [8]
000000 c9 c0 05 be 2d c2 8d 3d 14 f5 49 3d a7 77 04 3d
       -0.13061823 0.06921802 0.04930599 0.032340672
000010 ed 25 9d 3c 69 93 90 3c 2b 25 3c be 49 32 b4 3d
       0.019183123 0.017648416 -0.18373553 0.08798654

features.layers.1.logic.3.layer.0.mlp.0.weight f4 [8, 48]
000000 31 4d 23 3e a7 4b b1 3d e3 40 76 3d cc fb 9b 3d
       0.15947415 0.08657008 0.060120475 0.07616386
000010 32 db 8d 3d 09 5c 5b 3c 78 02 ac 3c 01 26 7f 3d
       0.06926574 0.013388642 0.020997271 0.062292103
000020 d3 86 62 bc 1d 41 b4 3d 92 b0 87 3d c1 de b3 bd
       -0.01382609 0.08801482 0.06625475 -0.08782721
000030 b4 0d 54 3d 3b 8b 4f 3b df 8c 3d bd 36 35 b8 3d
       0.05177088 0.0031668681 -0.046276923 0.08994524
000040 51 ef 10 3e 39 73 1e bc 1f e0 00 3e fe 59 a8 3d
       0.14153792 -0.009671026 0.12585495 0.0822029
000050 1d 1e 85 3d 69 39 07 3e 43 bb 99 3d 31 ee 0e 3d
       0.06499884 0.13205494 0.075064205 0.034895126
000060 f6 74 8e 3c b2 d9 c5 3c c2 03 f3 3d 3e 21 5d 3b
       0.017389756 0.024151657 0.11865951 0.0033741738
000070 17 be 3e bd 64 08 6c 3d d0 fc e8 3c 8b a5 89 bc
       -0.046568003 0.05762519 0.028440863 -0.01680257
000080 5d 2b f1 3b d6 42 54 bd d0 e5 cc 3d 26 9e 2d bd
       0.0073599056 -0.051821552 0.10004771 -0.04238715
000090 a1 41 d7 3d d9 82 95 3d 27 3b 29 bd 1a a3 ac 3d
       0.105105646 0.07300348 -0.041316178 0.08429547
0000a0 1c 0e e1 3d 65 58 f0 3d ff f9 ac bc 31 1a 1f bb
       0.10989019 0.1173561 -0.021115301 -0.0024277086
0000b0 4d 0b 8c 3d fe 1f 61 3d 5e 80 c1 3d 5b 5d d8 ba
       0.06838093 0.05496215 0.09448312 -0.0016507314
0000c0 b1 e7 d2 bc 35 46 92 3d 52 4c d4 3d 30 79 ea 3c
       -0.025745245 0.07142297 0.103661194 0.02862224
0000d0 a6 8c 96 bc 5e 6e 88 3d d3 c8 ff 3d 01 33 45 3d
       -0.018377613 0.06661676 0.12489476 0.048144344
0000e0 1b 0c 69 3c bc b5 a0 3c ab 68 a0 bd 82 d5 14 3e
       0.014224078 0.019617908 -0.07832464 0.14534572
0000f0 0d d3 72 3d 7e 00 88 3c 69 cc 92 bc fa 2c 93 bc
       0.059283305 0.016601797 -0.017919736 -0.017965782
000100 2d f7 bc bd 47 b7 c7 bd 76 38 ee 3a d8 ba 02 bd
       -0.092268325 -0.09751754 0.0018174786 -0.03191647
000110 a8 77 10 3d 52 ee 7b bd 43 97 23 3d 5a 46 b8 3a
       0.035270363 -0.061506577 0.039939176 0.0014059052
000120 e1 6b ce 3d 59 d5 ff 3d 89 ff b8 3d 0a 1f f7 bd
       0.1007917 0.12491865 0.090331145 -0.12066467
000130 41 f4 78 bd e1 81 86 3d 6c af 0b 3d 83 0e 64 bc
       -0.060779814 0.06567741 0.034102842 -0.0139194755
000140 5a 5c a2 bd 9d 1c 00 3e 96 3b 3d bd 95 84 a0 3d
       -0.07927771 0.12510915 -0.046199404 0.07837788
000150 00 55 44 bd 0f d8 89 3c 93 88 45 bc f9 49 4e bd
       -0.047932625 0.016826658 -0.012056488 -0.050363515
000160 ff 08 8d bd d7 f7 9b bc 49 b0 b5 bd b2 96 ca bd
       -0.068864815 -0.019039078 -0.08871514 -0.09892024
000170 c6 08 7a 3a 0f e4 e7 3c 01 e2 9e bd 6f 67 99 3c
       0.00095380505 0.028306989 -0.077579506 0.018726079
000180 6d 41 d2 3b cb f2 a1 bd ef af 22 bd 2c 57 9d 3d
       0.0064164908 -0.07907637 -0.039718565 0.07682642
000190 9b 37 3e 3c ac 05 a5 3d bf 85 f6 3d 58 5c da 3d
       0.011609937 0.080577224 0.12037229 0.106621444
0001a0 37 3f df bc 53 b6 e2 bb ef 8b a4 3d e6 8b c4 3d
       -0.027251823 -0.0069187074 0.08034503 0.09596996
0001b0 eb f5 37 bd 62 50 7d bd 36 7a bd 3d e5 a4 64 3d
       -0.04491226 -0.061844237 0.092518255 0.05582132
0001c0 61 44 3b 3d e6 2a ea 3c c5 49 4d 3d 3c ee 62 bd
       0.045719508 0.028584909 0.05011918 -0.05540298
0001d0 be 51 86 3d 29 5e b0 3d da b6 8f bb 89 93 2a 3d
       0.0655856 0.086117096 -0.0043858113 0.041644607
0001e0 29 80 10 3e c6 78 1f bc e1 9b 2a 3d 67 c1 dc 3c
       0.14111389 -0.0097333845 0.041652564 0.02694769
0001f0 55 43 05 3d 97 fe 40 3d 13 f1 8a 3c 4d 43 71 3d
       0.032534916 0.047117796 0.016960656 0.058902074
000200 a2 8f 8a bc 11 92 84 bd 72 c8 ca bd 50 3b d2 3d
       -0.016914193 -0.064731725 -0.09901513 0.10265219
000210 4d 08 f2 bd 62 ea ef bc d6 20 82 3c 2b 25 9d 3c
       -0.118179895 -0.029286567 0.015884798 0.019182762
000220 c0 3b 0e 3e a7 d5 55 3c 62 fa dd bd cb 56 00 3d
       0.1388998 0.013051427 -0.10838772 0.031332772
000230 bd 14 79 3b 70 08 c9 3d 22 2f e2 3d 27 4b 45 3d
       0.0038006746 0.098160625 0.11044146 0.048167374
000240 41 6c d7 3c e7 4a 8f bd 45 77 bd bd 73 83 a4 3b
       0.026296737 -0.06996708 -0.092512645 0.005020553
000250 bd de 22 bd d8 ae 6f 3d 3d 25 04 3e a9 e1 57 3d
       -0.0397632 0.058516353 0.1290483 0.05270544
000260 06 13 99 3d cb c5 e3 bc a5 d6 5b 3d c0 df a2 3b
       0.074743316 -0.027804276 0.053671498 0.0049705207
000270 d0 fb c7 3d dd 3e 1c 3e f6 9b dd bc c3 74 f1 3d
       0.09764826 0.15258355 -0.027051907 0.11789849
000280 f1 02 8b 3d 95 81 d1 3b 77 ee 6b bd 6c 7b 16 bc
       0.067876704 0.006393621 -0.057600465 -0.0091846995
000290 5a 53 5a bd fd c6 82 3d 35 2e 44 3d 98 cf 86 bd
       -0.053302146 0.0638561 0.04789563 -0.06582564
0002a0 0f 2d 20 3e 70 cf 02 3e 71 05 d7 3d 8e 61 48 3d
       0.15642188 0.12774444 0.10499085 0.04892116
0002b0 68 26 e8 3c 0c f4 29 3e 40 32 03 3e 8a a0 10 3d
       0.028338626 0.16597003 0.12812138 0.035309352
0002c0 51 81 c3 3d 4a 40 5a bd 5a 0f a4 3c ea 30 b6 bd
       0.095461495 -0.053283967 0.020026851 -0.08896048
0002d0 27 3f bf bd af f6 9d 3c b6 33 b9 bd ff 44 82 bd
       -0.09338217 0.019282667 -0.09043066 -0.06360816
0002e0 d3 89 d6 3d ff fa 2b bc b6 0e f0 3c 01 db 3b bd
       0.10475507 -0.010496854 0.02930389 -0.045863155
0002f0 2c a2 9a bc 23 d3 d8 bb 00 1f 3b bd a4 e1 0a 3e
       -0.018876158 -0.0066169663 -0.04568386 0.13562638
000300 f5 a2 c8 3c 7d 50 fb bc e9 81 39 bd 41 7d ca 3d
       0.024491766 -0.030678028 -0.045289908 0.098871715
000310 ad 8d 70 bd 13 1e f9 3d f5 54 31 bd 3e 4f ee 3c
       -0.058728863 0.12163939 -0.043293912 0.02909052
000320 82 81 34 3d f8 59 ca bc 72 cb 31 3d b9 9b 3f 3d
       0.04406882 -0.024701104 0.04340691 0.046779368
000330 f6 5e 31 3d c3 6b 43 3c 6b cf de 3d c0 a8 f2 bc
       0.043303452 0.011927548 0.108794056 -0.029621482
000340 25 55 77 bd c2 83 b6 ba 06 fe 90 bd 57 2e a2 3d
       -0.060383935 -0.0013924765 -0.07079701 0.07918995
000350 2f 58 71 3d 9d 33 07 3e 4f e3 ee 3d 5f b9 91 bd
       0.05892199 0.13203283 0.116644494 -0.07115435
000360 42 9f 9d 3d 03 7b a8 bd 5a 40 de bc e4 5f 86 bc
       0.07696392 -0.082265876 -0.027130295 -0.016403146
000370 0c cc 36 3d df 79 0c 39 58 56 c2 bd 9f 43 82 bd
       0.044628188 0.00013396841 -0.09489125 -0.06360554
000380 1b df de bc 08 80 cb bd c0 72 c0 3c c2 dc 9e 3d
       -0.027205994 -0.099365294 0.023492217 0.0775695
000390 37 fa 09 bd 09 b3 dc bb d4 11 9d 3d ca 8d be bd
       -0.03368589 -0.00673521 0.07669416 -0.09304388
0003a0 3c 6a 3c bd fb 5c ef 3d 69 19 6b 3d 92 29 88 bc
       -0.04599975 0.116876565 0.05739728 -0.016621385
0003b0 f5 f1 e5 3b 10 98 9f 3c 68 e1 80 3d a9 99 6a 3d
       0.007017369 0.019481689 0.06292993 0.057275448
0003c0 ec c7 45 bd 8c 62 d8 3d 6c 85 1c 3d 1d f6 a5 bd
       -0.048286363 0.10565671 0.03821318 -0.08103583
0003d0 a4 1b 98 3d 1c 45 8a bc cc 8d 96 3d 58 64 c6 3d
       0.07427147 -0.016878657 0.07351264 0.09687108
0003e0 7b c0 e5 3d f9 f4 0a 3d 76 08 bc bc bc 16 99 3d
       0.11218353 0.03392503 -0.022953253 0.07475039
0003f0 04 aa e8 bc 45 35 c4 3d 80 33 d9 3d 4b b3 ac bd
       -0.028401382 0.09580473 0.10605526 -0.08432635

features.layers.1.logic.3.layer.0.mlp.0.bias f4 [8]
000000 d5 48 9e 3d 95 15 ab bd 18 cf 09 3a f7 9f c0 39
       0.07728735 -0.08353726 0.00052569946 0.00036740277
000010 51 ef d4 bc e8 f7 e8 3b 3a 4a 09 3e d9 06 7d 3d
       -0.025993021 0.007109631 0.13407221 0.06177411

features.layers.2.logic.0.layer.0.mlp.0.weight f4 [8, 66]
000000 6e 6b 6a bd 75 2d e6 3d 5f f7 ef 3d 43 f3 88 3d
       -0.05723136 0.11239139 0.11717104 0.066870235
000010 d3 dc 35 3c 56 15 ad 3c d7 de c7 3d 58 ac f3 bc
       0.011100012 0.021128338 0.097593 -0.029745266
000020 ed 88 59 bd 9c ca c1 3d 12 be 9d bc 11 80 50 3b
       -0.0531091 0.09462473 -0.019255672 0.0031814615
000030 9e 4d 03 3e bf d8 99 3d 19 59 6f 3d 62 1f 57 3c
       0.12822577 0.07512044 0.05843458 0.013130041
000040 24 77 1b 3d 02 b2 b5 3d 2e 3e c5 3c 4c 04 40 3d
       0.03795542 0.08871843 0.024077501 0.046879098
000050 fd f7 dc 3c cd d8 c0 ba b6 6f 0a 3d cc b5 f4 3d
       0.026973719 -0.0014713049 0.033797942 0.119487375
000060 18 67 13 3d fa eb 1f 3d 46 ba f4 3d ed 1b 0c bb
       0.03598699 0.039043404 0.11949591 -0.002137895
000070 ee a3 9b 3d e6 ac da 3d 6e da 39 bd 23 d1 2e 3d
       0.075996265 0.10677509 -0.045374326 0.042679917
000080 71 4c 0a 3e 9b 24 01 3e ed 46 7c 3c 15 e9 48 bd
       0.13505723 0.1261162 0.015397769 -0.04905041
000090 31 9a cb bb e1 4f f8 bc d5 7f 58 bd 46 a9 89 bd
       -0.0062134494 -0.030311527 -0.052856285 -0.067217395
0000a0 4a e7 02 3e d6 0b 35 3a 29 3b 39 bd 16 15 5d bc
       0.12783542 0.0006906366 -0.045222435 -0.013493797
0000b0 b1 42 87 3d d2 e0 06 3e 7e 6e c2 3c 76 75 dc 3d
       0.06604517 0.131717 0.023734327 0.107645914
0000c0 f3 93 39 bd e4 38 49 3d 39 74 80 3d 27 1d 68 bd
       -0.04530711 0.04912652 0.06272168 -0.056668427
0000d0 60 27 11 bd 50 9e 52 bd 82 ba a2 3d 40 0f 26 3d
       -0.03543794 -0.05142051 0.0794573 0.040541887
0000e0 91 e1 86 3d e7 f5 07 3e 54 cb 48 3d 39 29 1d 3e
       0.06585992 0.13277398 0.049022034 0.15347756
0000f0 d3 d1 df ba c5 3e d9 3d 73 82 2f 3d 4a 01 97 3d
       -0.0017076082 0.106076755 0.042849015 0.07373293
000100 33 74 87 3d 47 c2 ba 3d c2 78 30 bd e7 c8 a4 3d
       0.0661396 0.09119087 -0.043083914 0.080461316
000110 e6 f8 a9 3d d6 3f 9c 3d 25 8b d6 3c 8e 82 0e bd
       0.08299427 0.07629363 0.026189396 -0.034792475
000120 c3 bc 94 3d f5 94 9c 3d d3 7a 66 3d 57 a8 76 3d
       0.07262566 0.07645599 0.056269478 0.060219135
000130 16 c9 8a 3d 98 9f bb 3d 68 c2 2c bd 21 27 e0 3d
       0.06776635 0.091612995 -0.042177588 0.10944963
000140 30 4c d2 3d ad ba 59 bd 8c 40 04 3d 46 54 1f 3d
       0.10268438 -0.053156544 0.03228812 0.03889873
000150 cc c7 d8 bc 6e 44 b9 3d 1c aa 16 bb 7a 57 f7 bc
       -0.026462458 0.09046255 -0.0022989577 -0.03019308
000160 d9 d7 0f 3e 76 6d 76 3d 86 57 09 3e ce f6 a0 3d
       0.14047183 0.060162984 0.13412294 0.07859574
000170 6d 05 96 3b cd 7e 9e 3d 44 f1 fe 3d 7d 53 37 bd
       0.0045782835 0.07739029 0.124483615 -0.044757355
000180 05 8a 0f 3d 6a f7 f4 3d b8 4c 03 3d 51 dc bd 3d
       0.035043735 0.11961253 0.032055587 0.09270538
000190 78 42 07 3e a4 64 75 3d 6d 4a b1 3d a8 74 48 bd
       0.1320895 0.05991043 0.08656774 -0.048939377
0001a0 6a 04 46 3d ef 5c be 3d 43 c0 db 3d 21 58 d6 3d
       0.048344053 0.092950694 0.107300304 0.10466028
0001b0 8e c1 0d bd e4 ea b4 bc f2 29 47 3d 10 01 fe 3d
       -0.034608416 -0.02208466 0.048623987 0.124025464
0001c0 66 9c 6f 3c fd 82 24 bd d3 8c de bc f8 db b4 3c
       0.014624691 -0.040163983 -0.02716676 0.022077546
0001d0 f2 b9 63 bd 1c e8 49 bd 35 2e da 3d 98 91 cf 3c
       -0.055597253 -0.049293622 0.106533445 0.02533798
0001e0 52 97 18 3d 36 96 b0 bc ad 4e 67 3d 13 46 d3 bc
       0.037253685 -0.021556001 0.056471515 -0.02579025
0001f0 f9 9a d8 3d 67 56 9d 3d 20 a2 73 3d 39 b1 90 bd
       0.10576434 0.076824956 0.059480786 -0.070650525
000200 e6 2e ad 3d 0e 7e ad 3b 1b 62 e2 3c 88 0c c0 3d
       0.08456211 0.005294568 0.027634671 0.0937739
000210 71 f8 2d 3d 53 13 85 bc 83 96 d7 3d f8 e6 a6 bd
       0.04247326 -0.016244566 0.10526755 -0.081495225
000220 a1 a8 6d bd 55 0c c1 3d f2 a2 9a 3c c2 46 2a bd
       -0.058022145 0.0942618 0.018876527 -0.041571386
000230 d1 a0 f4 3c 2a 04 e8 3c d3 aa fa 3d 31 90 80 bd
       0.02986184 0.028322298 0.122396134 -0.06277502
000240 10 8b 3d bd 39 be ff 3d 92 22 02 3c 35 bd 2c bd
       -0.0462752 0.12487454 0.0079428125 -0.04217263
000250 f3 b5 89 3c c5 cb ae 3d cf 9d e6 3d 69 f7 0b 3d
       0.016810393 0.0853496 0.11260568 0.034171496
000260 e8 45 fa 3d a6 2f 86 ba ff 72 81 3d ec 6c 87 3d
       0.12220365 -0.0010237589 0.06320762 0.06612572
000270 ad 50 c1 3c 56 ca d4 3d 79 26 d3 bc b4 b3 59 bd
       0.02359804 0.10390155 -0.025775181 -0.053149894
000280 8d 50 03 bd 78 a5 60 3c 40 93 50 bc 7f 17 02 3e
       -0.03205924 0.013711326 -0.01273042 0.12704276
000290 bb d1 db 3d 05 8f b4 3b d4 3c d2 3d 77 29 6d 3a
       0.10733362 0.0055102133 0.10265508 0.0009047011
0002a0 4d 55 b3 3b 0e a8 cf 3d 09 96 58 3c d6 15 8f 3d
       0.005472815 0.10139476 0.013219365 0.06986587
0002b0 5a e9 1a 3d d4 0e 40 3c 25 33 6f bd ee 09 f3 3d
       0.037820198 0.011722285 -0.058398385 0.11867128
0002c0 9d 59 0a bd 1a ef 26 3d da 82 89 bc 20 a0 87 3d
       -0.033776868 0.04075537 -0.016786028 0.06622338
0002d0 7b 4d 06 3d d3 c4 a5 3d c1 f5 3f bc 81 4e 5f bc
       0.032788735 0.08094182 -0.011716307 -0.013629557
0002e0 18 89 b6 3d 57 1e a8 3b 5f 0c 8c 3d 36 39 9f 3d
       0.08912867 0.00513057 0.06838297 0.07774584
0002f0 32 15 18 bd 4e a0 af 3c 40 0f 55 3c 46 3c 0e 3e
       -0.03712959 0.021438744 0.013004124 0.1389018
000300 fd fa 83 bd 3c 3b db bc c1 47 b1 3d 3d 65 1c 3e
       -0.064443566 -0.026761644 0.08656264 0.15272994
000310 79 d4 a5 3d 70 0c f6 3d 93 d2 cc bd c7 c1 34 bd
       0.080971666 0.12014091 -0.10001101 -0.044130113
000320 51 2f 2f bc f1 b1 c9 bd 24 dc bd bb 86 0f 1d bd
       -0.010692433 -0.09848393 -0.005794065 -0.038344882
000330 da 1c 18 3d eb bd ef bb 2a e4 4f bd fa 75 7c 3d
       0.03713689 -0.007316341 -0.050754704 0.06163595
000340 3f 1f e2 bc 22 73 ca 3c 37 bb c9 3c 71 18 4e bc
       -0.02760279 0.024713103 0.024625404 -0.0125790695
000350 8b 28 07 3d 2a 5e 8e bb 08 3c 8a 3d a3 3f d1 bd
       0.03299765 -0.0043447213 0.06749731 -0.10217216
000360 d3 db 59 3d fc cc ef bc d6 58 b6 3d a8 d0 27 3d
       0.053188156 -0.029272549 0.08903663 0.040970474
000370 fa 04 09 3e ff d7 f7 bd 57 fa 91 3c 09 b2 da bd
       0.13380805 -0.12101745 0.017819567 -0.10678489
000380 14 9c 8a 3a 36 67 8b 3d 8b ef 05 bd fa 10 3f bb
       0.0010575079 0.06806795 -0.03269915 -0.0029154406
000390 f3 dc 2e 3b 28 9b 8e 3d 6b b3 31 3d f9 76 8d 3b
       0.002668199 0.069631875 0.043383997 0.004317161
0003a0 eb 32 dc 3b e0 48 c0 3d 98 ff 6d bc 61 59 3d 3d
       0.006719937 0.093889 -0.01452627 0.046227816
0003b0 b9 7a f7 bd 71 37 17 bc d4 3c 4a bd a7 bc 65 3c
       -0.12083954 -0.009229527 -0.049374416 0.014022029
0003c0 d3 d9 6b 3d db c9 8f 3d d2 34 9c 3d 95 4f 75 3d
       0.05758078 0.07020923 0.07627262 0.05989035
0003d0 04 0b 8d bd 67 2b c9 3c 22 60 55 3d c5 d1 5e 3d
       -0.06886867 0.024556829 0.052093633 0.05439927
0003e0 6d 68 95 bd b3 ef 6b bd d5 72 31 3d 66 78 a2 bd
       -0.07295308 -0.057601642 0.043322403 -0.079331204
0003f0 d5 d4 13 3d c3 ba f7 b9 ba 2f 36 bd c0 c5 00 3d
       0.036091644 -0.0004725066 -0.04447911 0.03143859

features.layers.2.logic.0.layer.0.mlp.0.bias f4 [8]
000000 c6 99 b0 3d d0 b8 3a 3d 7c c5 76 bc a6 5a 94 bd
       0.0862308 0.045586407 -0.015061732 -0.07243852
000010 75 01 83 3d 85 f6 0d 3d 9d 11 a5 3d 72 39 42 3d
       0.06396762 0.034658927 0.0806 0.047418065
