models_every10epochs/checkpoints/checkpoint_50.pth (torch, 178410 bytes, 101 tensors)

features.layers.0.logic.0.layer.0.mlp.0.weight f4 [8, 18]
000000 41 04 aa bc 3f 4c 17 bd 7c 1c a6 bd b9 39 e4 bd
       -0.020753982 -0.03693795 -0.08110902 -0.11143822
000010 ae bc 33 bd eb b2 18 3e e1 ac d0 bc 95 93 d1 bb
       -0.04388111 0.14912002 -0.02547306 -0.006395767
000020 29 34 1f 3b c7 12 37 3c 2c f6 08 3e 8d 8e d1 bd
       0.0024292564 0.01117391 0.13375157 -0.102322675
000030 bb f6 6d be a0 4f 4f 3d b4 aa 20 be 78 0d 0b bd
       -0.23238651 0.050613046 -0.15690118 -0.03394839
000040 c5 d9 59 be c9 3b 42 3d ca 72 02 3e 23 f4 03 3e
       -0.21274479 0.047420297 0.12739101 0.128861
000050 55 c1 e5 bd e6 e0 42 3e ae de 8c 3d 76 b6 a2 bd
       -0.11218516 0.19031104 0.0687841 -0.07944958
000060 be 59 d8 3d 2a c5 24 3e 77 29 68 3e 7e c3 83 bd
       0.10563992 0.16090837 0.22672068 -0.064337716
000070 df 6c 0b 3e 9c a0 1e be 49 09 1f 3d cd f8 6a bd
       0.1361575 -0.15490955 0.038827214 -0.05736618
000080 af 78 18 bb c6 2f bf bd 0d f9 41 bb 4c 7d 93 3c
       -0.0023265292 -0.09335284 -0.0029597909 0.018004082
000090 0b 6c 26 3e 67 92 b9 bd 53 29 f1 3d e0 18 82 3e
       0.16252153 -0.09061127 0.1177546 0.25409603
0000a0 15 77 8e 3c 55 e4 18 3e b1 22 37 3d b7 8a 4c 3d
       0.017390767 0.14930852 0.04471082 0.049936976
0000b0 24 97 06 3e 67 52 37 3e cd 33 b4 3d 5a f1 9f 3e
       0.13143593 0.17902528 0.08798943 0.31238824
0000c0 3d 74 3b bd 61 e9 0d 3e f9 70 18 3e e1 d8 aa 3e
       -0.04576515 0.13858558 0.14886846 0.3336859
0000d0 24 15 9f bd 3d 34 03 3e 0e d4 0e 3e 6b 72 03 3e
       -0.07767704 0.12812896 0.1394808 0.12836616
0000e0 7f ff d7 3d 40 ec 46 be 1a fe 5f be e9 e1 b0 3d
       0.10546779 -0.1942606 -0.21874276 0.08636839
0000f0 1b 53 5c be c1 57 17 3e 8e ad 68 bd 32 8d 16 3e
       -0.21516077 0.14779569 -0.05680614 0.14702299
000100 40 79 6e 3d 1e 32 13 bc 73 af 74 be d0 74 0d 3e
       0.0582211 -0.008984117 -0.23895054 0.13814092
000110 20 a6 f5 bd 17 c7 0c 3e 71 67 7e bd fb 78 23 3d
       -0.119945765 0.13747822 -0.06211037 0.039910298
000120 f5 5c dd 3d b9 e8 e1 bc d0 4f 26 3e 1f 2f 81 3e
       0.10808746 -0.027576791 0.16241384 0.25231263
000130 e6 44 8e 3e 0b d3 a7 3d c2 53 53 3e dc 5d 83 bd
       0.2778694 0.0819455 0.2063742 -0.06414387
000140 38 dc 15 bd 31 7f 50 3e b6 80 fc bb db 4f c1 3d
       -0.03658697 0.2036102 -0.007705773 0.09439059
000150 e3 a9 8e bd cc 28 65 3e 12 dd bf 3d 82 e5 4f 3e
       -0.06965997 0.22378844 0.09368338 0.20302394
000160 84 08 48 3e df 60 53 3e 89 7d f5 bd da 10 ac 3d
       0.19534498 0.20642422 -0.119868346 0.08401652
000170 6c 28 0b 3e 5d 6d 45 be 64 3e 7c bb bb c3 81 be
       0.13589638 -0.1928 -0.0038489336 -0.25344643
000180 60 80 9f bd 94 b2 b6 bd ec 74 5a be 99 18 1a bd
       -0.077881575 -0.0892078 -0.21333665 -0.037621114
000190 f6 a1 28 3e 04 3f 01 3e 66 9c 81 3d 43 64 c2 bd
       0.16468033 0.12621695 0.06328659 -0.0949178
0001a0 a3 b0 1e be db 3f 32 be 5e 36 2e be 4a a0 05 3e
       -0.15497069 -0.17407171 -0.17012927 0.13049427
0001b0 d2 ff 4f 3d 1e 2b ae bd 71 7b ac 3d 29 11 17 be
       0.05078108 -0.08504318 0.08421982 -0.1475264
0001c0 ad c7 ac 3d 2f 87 bc 3d fb 69 b3 bd bf 47 46 be
       0.08436523 0.09205472 -0.087604485 -0.19363306
0001d0 3a c4 07 be 97 8c ea 3d d1 1e c4 3d ce 9f 38 be
       -0.13258448 0.11452597 0.0957619 -0.1802971
0001e0 c5 b1 40 be f5 70 19 be 70 b2 61 3d be b4 b6 3d
       -0.18817814 -0.14984496 0.055101812 0.089211926
0001f0 61 9f 22 be d9 46 e7 bd 4f 7a d9 bd ed 8f 12 be
       -0.1588111 -0.1129281 -0.10619032 -0.14312716
000200 66 bc 83 3d be b5 46 bc 35 76 8f 3d 62 cb 30 3d
       0.064324185 -0.012128292 0.07004968 0.04316271
000210 ec 1d 03 be e0 58 f8 bd 35 47 0a be 29 c0 b5 bd
       -0.12804383 -0.121263266 -0.13503726 -0.08874542
000220 7b f1 63 3d f5 35 38 be 9b dd 41 be d7 ad d4 ba
       0.055650216 -0.17989333 -0.18932192 -0.0016226125
000230 eb d4 4b be 33 8f a4 bd 99 8c 8e bb 10 ac 31 3e
       -0.1990544 -0.080351256 -0.0043502566 0.17350793

features.layers.0.logic.0.layer.0.mlp.0.bias f4 [8]
000000 24 02 b1 3c 20 fd ae 3c 13 8c ba 3d 61 7c 9b bd
       0.021607466 0.021360934 0.09108748 -0.07592083
000010 ad 97 26 bd 75 bb 32 3e ec c4 8a bd e3 aa 02 3e
       -0.040671993 0.17454322 -0.06775841 0.127605

features.layers.0.logic.1.layer.0.mlp.0.weight f4 [8, 9]
000000 54 06 3d 3d 85 3c a9 bc 67 31 d4 3d 11 93 76 3e
       0.046148613 -0.02065874 0.10360985 0.24079539
000010 48 aa fd 3d 2d f4 00 3e 68 21 11 3e ab f4 ac 3e
       0.12385994 0.12593146 0.141729 0.33780417
000020 a0 6c 6f 3e 2c d7 4c 3e 82 65 6b 3e af f9 75 3e
       0.23381281 0.20003957 0.22987941 0.24021028
000030 08 c0 0b 3e 30 7e 2c 3d 87 66 eb 3c 97 ae 0d 3d
       0.13647473 0.04211253 0.028735412 0.03459033
000040 50 2b 80 3d 4e e1 bb 3e 92 90 98 bd 63 a8 46 3d
       0.06258261 0.3669533 -0.074494496 0.04850043
000050 f0 8c c3 bb d5 3b ad be a4 8d 27 3d 18 e2 34 be
       -0.005967729 -0.3383471 0.040906563 -0.17664373
000060 8e bd 95 be 72 60 b4 be 91 c3 32 be 4b 43 d0 be
       -0.2924618 -0.35229832 -0.17457415 -0.4067634
000070 6f ae 54 bd 46 ce c6 be c6 b0 5c be ea a8 19 3d
       -0.051924165 -0.3882925 -0.21551809 0.037514605
000080 5a ed 98 be e6 bc 02 3e 2f a9 f7 bc 8c 62 94 3c
       -0.29868585 0.12767372 -0.03023204 0.018113397
000090 a0 b2 2b 3e e7 3f c4 be d7 58 3e be ad 96 a2 be
       0.16767359 -0.38330004 -0.18588577 -0.31755581
0000a0 4e 49 c4 be 27 65 ad bd 3c 8b db bc f8 65 29 3d
       -0.38337177 -0.08466559 -0.02679979 0.04135701
0000b0 17 75 42 3d cd 67 10 bd 0b 69 02 3e 2b 59 80 3e
       0.047474947 -0.035255242 0.12735383 0.2506803
0000c0 e4 00 01 bc d0 32 51 3e b5 96 8e 3e 61 8d 2a 3e
       -0.0078737475 0.2042954 0.27849355 0.16655494
0000d0 2d 74 5e 3e d7 25 f9 bd 19 5c 5f 3e 99 e9 7a 3e
       0.21724005 -0.121654205 0.21812476 0.24503173
0000e0 13 2f 67 3e b1 d2 8e bd 95 da 1d bd 18 d6 49 3e
       0.22576551 -0.0697378 -0.038538534 0.19710577
0000f0 e3 d8 10 3d f5 f5 5e 3d 0b 90 89 3e ac db f9 bc
       0.03536309 0.05443378 0.2686771 -0.030500256
000100 6b 63 83 be d6 04 76 be a5 55 5a be 5c ef b4 bd
       -0.25661787 -0.24025282 -0.21321733 -0.08834717
000110 b0 93 1e 3e f6 4b 90 bd 91 1f a0 be 04 7e 80 be
       0.15486026 -0.070457384 -0.31274083 -0.25096142

features.layers.0.logic.1.layer.0.mlp.0.bias f4 [8]
000000 88 24 c1 3e df 59 74 3e 38 41 e2 be a9 0d 14 be
       0.37723184 0.23862408 -0.44190383 -0.14458336
000010 a3 05 c2 be 83 74 b6 3e 32 be 87 3d 20 b8 fe 3d
       -0.37894925 0.35635766 0.06628074 0.12437463

features.layers.0.logic.2.layer.0.mlp.0.weight f4 [8, 18]
000000 ab 2f 51 3e 3f 52 50 3e e1 58 05 3e 46 df 5f 3d
       0.2042834 0.20343874 0.13022186 0.05465629
000010 e2 c8 b1 bd de d0 fe 3d 92 ad 6e 3b 96 42 7c 3d
       -0.086808935 0.12442182 0.0036419374 0.06158694
000020 12 f7 75 bd e3 8e 8c 3d 90 00 1a 3e 5b 41 94 bd
       -0.060050078 0.06863191 0.15039277 -0.07239028
000030 17 a1 1b 3d cc 31 4f 3d d5 d3 6a bd d6 6b 3c 3e
       0.037995424 0.0505846 -0.057330925 0.18400511
000040 36 72 7a 3e 02 d9 28 bd 96 5f a4 bd 0e dc 09 3e
       0.2445763 -0.04122258 -0.08026044 0.1346285
000050 b7 db 77 3e c2 7f 21 bc 2d d8 49 bd 00 4a 4f 3b
       0.24204908 -0.00985712 -0.049278427 0.00316298
000060 ad cb ff bd f8 95 9c bd 2e 91 04 be 05 27 00 3c
       -0.1249002 -0.07645792 -0.12946007 0.007821803
000070 b6 c0 89 3e 8e c0 d4 3d 4b 8a 72 3d 5c d2 ed bc
       0.2690484 0.103882894 0.059213918 -0.029030971
000080 54 00 52 3b 75 59 47 3e 6f a1 28 bc ec 8a c0 bc
       0.0032043653 0.19467719 -0.010292395 -0.023503743
000090 2c 57 a5 3d fb 99 2f be 3e 54 2d 3d 24 16 8e bd
       0.08073267 -0.17148583 0.042316668 -0.06937817
0000a0 e6 33 d7 bd 19 60 d7 bd ca 6c 08 bd cd 31 23 be
       -0.10507946 -0.10516376 -0.033306874 -0.15936966
0000b0 96 55 fb 3d c3 0f a5 3d ce 1e 94 bd 37 14 1d bc
       0.122721836 0.08059647 -0.07232438 -0.009587339
0000c0 6a 59 5e bd fc ac e2 bd 91 2c 2f bd 1b 5a 11 be
       -0.05428449 -0.110681504 -0.04276711 -0.14194529
0000d0 a8 3b eb 3d 20 dd 2f bc d8 6f 4f bd 3c 01 f0 bd
       0.11485988 -0.010733873 -0.050643772 -0.117189854
0000e0 17 3b a0 3d 2d 98 b2 bd ff 51 24 bd 9a 1d cf bd
       0.078237705 -0.087204315 -0.04011726 -0.10113068
0000f0 8d b3 dc 3d bd 02 3e be d3 93 33 3e 5a b0 2d 3e
       0.10776434 -0.18555732 0.17536859 0.16961804
000100 a9 02 dc bc f7 9c 1a 3e 5e e6 2f 3e 38 a1 4c bc
       -0.026856737 0.1509894 0.17177722 -0.012489609
000110 4b b0 6f bd 2b 89 43 be 93 c2 2c 3d 41 86 23 3e
       -0.058517735 -0.19095294 0.042177748 0.15969183
000120 8e 25 9d 3d e9 a8 a8 bc 95 0b fb 3d d3 a3 2d 3e
       0.076731786 -0.020588355 0.122580685 0.16957025
000130 9a 97 26 3e 81 7f 20 be 47 8e ef 3c 3c a2 d8 bd
       0.16268769 -0.15673639 0.029242648 -0.10577819
000140 cb 4d 26 bd a3 8d 46 3e f9 a3 28 be 53 6f 5e bc
       -0.040601533 0.19389968 -0.164688 -0.013576346
000150 a2 f5 93 3d 96 2b ee 3d f2 4e 0a bd 0a 95 01 3e
       0.07224585 0.11629407 -0.033766694 0.1265451
000160 85 82 b0 3d 44 e7 f7 3d a9 2e aa 3d a0 ad 1f be
       0.086186446 0.12104657 0.08309681 -0.15593576
000170 ed 0f ea 3c fd f9 69 bc c3 ca b6 bd 74 c7 14 be
       0.028572047 -0.014280793 -0.089253925 -0.1452921
000180 21 43 3f 3e 31 6b 38 3d 53 95 45 bd 02 f8 1d be
       0.18677951 0.0450241 -0.04823811 -0.15426639
000190 50 34 80 bc 83 ad 5c 3e bd 4a c9 bd 4e cf 71 bd
       -0.015649945 0.21550564 -0.09828708 -0.05903559
0001a0 c3 b8 75 3d 39 0d 76 3e 7b c9 01 be f3 43 6c 3e
       0.059990656 0.24028482 -0.12674515 0.23072796
0001b0 43 0f da bd d2 6c 49 3d 30 ff e5 bd 01 87 25 bd
       -0.10647442 0.049176045 -0.11230314 -0.040411953
0001c0 0f 85 ce 3d 0e 98 b6 3c 26 8a cf 3d 46 96 2f be
       0.10083973 0.022289302 0.101337716 -0.17147169
0001d0 d7 3f 3c 3e ee 2e e7 bd df d2 63 3e 46 eb 5d bd
       0.18383728 -0.11288248 0.2224841 -0.054179452
0001e0 01 1f 28 3e 8f 2d 4b 3e 73 bf 0a 3e 71 bc df 3d
       0.16418077 0.19841598 0.13549595 0.10924614
0001f0 fe ec ac bd 76 00 2e bd 84 59 44 be 16 ac d0 bd
       -0.0844364 -0.04248091 -0.19174773 -0.10189073
000200 1a 94 57 3c 17 de b4 bd 76 36 b7 3c b4 69 30 be
       0.013157869 -0.08831423 0.022364836 -0.17227823
000210 a1 6e 0e 3e c2 15 ff bd 24 05 fc bc a5 84 c4 bd
       0.13909389 -0.12455322 -0.03076417 -0.095956124
000220 76 d3 99 bd 53 2f a2 bd 6c dd ea bd 6c ee 65 be
       -0.07511036 -0.07919183 -0.11468014 -0.22454232
000230 74 a8 40 3d c1 3b 4c be 4c 24 43 3d 26 de 09 be
       0.04703565 -0.1994467 0.047642037 -0.13463649

features.layers.0.logic.2.layer.0.mlp.0.bias f4 [8]
000000 16 a9 81 3e 10 94 34 bd a3 55 02 3e 25 bf 97 bd
       0.25324315 -0.044086516 0.1272798 -0.07409505
000010 23 40 2c 3e 0a c3 2a 3e 84 64 dc 3c 6c e2 1f be
       0.16821341 0.16675964 0.026903398 -0.15613717

features.layers.1.logic.0.layer.0.mlp.0.weight f4 [8, 42]
000000 6c e7 6b bd 54 49 86 3d bb 08 0c 3d fe ee e4 bc
       -0.057593748 0.06556955 0.034188014 -0.027945992
000010 f9 b6 0f 3e 0a 85 63 bd 75 5c 01 3e 8e e6 c6 3d
       0.14034642 -0.055546798 0.12632926 0.097119436
000020 0a 09 1c bd c3 22 bf bc 31 00 15 3e b9 dd bb 3d
       -0.038094558 -0.023332005 0.14550854 0.091731496
000030 25 92 d7 3d 0b d8 d6 3d 13 8a ef 3d 86 3c a9 bd
       0.10525922 0.10490426 0.116962574 -0.08263497
000040 02 e4 13 3e 1e b8 0c 3e fc 44 ab 3d 95 5c a4 bb
       0.14442447 0.1374211 0.08362767 -0.0050159195
000050 f4 2b b5 3d 9d 99 db 3d 86 31 6a bd 5e 18 22 3d
       0.08846274 0.10722659 -0.057176135 0.03957402
000060 b1 82 16 3e 1e 77 33 ba a7 42 16 bd 32 bd e5 3d
       0.14698292 -0.0006846058 -0.03668466 0.11217727
000070 53 0c bc bd 60 76 cb bc 74 16 43 bd a3 31 83 bd
       -0.09182038 -0.024836719 -0.047628835 -0.06405952
000080 d0 52 c1 3d 4f 78 cf 3c 9b 1a 2a bd d6 bf 53 3d
       0.09439623 0.025325922 -0.04152928 0.05169662
000090 53 ac 30 ba c4 48 5f bd 20 5d 83 3d 7c 1e 7d 3c
       -0.00067395455 -0.054512754 0.064142466 0.015449163
0000a0 4c 89 cb 3b 53 d5 e2 bc a8 39 22 bd 2f f3 d3 bb
       0.0062114354 -0.027689612 -0.039605767 -0.0064681987
0000b0 74 4a 54 3d 64 ae f0 3c eb 46 3d bd 5a 38 bb 3d
       0.051828817 0.02938003 -0.04621021 0.091416076
0000c0 33 9c b7 bd 51 d8 ad bd 15 62 c5 bd 60 39 cf bd
       -0.089653395 -0.08488525 -0.09637848 -0.10118365
0000d0 1a 95 da bd bb 65 cd 3d 0f 1d 8b 3d 9a 8f 44 3d
       -0.1067297 0.10029169 0.06792652 0.04798851
0000e0 64 54 a8 bc ab 5d d0 3c 45 73 3b bd 98 8a 18 3d
       -0.020548053 0.02543529 -0.045764226 0.03724155
0000f0 97 0f 9b 3d b0 16 ae 3c bc 35 ea bc 2f 39 66 bd
       0.07571333 0.021251053 -0.028590076 -0.05620688
000100 9b 62 9d bc 95 2a 9d 3d ac 28 37 bd 33 27 04 3d
       -0.019212058 0.076741375 -0.044716522 0.032263946
000110 20 71 ac bd a0 ad 68 3d 62 50 cd 3d 31 ed a7 bd
       -0.084200144 0.056806207 0.100250974 -0.081995375
000120 cd 74 9e 3d 5e be 01 bd b6 5a fe 3d 5c c9 14 bc
       0.07737122 -0.03167569 0.124196455 -0.009081211
000130 56 b5 2a 3d 13 4b 00 3e c7 d2 3c bc b4 2a 18 3e
       0.04167684 0.12528639 -0.011524863 0.1486004
000140 97 dc cc bc 71 f4 55 3d 91 c8 1b bd b8 8e bb 3d
       -0.02500753 0.05223507 -0.038033072 0.09158081
000150 c7 8a 80 bd a3 48 f9 3c e3 02 cb 3c 62 be ec bd
       -0.0627647 0.030430144 0.02478165 -0.1155975
000160 b8 3d 9b 3b b2 6a 8e 3c 47 91 0f 3e 7d 87 dc ba
       0.004737582 0.01738486 0.14020263 -0.0016825047
000170 13 cc cc 3d b6 95 b5 3c a5 73 8e 3d e2 67 d1 3d
       0.099998616 0.022166114 0.06955651 0.10224892
000180 1d 64 a8 bd 4c b2 8d bc 9d eb f5 3d 0b 64 65 3d
       -0.0822222 -0.017296933 0.1200783 0.05600361
000190 e8 84 c0 3d 68 37 10 bc c8 6d 45 3d ef ad 81 bd
       0.0940035 -0.008802272 0.0482004 -0.06332003
0001a0 5f 27 a4 3d 90 10 1a 3e bb ff 1e 3c 77 19 d1 bd
       0.08015322 0.1504538 0.009704526 -0.10209935
0001b0 49 c8 71 3d c0 30 c9 3d 13 61 85 3d 0b 44 35 3e
       0.059028897 0.098237514 0.06512656 0.17701738
0001c0 58 ff fc 3d c8 e1 ab bc a8 b9 a8 3d 6e 19 01 bb
       0.123533905 -0.020981684 0.08238536 -0.0019698995
0001d0 9f 5d 27 bc 27 f7 e7 3d e1 11 dc 3d 7d 5b ad bc
       -0.010215192 0.113264374 0.10745598 -0.02116179
0001e0 d8 da 25 bd 55 5c 58 3e ec ed 99 bd e3 42 d9 3d
       -0.04049191 0.21128972 -0.07516083 0.10608461
0001f0 d2 19 14 3e 3b 9d 68 3d 16 cf e1 3c c8 d1 4e be
       0.14462975 0.05679057 0.027564567 -0.20197213
000200 1b 88 6a bd 0a 90 99 bc 9d e4 85 3c 80 3e 1f be
       -0.057258707 -0.018745441 0.016344363 -0.15551186
000210 0c dd 5d 3d b6 b9 a3 3d f5 89 ae 3b 4c 59 3f be
       0.054165885 0.07994406 0.0053265044 -0.18686408
000220 6e 6d f2 bd 27 34 1b 3d 5a 2e 3c be c6 bc 82 bd
       -0.11837278 0.037891533 -0.18377057 -0.06383662
000230 54 d5 41 bd 2c b6 8a 3d 46 d9 1c 3d 45 03 10 be
       -0.047322586 0.06773028 0.038293146 -0.14063747
000240 e1 52 12 bd 13 dc 13 be 93 5d 41 bb c2 99 af bd
       -0.03572357 -0.1443942 -0.0029505237 -0.08574249
000250 4d 1f 22 3c 06 f4 8d 3c 68 d7 f5 bd 18 14 48 3d
       0.009895158 0.017328274 -0.12003976 0.048847288
000260 97 b4 91 bd bb 8a 10 bd 65 a9 46 3c 1f 44 4b 3d
       -0.07114523 -0.035288554 0.012125348 0.049625512
000270 52 fe 23 be 3b 0a 13 be 17 46 24 bd 05 a6 f9 bc
       -0.16014984 -0.14359371 -0.040105905 -0.030474672
000280 af b4 16 be c5 36 69 3c ec 92 91 bd 0c 1d b1 bd
       -0.14717363 0.0142342495 -0.07108101 -0.086481184
000290 e1 d2 a7 bd b5 13 2a be a9 7e c6 bd bb 72 7f 3c
       -0.08194519 -0.1660908 -0.09692127 0.015591319
0002a0 a4 e0 97 3d 18 c2 14 3e 85 ba 13 3e af a7 e7 3c
       0.07415894 0.14527166 0.1442662 0.0282782
0002b0 21 b2 30 bd e5 30 a8 3d ca d0 99 bd f2 79 82 bd
       -0.043138627 0.08212451 -0.075105265 -0.063709155
0002c0 a8 38 f2 bc 69 55 4d 3d 71 67 1f 3d b3 1c 92 bd
       -0.029568031 0.05013028 0.03891701 -0.0713438
0002d0 5e f9 3c 3e 53 b4 2e 3e 4b 7f 71 3d 72 f2 3f bd
       0.18454501 0.17060976 0.058959287 -0.046862073
0002e0 af 42 3f bd 23 07 08 3e 2f 3a 76 3d 95 3e 4b 3e
       -0.046694454 0.13283972 0.060114082 0.19848092
0002f0 77 d9 2d 3e cb 8f ca 3d 22 a7 27 3e 7c d9 0e 3e
       0.16977488 0.098907076 0.1637235 0.13950151
000300 10 8f ad 3d 67 7e 2b bd 0a da f9 3d c3 9c e7 3d
       0.08474553 -0.041868594 0.12199791 0.11309197
000310 d4 a6 e9 bc d6 7f c9 3d 85 61 af bd 92 a1 4b 3d
       -0.028521933 0.09838836 -0.08563522 0.049714632
000320 47 c8 01 3e a7 44 c5 3b 49 53 a5 3d ed 1d a8 bc
       0.12674056 0.006020147 0.08072526 -0.020522082
000330 b1 33 20 bd 39 32 ea 3d 3e b9 00 3e 26 df 3b bd
       -0.039111797 0.114353605 0.12570664 -0.045867108
000340 9c 64 00 3c ae fe dd bc 76 b2 a5 bd c3 c6 96 3d
       0.007836487 -0.02709898 -0.08090679 0.073621295
000350 e0 65 e4 3d b5 a2 9f bd f9 f2 b2 3d 57 16 05 3e
       0.111522436 -0.07794706 0.087377496 0.12996803
000360 d2 27 c8 3d 0c c8 a3 3d 5e ab 30 3e c9 3e 39 bd
       0.0977322 0.0799714 0.17252871 -0.045225892
000370 40 67 0a 3e cf f8 be 3d ef 0f 62 bd 75 50 2d ba
       0.13515949 0.093248 -0.055190977 -0.00066114153
000380 e7 a3 fc 3c d8 60 3e 3d d5 c7 a4 3d 65 0e 88 bd
       0.030839873 0.046479076 0.080459274 -0.066433705
000390 4c 91 cf bb 03 c8 48 3e 1c 2c c2 3d 34 23 ee bc
       -0.0063344594 0.19607548 0.094810694 -0.02906952
0003a0 0b a9 d1 3d 72 ab 1a 3e 19 a4 07 3e 61 6d 1c bd
       0.102373205 0.15104464 0.13246192 -0.03819025
0003b0 38 8a 39 3e 5c e7 1a 3e 4b 22 16 3d 4a 2d 0c bc
       0.18119133 0.15127319 0.036653798 -0.00855572
0003c0 c5 b8 31 3c 74 f3 12 bd 46 5c 25 3d 54 ce 5a bc
       0.010847275 -0.035876706 0.040371202 -0.0133548565
0003d0 6f 83 2b bd 07 7e fa 3d 46 ce 0c 3e 0f d7 b9 bc
       -0.04187339 0.12231069 0.13750562 -0.022685556
0003e0 98 68 1a bc 79 7c dd bb 3b 49 3a 3d 12 d4 33 3d
       -0.009424351 -0.006759223 0.045479994 0.043903418
0003f0 67 60 16 3e b3 c6 28 3d 19 90 e9 3d 94 12 79 bd
       0.14685212 0.04120512 0.114044376 -0.060808733

features.layers.1.logic.0.layer.0.mlp.0.bias f4 [8]
000000 ca 0b 16 3e c5 59 22 3d 8d 43 86 bd 04 d8 41 3d
       0.14652935 0.039636392 -0.06555853 0.04732515
000010 74 06 5d 3d 43 e1 d8 3d 8c 73 0d 3e 53 16 08 3c
       0.053961232 0.1058984 0.13813609 0.008306104

features.layers.1.logic.1.layer.0.mlp.0.weight f4 [8, 41]
000000 cf 47 c6 bd de 33 95 be 8d c3 3e be 84 2f c2 3d
       -0.09681665 -0.29141134 -0.18629284 0.09481719
000010 34 e5 a2 bd 0d fe 9e 3d 33 11 f1 3c c8 cc fe bd
       -0.07953873 0.077633 0.029427147 -0.12441403
000020 1b f1 eb bd 1a 30 f8 bd 18 b2 06 bd 10 f0 54 bd
       -0.115205966 -0.1211855 -0.032884687 -0.051986754
000030 70 a7 ab bc 44 23 a7 bd c8 a1 c9 bd 0c 49 bc bb
       -0.020953864 -0.08161023 -0.098453104 -0.0057460126
000040 18 4f 91 bd 84 53 7b be 9c 2e 6d bd 8c c0 82 3c
       -0.07095164 -0.24543577 -0.05790578 0.015960954
000050 b3 fd e0 bd 6e db 95 3c c7 74 6a 3d ad 0e 9b bb
       -0.10985889 0.018293109 0.057240274 -0.004731974
000060 44 3f 5b bd b8 50 09 be 45 f5 f4 bd c9 00 72 bd
       -0.05352713 -0.13409698 -0.11960844 -0.05908278
000070 62 55 6a 3c 4b 38 ed bd 4e 5d ef bd bf 2e 36 be
       0.014302583 -0.11583003 -0.11687718 -0.1779127
000080 44 ef ed bd e0 1d ed bd 3b 24 c0 bd 6c 09 ed bd
       -0.11617902 -0.11577964 -0.093819104 -0.11574063
000090 a6 5b 00 be bf eb 2a bd b3 2b ee bd 28 49 99 bd
       -0.12534961 -0.04172873 -0.11629429 -0.074846566
0000a0 21 05 0b be 90 98 46 bd 92 10 b3 be c4 e0 a9 be
       -0.13576175 -0.04848534 -0.3497358 -0.33179295
0000b0 62 2b 1f be 98 2b 16 be 8d 83 11 be 24 62 59 be
       -0.15543893 -0.14665067 -0.14210339 -0.21228844
0000c0 6e 3c 53 bd 46 fd 95 bd 60 2b 9c bd 04 f9 72 3c
       -0.051571302 -0.07323699 -0.076254606 0.014829878
0000d0 fe 64 70 3d e7 4e 2b be c9 59 d0 bd df c1 ae bb
       0.058690064 -0.16729318 -0.10173375 -0.00533317
0000e0 70 41 ff bd f0 6e 3e bd c7 30 d4 bd a8 21 22 be
       -0.12463653 -0.046492517 -0.10360866 -0.15833151
0000f0 01 37 92 bc 8e 4a da bd d1 38 a8 bd eb 8d f7 bd
       -0.017848494 -0.106587514 -0.08213962 -0.120876156
000100 6b 88 07 be ee 7a ef 3c 42 1a 7c be 36 5c 2b be
       -0.13235633 0.029233422 -0.24619392 -0.16734394
000110 15 e1 18 3b fc 77 23 3d f6 f0 58 bd 24 95 f5 3c
       0.0023327519 0.039909348 -0.052964173 0.029978342
000120 0d b9 3d be 60 41 63 be f1 ea 70 bd 6f 64 f4 bd
       -0.18527623 -0.22192907 -0.058817808 -0.11933219
000130 f8 2d ad bd c6 3b 31 be f4 1d 8d be f6 c1 1c be
       -0.084560335 -0.17307958 -0.27561915 -0.15308365
000140 6d 31 84 3d 51 20 82 bd a0 39 c4 3d 0d e2 11 be
       0.0645474 -0.0635382 0.095813036 -0.14246388
000150 42 b0 76 be fd 83 a5 3d b2 ba 81 be 67 50 b6 3d
       -0.24090675 0.080818154 -0.2533775 0.08902054
000160 1d 4d c2 3a 8f cc 8f 3d a6 08 f1 3c 44 20 e5 bd
       0.0014824007 0.07021438 0.02942307 -0.11187795
000170 31 b9 98 bc c0 d3 cf bd 95 0f a7 bd 64 a3 58 bc
       -0.018642994 -0.1014781 -0.08157269 -0.013222549
000180 8f ba aa 3b 35 0d 58 be 47 bf ce bd 08 4c ef bd
       0.005210228 -0.21098788 -0.10095077 -0.11684424
000190 e3 f5 d4 bd fd f1 8c bd 70 04 89 3d a8 af 76 be
       -0.10398462 -0.06882093 0.066902995 -0.24090445
0001a0 63 41 5c bc 23 75 85 be d2 ac f4 bd d5 0e 4c be
       -0.013443324 -0.2606593 -0.11947025 -0.19927533
0001b0 91 50 60 be 7f 2d a2 bd 62 70 6f 3c 44 90 04 3d
       -0.21905734 -0.07918834 0.0146141965 0.032364145
0001c0 62 cf 59 3c e8 2a 20 be e8 73 96 bd cb c3 08 bb
       0.013294073 -0.15641367 -0.07346326 -0.0020868655
0001d0 11 e3 f5 bd 44 97 db bd 86 26 fd bd d3 49 ae bc
       -0.120062 -0.10722211 -0.123608634 -0.021275437
0001e0 f8 d7 01 3c d2 cd 69 3c 01 53 a4 bd 7b 48 83 3c
       0.007925026 0.014270263 -0.08023644 0.016025772
0001f0 3a ae 6f 3e 3b b7 ae 3e 0c 1a a9 3d d0 04 90 3e
       0.23406306 0.3412417 0.08256921 0.28128672
000200 4d 81 7c 3d af 62 40 3e d6 48 36 3e 5e 2c f9 bc
       0.06164675 0.18787645 0.17801222 -0.030416664
000210 ae f8 01 bd 89 32 8f bc 75 e6 d7 ba 3d 2e 96 3d
       -0.0317313 -0.017480152 -0.001647188 0.07333038
000220 09 92 94 3d 4f ab ea 3d 43 5b c3 bc e1 8b 37 3e
       0.072544165 0.11458456 -0.023847228 0.17924453
000230 6f ab 2f 3e 30 2d e6 3d df 01 1b 3e f2 0d c1 3d
       0.1715524 0.112390876 0.15137433 0.09426488
000240 26 26 1b bd fd ad ea 3d 07 3e a2 3d 6f 4e 8e 3d
       -0.037878178 0.11458967 0.07921987 0.06948554
000250 34 4b 2c 3e ff 7a d6 3d 1e dc 87 3d c4 a7 2d 3e
       0.16825563 0.104726784 0.06633781 0.16958529
000260 15 e2 c9 3d d0 65 1a 3e 78 22 82 3e 72 b2 53 bb
       0.09857575 0.15077901 0.25416923 -0.0032302407
000270 57 8f 1f 3e 70 0d fd 3d 30 95 3c 3e 6d 77 21 bc
       0.15582024 0.123560786 0.18416286 -0.0098551335
000280 78 3f 8a 3e 05 7e 12 3e 7a df fe 3d bd 8b 08 3e
       0.27001548 0.14305885 0.124449685 0.13334556
000290 61 07 3b 3d b4 d3 98 3e 9c c8 18 3e d6 00 44 3d
       0.045661334 0.29849017 0.14920276 0.04785236
0002a0 48 bd 7d 3e 84 da 80 bd 57 34 00 3e 30 8f a5 bd
       0.24779236 -0.062916785 0.12519966 -0.080839515
0002b0 89 47 eb 3b 64 c2 ec 3d f0 3b ac 3d 5b 81 bd bc
       0.0071801585 0.115605146 0.0840987 -0.02313297
0002c0 1e 73 1c 3e 3b 53 ea 3c ef c3 95 bc 27 4c 8f 3e
       0.15278289 0.02860414 -0.018281905 0.27987787
0002d0 f3 16 83 3d e8 7a 0d 3e e9 79 25 3e 4f 49 09 be
       0.064008616 0.13816416 0.16159786 -0.13406871
0002e0 c2 16 83 3c 6b 6e a8 3d cd 82 d5 3d a5 61 78 3c
       0.016002063 0.082241856 0.10425339 0.015159999
0002f0 0d 20 f9 3d ab 35 ec 3d ce 3f cc 3d e7 b6 13 bd
       0.12164316 0.11533674 0.09973107 -0.0360631
000300 82 92 8c 3d 9d 4a eb 3d 26 3a 9a b9 b2 20 b1 3d
       0.06863882 0.11488841 -0.00029416493 0.08648814
000310 85 a5 5b bd df 08 3f 3e d4 2c b5 3d 90 63 35 3e
       -0.05362465 0.18655728 0.08846441 0.17713761
000320 41 14 c8 3d 00 27 8b 3e c0 94 4b bc 8a c7 0f be
       0.09769488 0.27178192 -0.0124256015 -0.14040962
000330 bd 68 3a bd a5 cc 42 3b 34 87 bd bd c3 ee aa bd
       -0.045510042 0.0029724028 -0.092543036 -0.083463214
000340 30 52 8c 3d 18 2a 47 be e2 2e 94 bd d4 77 df bd
       0.068516135 -0.19449651 -0.07235505 -0.10911527
000350 78 1b ff bd b3 22 65 be 3a 1d 09 3c b9 81 17 bd
       -0.12456411 -0.22376518 0.008368785 -0.036988948
000360 f2 7a 37 be 48 e8 0f be c5 4e 7e bd 56 e5 fa bd
       -0.17917994 -0.14053452 -0.06208684 -0.122507736
000370 ac fc 53 bd cb b9 21 be 52 6b a4 bd 18 89 e6 bd
       -0.05175464 -0.1579353 -0.08028282 -0.11256617
000380 a6 e9 99 3d b4 ad 72 bd 8e 70 ef 3c 68 86 b9 bd
       0.07515268 -0.059247687 0.029228475 -0.09058839
000390 a5 34 6b bd 06 d3 87 bd ac 9e 80 bc 66 4c 3e be
       -0.057423253 -0.066320464 -0.01570066 -0.18583831
0003a0 82 4c 22 be 67 5f 69 be 6d 81 2d 3d c2 c7 24 3c
       -0.15849498 -0.227903 0.04235976 0.010057392
0003b0 67 fd cc bd 83 d9 e9 3d 59 37 dc bd 95 3b dd bd
       -0.1000927 0.1141844 -0.10752744 -0.1080238
0003c0 21 b6 2d be 47 59 c7 bb e5 82 6f be ff 29 05 3b
       -0.16964008 -0.0060836407 -0.23389776 0.002031922
0003d0 60 1a d5 bd 41 a3 13 3d 7c 3a 02 3e ab 43 5e 3e
       -0.10405421 0.036044363 0.12717623 0.21705501
0003e0 ad 33 93 3d 4a 74 93 3d da a5 e0 3d 5d 70 98 bd
       0.07187591 0.07199915 0.10969134 -0.074433066
0003f0 35 ab b7 bd fb 5b ef 3b b1 88 bb 3d 9a fc fc 3d
       -0.08968202 0.007304666 0.09156931 0.123528674

features.layers.1.logic.1.layer.0.mlp.0.bias f4 [8]
000000 56 36 b9 bd ab 3e a9 bd 04 c2 ad bd bf dc a1 3e
       -0.09043567 -0.08263906 -0.08484271 0.31613728
000010 75 37 79 3e e7 b1 eb bd bb 08 4c 3e 67 4b 09 3e
       0.24337561 -0.115085416 0.19925205 0.1340767

features.layers.1.logic.2.layer.0.mlp.0.weight f4 [8, 50]
000000 68 60 0e bc 36 86 1c 3d 13 22 b2 3b 16 c1 2e bc
       -0.008689977 0.03821393 0.005436191 -0.010666152
000010 b9 5b bb bc 24 ee c1 bd a5 fd 26 3d 34 42 33 3c
       -0.022870885 -0.0946925 0.040769238 0.010941077
000020 a6 d9 94 3d 61 da a3 bd e1 52 bc 3c f6 37 d3 bd
       0.07268076 -0.08000637 0.022988738 -0.10313408
000030 3c 01 d7 3d 65 b4 ff bd 59 8f 94 3d 8c a6 9f bd
       0.10498282 -0.124855794 0.07253904 -0.07795438
000040 14 37 92 3d c4 8e 30 bc 7c b4 1b be 22 38 f5 bd
       0.071394116 -0.0107762255 -0.15205568 -0.11973597
000050 79 5f ba bb 42 e6 44 3d 04 17 2c bd a9 e2 37 3d
       -0.0056876508 0.048071153 -0.042014137 0.044893894
000060 3c 46 06 be 2e 18 f9 bd ce e6 5a bc f7 2a f3 bd
       -0.1311273 -0.12162815 -0.013360692 -0.11873429
000070 f4 e1 13 bd e6 66 86 bd 96 b5 0d be 97 8d 00 be
       -0.036104158 -0.06562595 -0.13838801 -0.12554012
000080 ea 95 f5 bd d5 d4 49 bd 9f 70 0e 3d 4b 84 30 be
       -0.119914845 -0.049275238 0.034775373 -0.17237966
000090 b1 b2 f6 39 71 d8 8f bc e5 e6 a1 bd 75 6e 1c 3d
       0.00047053912 -0.017559262 -0.07905368 0.038191278
0000a0 8f a2 62 bd 66 42 2e bd 8e fb 84 3d a8 f0 ab bc
       -0.05533081 -0.04254379 0.06493293 -0.020988777
0000b0 98 51 56 3d 79 38 35 be 3a 25 85 bd 6a 5a 9e bd
       0.052323908 -0.17697324 -0.06501241 -0.07732089
0000c0 80 aa 7c 3d 39 a0 5d bb 71 03 ca bd 48 86 ec 3d
       0.06168604 -0.0033817424 -0.09863938 0.115490496
0000d0 cd e5 4e 3d f5 74 55 bd 56 04 ad bd fc dc c3 bd
       0.050512124 -0.052113492 -0.08448093 -0.09563634
0000e0 05 9e f6 3c 1a 91 20 3d 5f cd 24 be 7e 34 54 3d
       0.030104646 0.03920088 -0.16093968 0.051807873
0000f0 78 56 12 be 1a f2 cf bd ba 16 6a bd e6 5b 27 bc
       -0.14290798 -0.10153599 -0.05715058 -0.010214781
000100 d3 52 68 3d 18 4f 24 bd a4 9b d8 3c 33 0c c0 3c
       0.056719612 -0.040114492 0.026441403 0.023443317
000110 56 c1 66 bc 6a 60 1a be cb a1 8f bd 4e f8 55 bd
       -0.014084181 -0.15075842 -0.070132814 -0.052238755
000120 da cb d6 3a 41 07 b3 3d 33 b8 0b bd 1b 48 35 bd
       0.0016387657 0.08741618 -0.034111213 -0.04425822
000130 52 1e f3 3c 5a b8 95 bd 80 f2 b2 bd 7e 28 6e bd
       0.029677544 -0.07310553 -0.087376595 -0.058144085
000140 55 5e ac 3c e6 63 97 bc 63 a1 a5 bd da df 07 3d
       0.021041075 -0.018480252 -0.08087423 0.033172466
000150 29 e0 d5 bd 87 be 37 3d d9 d1 05 3e 93 56 b4 3d
       -0.10443146 0.044859435 0.13068332 0.08805575
000160 30 7b cf 3d 22 02 03 3d c8 b9 93 bd 70 72 6d bc
       0.10130918 0.031984456 -0.07213169 -0.014492616
000170 0b d3 d7 bd 64 7c 35 3d 9b ef 9c bd 22 fa a3 bd
       -0.105383 0.04430808 -0.076628886 -0.080066934
000180 50 2e 85 3d 54 72 25 be 5c b8 1e bb 3f 6e ec 3d
       0.06502974 -0.16156894 -0.0024218773 0.11544465
000190 55 9e 8d 3d 62 6a 2f bd 3f 76 ef 3d b3 50 c1 3d
       0.06914965 -0.042826064 0.116924755 0.0943922
0001a0 f5 99 3a bd b0 88 32 bd d0 fb 1f 3e 3b 6f b9 3d
       -0.04555698 -0.043587387 0.15623403 0.09054419
0001b0 57 8a 5a bc ad 2c 08 3d 8a e0 06 3e 3b 68 46 bd
       -0.013338647 0.03324573 0.13171592 -0.048439246
0001c0 37 1b a7 bc 63 73 f9 ba b8 f7 a9 bd b5 5e be 3d
       -0.02039872 -0.001903158 -0.08299202 0.09295408
0001d0 c3 84 a5 3c 6c 27 a0 bd bc 8c 72 3d 60 eb 1b 3c
       0.020204907 -0.07820019 0.059216246 0.009516567
0001e0 b6 a4 90 3d 96 5f c8 bb f8 3e fb bc 2f 53 27 3e
       0.07062666 -0.0061149104 -0.030669674 0.16340326
0001f0 47 cd ce 3c 32 69 c1 3c 6a 80 c1 bc b2 9f 25 3e
       0.025244368 0.023609731 -0.023620803 0.161742
000200 50 b8 36 3d f5 29 fb 3d 3b 6a d6 bc 42 1d c4 3d
       0.044609368 0.12263862 -0.026173702 0.09575893
000210 1c 00 c4 3d 6a 8e 1c 3e 9f 37 26 3e bc 22 34 3d
       0.09570333 0.15288702 0.16232155 0.043978438
000220 cf 8f a7 3d 16 6f b3 39 5c 3b b2 bd bd f1 1c 3e
       0.08181726 0.00034224306 -0.08702728 0.15326591
000230 c6 0b c3 3d 78 49 c4 3d d6 f6 88 3d c2 e3 ea 3d
       0.0952373 0.095843256 0.06687705 0.114692226
000240 ab a9 0c be 3b 60 29 bc 77 0c fa 3d ab cb 96 3d
       -0.13736598 -0.010337885 0.12209409 0.07363065
000250 52 1e 2d 3e e1 26 ca ba a9 05 00 be c8 ed fb bd
       0.16906098 -0.0015422964 -0.12502159 -0.123012125
000260 82 fd a4 3d cc af a4 bd 49 1f e6 bc 89 65 ae bd
       0.08056165 -0.08041343 -0.02809109 -0.0851546
000270 33 73 6a 3d 01 fe bb bd 9a fc 58 3d 65 8a 94 bd
       0.05723877 -0.09179307 0.052975275 -0.07252959
000280 7f 99 bb bd 3d c6 b1 bd 23 1d a4 bd fb 11 0f be
       -0.091601364 -0.08680389 -0.0801337 -0.13971703
000290 c0 37 e3 bd 98 53 6f 3c 3a cf 1b 3e 18 55 5e b9
       -0.11094618 0.014607333 0.1521577 -0.0002120327
0002a0 98 47 80 3d fc 96 81 3d f2 2f ea 3d d4 a9 e3 bd
       0.062636554 0.06327626 0.11434926 -0.111163765
0002b0 1b 25 6d bc e3 1f 12 bd 51 60 b5 3d 6c bb e0 bd
       -0.014474179 -0.03567494 0.088562615 -0.10973248
0002c0 0c 37 9b bc c1 74 40 bc 12 d6 19 3e 84 0f b8 3d
       -0.018947147 -0.011746586 0.15023068 0.08987334
0002d0 2c 2d 98 bd 62 97 83 3c f7 04 1d be 35 b7 88 bd
       -0.07430491 0.016063396 -0.15333925 -0.06675569
0002e0 6a c1 b3 bd 99 a1 d4 3c 2e 1a 9c 3c 85 bd 41 bd
       -0.08777125 0.025955962 0.019055452 -0.04729988
0002f0 8e 1b 9b bd 19 c9 36 bc bf 4e 6c 3d 57 77 9b ba
       -0.07573615 -0.011156344 0.057692286 -0.0011861128
000300 ad 10 ae bd dd 19 e2 3c de c9 d7 bc 08 70 af bd
       -0.084992744 0.027600223 -0.026341375 -0.0856629
000310 3b bb aa 3d 8b c3 7b 3d 41 76 cc bd a1 0d 0a be
       0.08336493 0.06146578 -0.09983493 -0.13481762
000320 2b 2e 0a 3d 20 0c b9 3d 7a 07 9b bc a7 76 b5 3d
       0.033735435 0.09035516 -0.018924464 0.08860522
000330 d3 78 aa bd 64 28 b3 3c e6 62 ab bd 86 77 e6 3d
       -0.08323827 0.021869846 -0.08368473 0.11253266
000340 5a 1f bc 3d 4a e4 1b bd 14 9a 47 3e 57 4a de 3b
       0.09185667 -0.03805951 0.1949237 0.0067837643
000350 85 a9 91 3d ec 61 83 bb b7 0c f9 bc 2c 80 19 3d
       0.071124114 -0.004009476 -0.03040157 0.03747575
000360 e1 7a f8 bd 76 c8 d3 3d c7 71 01 3d 05 85 b0 bd
       -0.12132812 0.10340969 0.031602647 -0.086191215
000370 32 8b 5a 3d 61 90 22 3e 47 f9 e0 3c a3 1e a5 3d
       0.053355403 0.15875389 0.027462615 0.08062484
000380 95 5d 04 3c 48 09 cd 3d e5 f0 31 3d 8f f9 44 3d
       0.008078952 0.10011536 0.043442626 0.04808956
000390 07 84 57 bd 66 7b 08 3d 87 fe 00 3d 67 d8 8d 3d
       -0.052616145 0.033320807 0.031492736 0.06926041
0003a0 d2 35 0d 3d c9 35 2a 3e 87 f8 be 3d e0 ae 90 3d
       0.034475155 0.1662208 0.093247466 0.07064605
0003b0 40 e8 ac bd 66 35 e8 3d 37 2b 05 bc b0 a0 b3 3d
       -0.08442736 0.1133831 -0.008127979 0.08770883
0003c0 ac 7e 18 3e d1 84 25 bc 32 2d 5c 3d f4 53 ac 3d
       0.14892071 -0.010102467 0.05375404 0.0841445
0003d0 e5 27 0a 3e 83 27 fc bc 00 03 c4 3d a6 75 76 3d
       0.13491781 -0.03078056 0.09570885 0.060170792
0003e0 20 5f c3 3d 65 62 80 3c 7b a6 91 3b 78 cb 49 3e
       0.09539628 0.015671918 0.004444895 0.19706523
0003f0 02 f2 69 bd c0 29 17 3e 72 00 8d bd 13 95 02 3d
       -0.057115562 0.1476202 -0.068848506 0.03188045

features.layers.1.logic.2.layer.0.mlp.0.bias f4 [8]
000000 f5 59 15 be 7c 6f 9a 3d f5 0c 3e 3d 7d 1a 00 3d
       -0.14585097 0.07540795 0.046399076 0.03127526
000010 8d 82 40 3c cb a0 ec 3b bf 2a 4f be 0b ce b2 3d
       0.011749876 0.0072213165 -0.2023115 0.08730706

features.layers.1.logic.3.layer.0.mlp.0.weight f4 [8, 48]
000000 12 4c 30 3e f6 80 bc 3d f9 b9 87 3d 5f f5 a4 3d
       0.17216519 0.09204285 0.06627268 0.08054613
000010 f7 a0 93 3d 69 4a 29 3c 66 78 99 3c 08 b5 8d 3d
       0.07208436 0.010332682 0.018734168 0.069192946
000020 a6 2c aa bc 14 27 c0 3d eb 41 95 3d cc 3e d1 bd
       -0.020773243 0.093824536 0.072879635 -0.10217056
000030 c4 47 5b 3d 03 1b e9 b9 6c 99 65 bd 53 c3 cc 3d
       0.053535238 -0.00044461348 -0.056054518 0.09998193
000040 ec 86 1c 3e 52 14 7e bc 0e d1 0e 3e c8 e3 b4 3d
       0.15285844 -0.015507774 0.13946936 0.08832508
000050 ff d3 8a 3d 87 88 11 3e da 11 a1 3d 2a ce 1e 3d
       0.06778716 0.14212237 0.07864733 0.038770832
000060 77 ad 70 3c 19 41 b7 3c 5c 9c 06 3e 27 c2 94 39
       0.014689795 0.022369908 0.13145584 0.00028373415
000070 b1 1e 68 bd ec bb 6f 3d ee b2 db 3c 16 2f 99 bc
       -0.056669895 0.058528826 0.026818719 -0.01869921
000080 be 49 36 3b 12 6b 82 bd 9b 4c e2 3d 3b ca 53 bd
       0.002781495 -0.06368078 0.110497676 -0.051706534
000090 7d b1 e3 3d 5c 25 9d 3d 7b 3a 4f bd 39 f8 bf 3d
       0.111178376 0.07673141 -0.05059288 0.093735166
0000a0 7e 77 f0 3d e9 63 ff 3d 89 ee c5 bc bd b5 be bb
       0.11741541 0.12470228 -0.024161594 -0.0058200047
0000b0 d9 4e 90 3d 87 c0 61 3d 69 08 cd 3d 92 ed f3 ba
       0.07046289 0.05511525 0.1001137 -0.001861023
0000c0 cf 34 12 bd 64 89 96 3d e0 a0 ea 3d 82 16 d9 3c
       -0.035694893 0.07350424 0.11456466 0.02649999
0000d0 26 7a da bc e7 2b 89 3d 5d b6 07 3e df f3 5a 3d
       -0.026669573 0.06697827 0.1325316 0.05345523
0000e0 d2 81 28 3c 5e 99 67 3c 24 52 b4 bd b5 7b 1e 3e
       0.010284858 0.014135687 -0.088047296 0.15476878
0000f0 6b f6 74 3d 48 47 57 3c 91 4f db bc 97 7d a4 bc
       0.059805315 0.013139553 -0.026771339 -0.020079417
000100 ee 8e df bd 60 56 ed bd 6a 85 b5 3a fe 91 24 bd
       -0.109159335 -0.1158874 0.0013848965 -0.04017829
000110 34 ef 04 3d 86 fa 9a bd 02 47 1b 3d bf 17 c5 3a
       0.032454684 -0.07567315 0.037909515 0.0015036984
000120 d3 b5 d8 3d 96 9e 06 3e 1c c9 cc 3d 87 b2 0d be
       0.10581555 0.13146433 0.09999296 -0.13837634
000130 42 a4 99 bd 82 73 87 3d c5 84 00 3d 80 69 7d bc
       -0.07502033 0.06613828 0.03137662 -0.015467048
000140 8d 29 c1 bd 8c 84 06 3e b1 c3 56 bd 8f 71 a5 3d
       -0.09431753 0.131365 -0.05243272 0.080783
000150 57 85 79 bd 9b 61 60 3c 84 49 a3 bc 04 dc 65 bd
       -0.06091818 0.013695146 -0.019932516 -0.056118026
000160 3b f1 a8 bd 55 8b e0 bc da 56 cb bd bb 78 ea bd
       -0.08249136 -0.027410189 -0.09928675 -0.11448809
000170 4e af d6 bb e4 c3 d0 3c c7 a1 bd bd 74 7d aa 3c
       -0.0065516597 0.025484033 -0.09259372 0.020811774
000180 0c 53 10 3a d6 dc be bd 5e 29 37 bd 40 e2 a6 3d
       0.0005505539 -0.09319465 -0.044717185 0.081486225
000190 fb a5 dc 3b 01 db a8 3d 1a 04 03 3e 0f d0 f2 3d
       0.0067336536 0.08244897 0.12794533 0.1185609
0001a0 a9 b3 18 bd 4d 88 5d bc 14 cf b4 3d c1 6d cf 3d
       -0.037280712 -0.013521266 0.088285595 0.10128356
0001b0 f7 ef 64 bd 8a a2 96 bd 1c d9 c7 3d 27 fd 7d 3d
       -0.05589291 -0.073552206 0.09758207 0.062009003
0001c0 d6 b6 36 3d ee ae df 3c 33 dd 60 3d 5a ba 88 bd
       0.04460796 0.027305093 0.054898452 -0.06676169
0001d0 4e 3c 88 3d 93 97 b8 3d e5 c9 34 bc cd 41 3d 3d
       0.06652127 0.090132855 -0.0110344635 0.04620533
0001e0 84 83 1a 3e 20 19 8c bc 66 12 3b 3d 8e 44 d2 3c
       0.15089232 -0.017101824 0.045671843 0.025667455
0001f0 0f 5e f7 3c 86 ea 3e 3d 77 18 57 3c 1b 1e 86 3d
       0.030196218 0.046610378 0.0131283915 0.06548711
000200 7b 89 ce bc 5f 4c 9e bd 25 e7 e3 bd 8d 93 dc 3d
       -0.02521204 -0.077294104 -0.11128072 0.107703306
000210 67 03 0d be f0 e0 18 bd 10 f3 3a 3c dd ec ad 3c
       -0.13770829 -0.037323892 0.01141049 0.02123111
000220 b9 0a 18 3e 71 e3 02 3c ae c2 f7 bd b0 ee fb 3c
       0.1484784 0.007988797 -0.12097679 0.030753464
000230 5e 3e fd ba c2 a5 d0 3d da a6 ef 3d e2 73 5b 3d
       -0.0019320955 0.10187866 0.11701746 0.05357731
000240 91 c1 b3 3c de ed b1 bd 45 7a d4 bd 74 c2 ab b9
       0.021942886 -0.08687948 -0.103748836 -0.0003276054
000250 e8 6c 56 bd f3 f9 6a 3d 1d a3 09 3e 29 b8 6f 3d
       -0.052349955 0.057367276 0.13441129 0.05852524
000260 1c f6 96 3d a4 a1 23 bd 36 76 6f 3d a1 0f dd ba
       0.073711604 -0.039949074 0.058462344 -0.001686562
000270 9e e3 ca 3d c6 c2 26 3e e8 4e 1f bd dd 38 06 3e
       0.09906696 0.16285238 -0.03889361 0.13107629
000280 ba 64 89 3d 00 bd 8c ba 7a 65 85 bd 53 48 8d bc
       0.06708665 -0.0010737479 -0.06513496 -0.017246401
000290 82 c3 8a bd 57 7d 82 3d 9d 09 36 3d f8 3e 96 bd
       -0.067755714 0.06371563 0.04444276 -0.07336229
0002a0 83 2c 29 3e 3d ac 06 3e 00 73 ec 3d bb 30 45 3d
       0.16520886 0.13151641 0.11545372 0.048142176
0002b0 4e ac af 3c f4 ed 33 3e e5 9b 08 3e c2 a2 20 3d
       0.021444466 0.1757124 0.13340719 0.039217718
0002c0 2b d5 c5 3d 64 74 8d bd 89 7e a7 3c 65 2c dc bd
       0.09659799 -0.069069654 0.020446079 -0.10750655
0002d0 5b de e4 bd f4 7c 70 3c 97 1c df bd e2 27 91 bd
       -0.111752234 0.014678229 -0.10894125 -0.07087685
0002e0 5c 00 df 3d 18 ea ae bc f7 c7 00 3d e3 66 65 bd
       0.108887404 -0.021351859 0.0314407 -0.056006324
0002f0 a2 8c f7 bc 6b 1c 87 bc 8e a0 73 bd 88 70 1a 3e
       -0.030218426 -0.016493043 -0.05947929 0.1508199
000300 2e bb a7 3c d6 03 22 bd 73 ac 51 bd 0c 94 d5 3d
       0.020474996 -0.03955444 -0.05118985 0.10428628
000310 af b1 92 bd 7d 08 04 3e 77 df 60 bd 51 2a 04 3d
       -0.07162797 0.12893863 -0.054900613 0.03226692
000320 f6 0d 2b 3d 8b 6d 0a bd f8 a1 40 3d c9 70 3c 3d
       0.04176136 -0.033795875 0.047029465 0.046005998
000330 60 bc 2a 3d 47 27 f6 3b 23 98 ea 3d 28 57 07 bd
       0.041683555 0.0075120064 0.11454799 -0.033042103
000340 7b 98 96 bd 48 41 0d bc b7 d1 a2 bd 69 91 a9 3d
       -0.07353302 -0.008621521 -0.07950156 0.08279688
000350 48 dd 6c 3d e1 be 0f 3e 0d b8 fb 3d ba 2e a2 bd
       0.057828218 0.14037658 0.12290964 -0.07919069
000360 0a 82 a2 3d a1 f5 c9 bd 6f 83 fb bc 49 6f b8 bc
       0.07934959 -0.09861303 -0.03070232 -0.022514002
000370 d5 1d 2d 3d 46 72 e1 bb 90 e7 e4 bd 47 e2 90 bd
       0.04226478 -0.0068800775 -0.111769795 -0.07074409
000380 61 81 19 bd b3 c8 f0 bd 0a c3 ca 3c eb 0e a3 3d
       -0.0374769 -0.1175703 0.024751205 0.0796183
000390 f4 97 37 bd e4 5c 5f bc 00 1e a1 3d 90 29 d4 bd
       -0.04482265 -0.013632987 0.0786705 -0.1035949
0003a0 d4 b6 6d bd 70 36 fb 3d ef 54 81 3d 0a a0 be bc
       -0.058035687 0.122662425 0.06315028 -0.023269672
0003b0 14 fc 0c 3a e2 16 6b 3c 70 9a 81 3d 04 78 82 3d
       0.0005378139 0.014348717 0.06328285 0.063705474
0003c0 3b d0 74 bd 28 4f e4 3d 5f bf 2b 3d 0f 6b c2 bd
       -0.059768897 0.1114791 0.041930553 -0.09493076
0003d0 78 d8 9e 3d b2 3b ce bc 34 b7 9a 3d 41 8d dc 3d
       0.07756132 -0.02517495 0.075544745 0.107691295
0003e0 fd a7 f2 3d 0d a4 01 3d 3c 4c db bc 75 16 9f 3d
       0.118484475 0.03165059 -0.02676975 0.07767955
0003f0 9d 17 1b bd 0d dd cf 3d 27 d7 e5 3d 71 37 c0 bd
       -0.037864316 0.10149584 0.11222678 -0.093855746

features.layers.1.logic.3.layer.0.mlp.0.bias f4 [8]
000000 d6 dc a5 3d 63 8a cc bd 64 83 c0 bb d9 d0 0a bc
       0.08098762 -0.09987333 -0.005875038 -0.008472645
000010 e8 91 12 bd 2b a6 13 3b b2 30 12 3e b8 e9 82 3d
       -0.03578368 0.0022529464 0.14276388 0.063922346

features.layers.2.logic.0.layer.0.mlp.0.weight f4 [8, 66]
000000 72 63 82 bd ce a7 fa 3d cd f4 02 3e e7 41 98 3d
       -0.06366624 0.122390375 0.12788697 0.07434445
000010 cf 6f 26 3c 30 94 bf 3c ef 62 dc 3d 2a bd 07 bd
       0.010158493 0.023386091 0.107610576 -0.033139385
000020 67 ec 7a bd 2f 0b d4 3d f1 10 c2 bc 8d 68 66 3b
       -0.061260607 0.103536956 -0.023689719 0.0035157532
000030 ca c8 0f 3e 6c a0 a6 3d 34 9d 80 3d ef 0f 4b 3c
       0.14041439 0.08136067 0.06279984 0.012393936
000040 7b cb 13 3d 46 c6 c7 3d a9 0e a9 3c 23 fb 52 3d
       0.036082726 0.097546145 0.020636873 0.051509034
000050 16 0e c3 3c f3 15 2c bb 86 0d 01 3d 53 91 07 3e
       0.023810428 -0.00262582 0.031507038 0.1323903
000060 4a fe 0a 3d 4f d0 2c 3d 12 d0 01 3e 3a f3 3f bb
       0.033933915 0.042190846 0.12677029 -0.0029289261
000070 3c 9e a0 3d 3c c6 f1 3d c0 50 68 bd 7f 4a 3a 3d
       0.07842681 0.11805388 -0.056717634 0.0454812
000080 47 87 13 3e c2 2f 0e 3e 3e ae 74 3c 7b 23 69 bd
       0.14407073 0.13885406 0.014934121 -0.056918602
000090 b8 0c 15 bc 33 56 13 bd 3f d9 70 bd 2d 1b 99 bd
       -0.009097271 -0.035970878 -0.058800932 -0.074758865
0000a0 3c 76 11 3e 4a 38 49 3a de 53 4e bd a0 e6 75 bc
       0.14205259 0.0007675929 -0.05037295 -0.015008599
0000b0 15 d3 91 3d bb 07 13 3e 96 f9 c4 3c 29 07 ef 3d
       0.07120339 0.14358418 0.024044793 0.116712876
0000c0 a3 83 4e bd fe cb 5f 3d 2e cc 8e 3d e4 17 81 bd
       -0.050418507 0.0546379 0.06972538 -0.06303385
0000d0 90 8b 21 bd 9f 44 6a bd 17 ec b4 3d fc aa 38 3d
       -0.039439738 -0.05719435 0.08834093 0.04508494
0000e0 8b 51 91 3d ba 5c 14 3e a4 fd 55 3d d4 ed 2b 3e
       0.07095631 0.14488497 0.052243844 0.16789943
0000f0 24 66 fa ba 2e 9e f1 3d fb eb 39 3d bb 83 a2 3d
       -0.0019103927 0.117977485 0.045391064 0.07935282
000100 98 17 92 3d b7 96 ca 3d e8 53 44 bd a1 f1 b1 3d
       0.071334064 0.09892028 -0.04793158 0.08688665
000110 50 da b7 3d 69 b8 ad 3d 84 e6 dc 3c f0 f6 1e bd
       0.08977187 0.08482439 0.026965387 -0.038809717
000120 59 67 a3 3d e0 02 ae 3d d2 73 77 3d 1b 64 85 3d
       0.079786964 0.08496642 0.06041319 0.06513234
000130 a8 af 95 3d 01 a1 d0 3d 94 0b 49 bd 62 dd f4 3d
       0.073088944 0.10186959 -0.049083307 0.11956288
000140 c9 74 e5 3d 05 1d 7b bd a1 48 f4 3c fe fb 2b 3d
       0.112039156 -0.061306972 0.029819788 0.041988365
000150 1d 62 11 bd e6 b3 cc 3d 3f de 0d bc 62 3d 0d bd
       -0.03549396 0.099952504 -0.008658945 -0.034482367
000160 8b cf 19 3e 0b 63 88 3d ee 96 12 3e be 1f b0 3d
       0.15020578 0.06659516 0.14315388 0.08599804
000170 ae 54 8c ba 74 81 af 3d d6 9b 07 3e ac 67 4e bd
       -0.0010706389 0.08569613 0.1324304 -0.050391838
000180 8e 47 06 3d 7c 67 06 3e da 5d f2 3c 30 33 d0 3d
       0.032783084 0.13125414 0.029585768 0.10166013
000190 ba 37 14 3e 85 a3 83 3d 56 c0 c0 3d 3a 23 68 bd
       0.14474383 0.06427673 0.09411685 -0.05667422
0001a0 d3 2a 5c 3d 92 b8 d3 3d 8a 24 f4 3d 7e 64 ee 3d
       0.053751778 0.10337938 0.11921032 0.11640261
0001b0 1d e6 1d bd aa 38 c9 bc 81 6b 54 3d 2a 5e 0a 3e
       -0.03854953 -0.024563152 0.051860336 0.13512483
0001c0 67 1e 64 3c 57 54 43 bd eb c4 f7 bc bb 25 c9 3c
       0.013923264 -0.047687855 -0.030245265 0.024554124
0001d0 f1 69 7d bd 95 96 60 bd db 9b f2 3d 0f d2 e6 3c
       -0.06186861 -0.054831106 0.11846133 0.028176336
0001e0 dd 94 29 3d cd 70 c4 bc a8 ed 77 3d 73 f8 00 bd
       0.041401733 -0.023979569 0.06052938 -0.03148694
0001f0 8b 48 ec 3d 55 41 a9 3d 70 75 87 3d 76 ed a0 bd
       0.11537274 0.08264414 0.06614196 -0.07857792
000200 ca 05 bc 3d 83 85 53 3b aa 9c e9 3c ca 68 d0 3d
       0.09180792 0.0032275624 0.028517086 0.10176237
000210 66 41 41 3d 86 bb c9 bc 83 a6 e0 3d b2 e1 b9 bd
       0.04718151 -0.024625551 0.109692596 -0.09076251
000220 06 0f 8d bd bb 0d d6 3d 91 8f 8d 3c 5e 7b 3e bd
       -0.06887631 0.10451838 0.017280372 -0.04650437
000230 0c 3e ec 3c 67 12 c6 3c b6 f6 05 3e ea 18 8f bd
       0.02883818 0.024178697 0.13082394 -0.06987174
000240 07 ca 64 bd 46 bc 09 3e 32 b5 92 3b 44 5f 52 bd
       -0.05585673 0.13450727 0.0044771666 -0.051360384
000250 90 8b 47 3c 91 86 bc 3d d7 21 f3 3d 3b ae 15 3d
       0.01217927 0.09205354 0.11871689 0.036543112
000260 21 6f 04 3e 42 31 5f bb b2 cc 82 3d 2e 93 96 3d
       0.12933017 -0.003405646 0.06386699 0.07352291
000270 4f d7 a1 3c bb 87 e6 3d d5 cd 10 bd 36 8b 75 bd
       0.019755987 0.11256357 -0.035352547 -0.059947215
000280 72 a1 2c bd 43 6c 67 3c 21 a6 aa bc 35 a1 0c 3e
       -0.042146154 0.014124933 -0.02083117 0.1373337
000290 27 2f e7 3d a1 ca 3d 3b 75 e1 e0 3d 0c 59 96 bb
       0.112882905 0.0028959888 0.109805025 -0.004588252
0002a0 85 bc e2 3a e4 ff dc 3d f4 66 70 3c fd 22 9f 3d
       0.0017298615 0.10790995 0.014672983 0.07770345
0002b0 41 60 2b 3d 5a 92 55 3c 09 35 85 bd 68 26 07 3e
       0.04183984 0.013035381 -0.06504256 0.13198245
0002c0 a0 78 2c bd 05 8f 14 3d ae f5 c3 bc ba f9 80 3d
       -0.042107224 0.036269207 -0.02392086 0.062976316
0002d0 98 2d 15 3d aa 5c b8 3d 9c de 56 bc 3f c9 78 bc
       0.036420435 0.09002049 -0.013114598 -0.0151847
0002e0 a6 e8 ca 3d 28 7b ba 3b 25 a2 9b 3d bc 0f b1 3d
       0.099076554 0.005690951 0.07599286 0.08645579
0002f0 88 e5 3d bd ac 63 78 3c 98 2f 1d 3c 5c 61 15 3e
       -0.046361476 0.015160482 0.009593867 0.14587921
000300 00 df 92 bd 87 de f3 bc c2 95 bb 3d cc 27 26 3e
       -0.0717144 -0.029769195 0.091594234 0.16226119
000310 d2 d3 ae 3d 4c 87 02 3e 06 01 e4 bd 86 83 84 bd
       0.08536495 0.12746924 -0.11133008 -0.064703986
000320 e4 d9 e2 bc 64 e0 e0 bd 3e ad b2 bc 35 51 32 bd
       -0.027691789 -0.10980299 -0.021811124 -0.043534476
000330 8b 18 f4 3c 6e a6 15 bc 57 07 93 bd 38 7d 63 3d
       0.02979686 -0.009133918 -0.07179134 0.05553934
000340 05 0c 3d bd de 00 e0 3c a3 70 43 3c b6 a1 f0 bc
       -0.04615404 0.027344164 0.01192871 -0.029373985
000350 b9 48 ae 3c 62 6f a6 bc 91 bd 00 3c 1a a2 fb bd
       0.021274911 -0.020316783 0.007857696 -0.12286778
000360 b6 66 ec bb 83 1c 08 bd 0f 93 fc 3c 16 20 28 3d
       -0.0072143925 -0.033230316 0.030831842 0.041046225
000370 b1 24 aa 3d d7 2f 05 be d3 46 37 bd 02 5a 04 be
       0.083077796 -0.1300653 -0.044745278 -0.1292496
000380 ff 00 89 bd 31 a4 a0 3d da ff d1 bd a7 c3 2e bc
       -0.06689643 0.07843817 -0.10253878 -0.010666764
000390 c2 10 8a bd df f7 76 3d 7b 96 96 bc ac f5 e0 bb
       -0.067414775 0.060294982 -0.018382302 -0.006865224
0003a0 b5 41 01 bc 38 b3 b5 3d 78 02 01 bd e8 2e 12 3d
       -0.007889201 0.08872074 -0.031496495 0.035689265
0003b0 af ad 09 be 2a 34 28 bc 3c 1a 65 bd 04 7e 7f 3c
       -0.13445161 -0.010266343 -0.055933222 0.015594009
0003c0 50 e8 82 3d a9 e8 9f 3d cf 31 8e 3d 48 a0 4e 3d
       0.06391966 0.07808048 0.06943094 0.050445825
0003d0 57 ae bc bd 5e 43 36 3c 4d ce 6e 3d 4a d0 77 3d
       -0.0921294 0.01112446 0.058302213 0.060501374
0003e0 a9 78 a6 bd c6 3a 83 bd 18 d2 44 3d 77 b9 b4 bd
       -0.08128483 -0.064076945 0.048051924 -0.08824437
0003f0 9d e3 23 3d 78 32 10 ba 38 29 85 bd 2b dc 9f 3c
       0.04001199 -0.00055006845 -0.065020025 0.019514164

features.layers.2.logic.0.layer.0.mlp.0.bias f4 [8]
000000 c5 f0 bf 3d d4 d2 46 3d e7 c7 ac bc 46 68 c4 bd
       0.09372095 0.048540905 -0.021091415 -0.09590201
000010 c7 96 8b 3d ad 3b 14 3d 49 1b 70 3d 88 39 57 3d
       0.06815868 0.036189724 0.05861977 0.0525451
