models_every10epochs/checkpoints/checkpoint_60.pth (torch, 178410 bytes, 101 tensors)

features.layers.0.logic.0.layer.0.mlp.0.weight f4 [8, 18]
0	0xbc9fee7d	-0.0195229
1	0xbd12f1c2	-0.03587509
2	0xbda06bf5	-0.07833091
3	0xbdde0ee7	-0.10842686
4	0xbd2c4e8d	-0.0420671
5	0x3e149348	0.14509308
6	0xbcc5bc41	-0.024137618
7	0xbbcbff7a	-0.0062255235
8	0x3b4b6920	0.0031038001
9	0x3c2bcac1	0.010485352
10	0x3e061492	0.13093784
11	0xbdcb268f	-0.09919464
12	0xbe67059a	-0.2256073
13	0x3d4b100f	0.04957586
14	0xbe1bd41b	-0.1521763
15	0xbd09c958	-0.033639282
16	0xbe53646c	-0.20643777
17	0x3d3e6974	0.046487287
18	0x3e01c495	0.12672646
19	0x3e00d4b4	0.1258114
20	0xbdda1b5a	-0.10649748
21	0x3e3d359e	0.18477485
22	0x3d8ea311	0.06964696
23	0xbd9e3fa3	-0.077269815
24	0x3dd83eb6	0.10558836
25	0x3e2212ee	0.15827534
26	0x3e64cabd	0.22342964
27	0xbd7d719a	-0.061875917
28	0x3e0a889f	0.1352868
29	0xbe19cd31	-0.1501968
30	0x3d260f85	0.040542144
31	0xbd624c81	-0.05524874
32	0x3a025280	0.00049714
33	0xbdb5a4fd	-0.0886936
34	0xb973d359	-0.00023253019
35	0x3c99d00a	0.018775959
36	0x3e2524cd	0.1612732
37	0xbdb1d5dd	-0.08683369
38	0x3df11b45	0.117727794
39	0x3e7d6a24	0.2474752
40	0x3ca2f157	0.01989047
41	0x3e153b30	0.1457336
42	0x3d3edbbb	0.04659627
43	0x3d4cbf9f	0.04998743
44	0x3e0611ff	0.13092802
45	0x3e32e18c	0.17468852
46	0x3db5a4e7	0.08869343
47	0x3e9be22c	0.30445993
48	0xbd2a1d92	-0.041532107
49	0x3e0a273c	0.13491529
50	0x3e179b88	0.14805424
51	0x3ea7f306	0.328026
52	0xbd94dfb4	-0.072692305
53	0x3e018dc1	0.12651731
54	0x3e0b5212	0.13605526
55	0x3dff43f8	0.12464136
56	0x3dd2aaaa	0.10286458
57	0xbe434799	-0.19070281
58	0xbe5a2185	-0.21301849
59	0x3da820b2	0.08209361
60	0xbe564fff	-0.20928954
61	0x3e120d11	0.14262797
62	0xbd6136f0	-0.054984033
63	0x3e10e08f	0.14148162
64	0x3d68e901	0.056862835
65	0xbc1876f8	-0.009305708
66	0xbe6e114e	-0.23248789
67	0x3e09f181	0.13471033
68	0xbdeec739	-0.116590925
69	0x3e07a999	0.1324829
70	0xbd773714	-0.06035526
71	0x3d1f277a	0.038856007
72	0x3ddd87fe	0.10816954
73	0xbcda59fc	-0.026654236
74	0x3e250b85	0.16117676
75	0x3e7b9f32	0.24572447
76	0x3e8c0275	0.27345625
77	0x3da38c7c	0.0798578
78	0x3e50d81d	0.2039494
79	0xbd7e267d	-0.062048424
80	0xbd0614f0	-0.03273481
81	0x3e4b22b5	0.19837458
82	0xbb92ea4f	-0.004483498
83	0x3dbc50a9	0.09195072
84	0xbd84d344	-0.06485608
85	0x3e5f2d2a	0.21794572
86	0x3dc111cd	0.09427223
87	0x3e4b1995	0.19833978
88	0x3e45b386	0.19306764
89	0x3e4e30d1	0.2013581
90	0xbdeb7530	-0.11496961
91	0x3da64b9b	0.08119889
92	0x3e092ba0	0.13395548
93	0xbe426206	-0.18982705
94	0xbb1258cc	-0.002233076
95	0xbe7f7a26	-0.2494894
96	0xbd97dc71	-0.07415093
97	0xbdb5a23f	-0.088688366
98	0xbe52d914	-0.20590621
99	0xbd1bf4af	-0.038075145
100	0x3e25d41f	0.16194199
101	0x3dfb6f05	0.12277035
102	0x3d81954b	0.063273035
103	0xbdbd1000	-0.092315674
104	0xbe18b138	-0.14911354
105	0xbe2d9a5d	-0.16953416
106	0xbe280f0c	-0.1641199
107	0x3e02beba	0.12768069
108	0x3d377d69	0.044797335
109	0xbdb92bd9	-0.090415664
110	0x3d9ece27	0.07754164
111	0xbe2f5847	-0.17123519
112	0x3d9e1fb5	0.077208914
113	0x3d926277	0.07147687
114	0xbdb7588f	-0.08952438
115	0xbe4a8acf	-0.19779514
116	0xbe089a0b	-0.13340013
117	0x3dbba21a	0.09161778
118	0x3db4fe83	0.08837607
119	0xbe413ab0	-0.18870044
120	0xbe3ff8e3	-0.18747286
121	0xbe2467ed	-0.1605527
122	0x3d4bb23e	0.049730532
123	0x3daf7431	0.085670836
124	0xbe243476	-0.16035637
125	0xbdf1f5cd	-0.11814461
126	0xbdd32abb	-0.103108846
127	0xbe10426a	-0.14087835
128	0x3d810972	0.0630063
129	0xbc88f9aa	-0.016720612
130	0x3d8ba95a	0.068194106
131	0x3d1b3b5a	0.0378984
132	0xbdfeedc4	-0.12447694
133	0xbdf86981	-0.12129498
134	0xbe060b88	-0.13090336
135	0xbdb9cf5d	-0.090727545
136	0x3d5ef3df	0.054431792
137	0xbe362b6e	-0.17790005
138	0xbe3c547c	-0.18391603
139	0xbb7f15b5	-0.003892285
140	0xbe461831	-0.19345166
141	0xbda397dc	-0.07987949
142	0xbb8e30c3	-0.004339309
143	0x3e2c1bea	0.16807523

features.layers.0.logic.0.layer.0.mlp.0.bias f4 [8]
0	0x3cb04982	0.021519426
1	0x3cbe6580	0.023241758
2	0x3dbae29c	0.091252536
3	0xbd972eed	-0.07381997
4	0xbd1f9741	-0.038962606
5	0x3e2f9073	0.17144947
6	0xbd8f1041	-0.06985522
7	0x3dfe7934	0.124254614

features.layers.0.logic.1.layer.0.mlp.0.weight f4 [8, 9]
0	0x3d3b3c46	0.045711778
1	0xbcb23488	-0.021753564
2	0x3dc952de	0.09830259
3	0x3e6c9013	0.23101835
4	0x3e03c26d	0.12867136
5	0x3e0d3802	0.13790897
6	0x3e1c3c85	0.15257461
7	0x3eb8a69b	0.3606461
8	0x3e809ee9	0.2512124
9	0x3e4c12f8	0.19929111
10	0x3e78bb06	0.24290094
11	0x3e77eeb4	0.24212152
12	0x3e127d5a	0.1430563
13	0x3d82bd11	0.06383718
14	0x3d399047	0.04530361
15	0x3d59ea9b	0.053202253
16	0x3d91d90d	0.07121477
17	0x3ec0065e	0.37504858
18	0xbdb86a9c	-0.09004709
19	0x3d0e55bf	0.034749743
20	0xbbf0996c	-0.007342508
21	0xbea910e3	-0.33020696
22	0x3ca352e3	0.019936984
23	0xbe4dd4f2	-0.20100763
24	0xbe946167	-0.28980562
25	0xbec5ec0c	-0.38656652
26	0xbe5842bc	-0.21119207
27	0xbeca7534	-0.39542544
28	0xbd821610	-0.06351864
29	0xbecb3ebe	-0.39696306
30	0xbe64ce58	-0.22344339
31	0x3c54c647	0.012986726
32	0xbe948e2f	-0.29014727
33	0x3dde28ea	0.108476475
34	0xbd34c30a	-0.044131316
35	0x3a96e58d	0.0011512503
36	0x3e10af05	0.14129265
37	0xbec76039	-0.389406
38	0xbe5204ad	-0.20509596
39	0xbea30ee6	-0.31847304
40	0xbebd8a96	-0.37019795
41	0xbdb4f82d	-0.08836398
42	0xbd1d5ca2	-0.03841842
43	0x3cda5cbd	0.02665555
44	0x3cffd089	0.031227367
45	0xbbbf09ed	-0.0058300407
46	0x3e27be7e	0.16381261
47	0x3e8caa5b	0.2747372
48	0x3c6d5051	0.014484481
49	0x3e51ef9a	0.20501557
50	0x3e8ab1ae	0.27088684
51	0x3e46986f	0.19394086
52	0x3e638902	0.22220233
53	0xbdb88f65	-0.09011725
54	0x3e646059	0.22302379
55	0x3e89469a	0.26811677
56	0x3e65968c	0.2242071
57	0xbd2911f2	-0.04127688
58	0xbc7f3812	-0.015577333
59	0x3e4d09d6	0.20023283
60	0x3d7d9272	0.06190724
61	0x3da46174	0.080264
62	0x3e8a8f14	0.27062285
63	0xbc62eb4b	-0.0138500435
64	0xbe9de7b0	-0.30840826
65	0xbe72c067	-0.23706208
66	0xbe84fc72	-0.2597385
67	0xbdb578dc	-0.08860943
68	0x3e061ff4	0.13098127
69	0xbdf029df	-0.11726736
70	0xbeb9144b	-0.36148295
71	0xbeacfe3d	-0.33787718

features.layers.0.logic.1.layer.0.mlp.0.bias f4 [8]
0	0x3ebdbf53	0.3706003
1	0x3e8307ce	0.25591892
2	0xbee623b4	-0.44949114
3	0xbe25ad55	-0.16179402
4	0xbec5daac	-0.38643396
5	0x3ec65078	0.38733268
6	0x3dc227b4	0.09480229
7	0x3dcf9c0d	0.10137186

features.layers.0.logic.2.layer.0.mlp.0.weight f4 [8, 18]
0	0x3e4cb842	0.19992164
1	0x3e4bd083	0.1990376
2	0x3e025c56	0.12730536
3	0x3d5dda7e	0.05416345
4	0xbda8bfe4	-0.08239725
5	0x3df9424e	0.1217085
6	0x3babdd11	0.005244859
7	0x3d79c2ff	0.06097698
8	0xbd6275a7	-0.055287983
9	0x3d8ff304	0.070287734
10	0x3e17503d	0.14776702
11	0xbd8bbbfb	-0.06822964
12	0x3d216abc	0.03940843
13	0x3d554aad	0.05207317
14	0xbd564a91	-0.052317206
15	0x3e388270	0.18018508
16	0x3e769f2b	0.24084155
17	0xbd1d799b	-0.03844605
18	0xbd96f1eb	-0.07370361
19	0x3e0a2f2b	0.13494556
20	0x3e725854	0.23666507
21	0xbc0b212e	-0.008491797
22	0xbd2f80a9	-0.04284731
23	0x3bcffc40	0.006347209
24	0xbdef11f7	-0.116733484
25	0xbd918661	-0.07105709
26	0xbdf719fb	-0.12065502
27	0x3c6268d2	0.013818936
28	0x3e8772c7	0.26454756
29	0x3dd7075e	0.10499452
30	0x3d85d206	0.065341994
31	0xbcad7186	-0.021172296
32	0x3c1cc5fd	0.009568688
33	0x3e4661d7	0.1937326
34	0xbbbe6876	-0.0058107926
35	0xbc5fb001	-0.013652802
36	0x3da2fb03	0.07958033
37	0xbe284c8a	-0.16435447
38	0x3d2c5deb	0.042081755
39	0xbd8c8ead	-0.06863151
40	0xbdcec462	-0.10096051
41	0xbdceb668	-0.10093385
42	0xbd05c3c8	-0.032657415
43	0xbe1f4506	-0.15553674
44	0x3df25d5f	0.118342154
45	0x3d9f5808	0.077804625
46	0xbd937294	-0.071995884
47	0xbc292ad6	-0.010325154
48	0xbd4ac093	-0.04950006
49	0xbde03f3e	-0.109495625
50	0xbd266d24	-0.04063143
51	0xbe0ab0dc	-0.13544029
52	0x3de91009	0.113800116
53	0xbba8b342	-0.0051483223
54	0xbd3ad691	-0.045614783
55	0xbde5b21a	-0.11215611
56	0x3d964550	0.07337439
57	0xbdabc7e4	-0.083877355
58	0xbd0a85bf	-0.033818956
59	0xbdcb0868	-0.09913713
60	0x3ddd37af	0.108016364
61	0xbe3cb4ee	-0.18428394
62	0x3e31b9e5	0.1735607
63	0x3e2cf144	0.1688891
64	0xbcce0c79	-0.025152432
65	0x3e1be3f6	0.15223679
66	0x3e2612f0	0.16218162
67	0xbbb0bbd8	-0.0053934865
68	0xbd7c8664	-0.061651602
69	0xbe3c67b9	-0.18398942
70	0x3d3551cd	0.044267464
71	0x3e207049	0.15667833
72	0x3da7f198	0.08200377
73	0xbc8795ea	-0.016550977
74	0x3df2e614	0.1186029
75	0x3e29fe1a	0.16600838
76	0x3e2a4bf1	0.16630532
77	0xbe161116	-0.14654955
78	0x3d23f225	0.04002585
79	0xbdd24a43	-0.102680705
80	0xbcf22bd9	-0.029561924
81	0x3e44c1ec	0.192146
82	0xbe1cd0cf	-0.15314029
83	0xbc072212	-0.008247869
84	0x3da1117c	0.07864663
85	0x3df3c863	0.11903455
86	0xbcd46267	-0.025925828
87	0x3dfedbdc	0.124442786
88	0x3dc0140a	0.09378822
89	0x3df8df53	0.12151971
90	0x3db0d38c	0.08634099
91	0xbe15dc43	-0.14634804
92	0x3d056a3b	0.032572012
93	0xbbd02d7a	-0.0063530775
94	0xbda45868	-0.08024675
95	0xbe0a6e15	-0.13518555
96	0x3e43feaf	0.19140123
97	0x3d36ae9a	0.044600107
98	0xbd04d8cf	-0.032433327
99	0xbe0ca9a7	-0.13736592
100	0xbc33d861	-0.010976882
101	0x3e5800ac	0.21094006
102	0xbdb5a881	-0.0887003
103	0xbd471e35	-0.048612792
104	0x3d91c855	0.071182884
105	0x3e72fe8e	0.23729917
106	0xbdd6b392	-0.10483469
107	0x3e695428	0.2278601
108	0xbdc8af84	-0.09799102
109	0x3d5508c3	0.05201031
110	0xbde49414	-0.11161056
111	0xbd2085e0	-0.039190173
112	0x3dd59ff1	0.10430897
113	0x3cb89fba	0.022537101
114	0x3dd0f81c	0.10203573
115	0xbe2eb16b	-0.17059867
116	0x3e3a826b	0.18213813
117	0xbddbe1fc	-0.107364625
118	0x3e60abaa	0.21940485
119	0xbd4ce18f	-0.050019797
120	0x3e2864eb	0.16444747
121	0x3e487afc	0.19578165
122	0x3e06aa12	0.13150814
123	0x3de122fc	0.10993001
124	0xbd99f960	-0.07518268
125	0xbd21c576	-0.039494954
126	0xbe4074b0	-0.18794513
127	0xbdca6252	-0.09882034
128	0x3c3f0979	0.011659973
129	0xbdb1fa75	-0.08690349
130	0x3ca258dc	0.019817762
131	0xbe2cc20d	-0.168709
132	0x3e08adaa	0.13347498
133	0xbdf9de2a	-0.122005776
134	0xbd0024df	-0.031285163
135	0xbdc28b59	-0.09499235
136	0xbd97423b	-0.07385679
137	0xbd9b699d	-0.075885035
138	0xbde671ac	-0.1125215
139	0xbe60e958	-0.21964014
140	0x3d336907	0.043801334
141	0xbe46844e	-0.19386408
142	0x3d396b17	0.045268144
143	0xbe075b01	-0.13218309

features.layers.0.logic.2.layer.0.mlp.0.bias f4 [8]
0	0x3e801066	0.2501251
1	0xbd0e19c9	-0.03469256
2	0x3e00b8a9	0.12570442
3	0xbd8d9ebd	-0.069150425
4	0x3e3067af	0.17227052
5	0x3e31c753	0.17361192
6	0x3d0287cd	0.03186779
7	0xbe1d1e4d	-0.1534359

features.layers.1.logic.0.layer.0.mlp.0.weight f4 [8, 42]
0	0xbd65b265	-0.056078333
1	0x3d84ebc4	0.06490281
2	0x3d0cb9a7	0.03435674
3	0xbcdedeb2	-0.027205799
4	0x3e0ce188	0.13757908
5	0xbd5d67c1	-0.054054026
6	0x3dfc1ef0	0.12310588
7	0x3dc1b1a0	0.094577074
8	0xbd0ccff8	-0.034378022
9	0xbcb68cb3	-0.022283887
10	0x3e13dc50	0.14439511
11	0x3db74a60	0.08949733
12	0x3dd76b87	0.10518556
13	0x3dd1e02f	0.10247838
14	0x3deed676	0.11661999
15	0xbda3dad8	-0.080007255
16	0x3e12c571	0.1433313
17	0x3e096360	0.13416815
18	0x3dac4b30	0.084127784
19	0xbb9a2d6b	-0.0047051213
20	0x3db5f798	0.088851154
21	0x3dd6480c	0.104629606
22	0xbd58afe9	-0.052902136
23	0x3d212555	0.039342243
24	0x3e154c20	0.1457982
25	0xb963b6a5	-0.00021716447
26	0xbd0e9080	-0.034805775
27	0x3de1c16e	0.11023222
28	0xbdb53ddc	-0.08849689
29	0xbcbe5d16	-0.023237746
30	0xbd3dedad	-0.046369243
31	0xbd7f813e	-0.062379114
32	0x3dbc64b6	0.091988966
33	0x3cca077a	0.024661768
34	0xbd256667	-0.04038086
35	0x3d4e31fb	0.050340634
36	0x39960a09	0.00028617706
37	0xbd54d7af	-0.051963504
38	0x3d81e844	0.06343129
39	0x3c84bc31	0.016203018
40	0x3bc6efc5	0.006071063
41	0xbcdce13f	-0.026962874
42	0xbd1d076e	-0.038337164
43	0x3cc018a7	0.023449255
44	0x3da088f6	0.07838623
45	0x3ced35fd	0.028956408
46	0xbc988439	-0.018617736
47	0x3dba251f	0.090891115
48	0xbdab6480	-0.08368778
49	0xbda8ce48	-0.0824247
50	0xbd4b10cb	-0.049576562
51	0xbdba78ed	-0.09105096
52	0xbd7630bf	-0.06010508
53	0x3dadbbdb	0.08483096
54	0x3dde5106	0.10855298
55	0x3d40c5b0	0.04706353
56	0x3ccaf985	0.024777183
57	0x3cb930df	0.022606311
58	0xbab18716	-0.0013544287
59	0x3d14b7d8	0.03630814
60	0x3defa561	0.117014654
61	0x3cbc0717	0.0229526
62	0x3c85f1f9	0.016350733
63	0xbd5c3af0	-0.053767145
64	0x3ce09e53	0.027419245
65	0x3deb79e2	0.11497857
66	0xba2b9de8	-0.0006546662
67	0x3d349a4f	0.044092473
68	0xbd639aab	-0.055567425
69	0x3dab1060	0.08352733
70	0x3dfe0030	0.124023795
71	0xbd5824ce	-0.052769475
72	0x3d9b07f4	0.07569876
73	0xbcfc95b5	-0.030833105
74	0x3dff294f	0.12459051
75	0xbc10bf24	-0.008834634
76	0x3d2f5cc1	0.042813066
77	0x3df9e2ff	0.12201499
78	0x3c81cbbe	0.015844222
79	0x3e357f5b	0.17724364
80	0x3b70b526	0.0036729067
81	0x3da9391a	0.082628444
82	0xbd1262a9	-0.03573862
83	0x3db6a44a	0.089180544
84	0xbd7a337c	-0.061084256
85	0x3d047402	0.032337196
86	0x3cda9959	0.02668445
87	0xbde66bc1	-0.11251021
88	0x3bd19509	0.00639594
89	0x3c8bdb75	0.017072419
90	0x3e0c4c3d	0.13700958
91	0xbad09f09	-0.0015916537
92	0x3dcbb727	0.09947043
93	0x3cb790b4	0.022407867
94	0x3d8f1714	0.06986824
95	0x3dccc50c	0.09998521
96	0xbd9fb93e	-0.07799004
97	0xbc839fd9	-0.016067432
98	0x3df3c647	0.11903053
99	0x3d62a3dd	0.055332053
100	0x3dbfc02a	0.09362824
101	0xbbfbf4bf	-0.007689088
102	0x3d48c5aa	0.049016632
103	0xbd79755a	-0.06090293
104	0x3da41f4e	0.080137834
105	0x3e167c5e	0.1469588
106	0x3c3dd2ac	0.011585873
107	0xbdc835a6	-0.097758576
108	0x3d7405a6	0.0595757
109	0x3dc67def	0.09691989
110	0x3d859257	0.06522053
111	0x3e32f794	0.17477256
112	0x3dfa04b1	0.12207926
113	0xbc95afe7	-0.018272353
114	0x3da45aa2	0.08025099
115	0xbafb419b	-0.0019169332
116	0xbc20a7ce	-0.009805633
117	0x3de1e25c	0.11029503
118	0x3dd68c90	0.10476029
119	0xbca8ca22	-0.020604197
120	0xbd19a5d0	-0.037511647
121	0x3e57c65c	0.21071762
122	0xbd918061	-0.071045645
123	0x3de006e9	0.10938818
124	0x3e106747	0.14101897
125	0x3d628660	0.05530393
126	0x3cdbd013	0.026832616
127	0xbe4a75b4	-0.19771463
128	0xbd6bde9b	-0.05758534
129	0xbc95a64a	-0.01826777
130	0x3c7a8a24	0.015291724
131	0xbe1b1a7b	-0.1514682
132	0x3d577c0a	0.052608527
133	0x3d9f67b6	0.07783453
134	0x3b8fff29	0.004394431
135	0xbe3aa5c3	-0.18227296
136	0xbdedb1ae	-0.11606155
137	0x3d165628	0.03670326
138	0xbe380cfb	-0.17973702
139	0xbd7fc05a	-0.0624393
140	0xbd3ffead	-0.046873737
141	0x3d864639	0.06556363
142	0x3d156bdf	0.036479827
143	0xbe0c80a9	-0.13720955
144	0xbd11b767	-0.035575297
145	0xbe102866	-0.14077911
146	0xbb703085	-0.0036650014
147	0xbdab196f	-0.083544604
148	0x3c10a5b8	0.008828573
149	0x3c85a5d6	0.016314428
150	0xbdf100e4	-0.11767748
151	0x3d40c5d5	0.047063667
152	0xbd8f2b39	-0.06990666
153	0xbd1061a0	-0.035249352
154	0x3c3733ef	0.0111818155
155	0x3d42f3ac	0.047595665
156	0xbe1fb392	-0.15595844
157	0xbe0f2eae	-0.1398265
158	0xbd202564	-0.03909816
159	0xbcf31aa8	-0.029675797
160	0xbe12cd5a	-0.14336148
161	0x3c63160b	0.013860236
162	0xbd8f1e87	-0.069882445
163	0xbdafa8ed	-0.08577142
164	0xbda502bc	-0.08057162
165	0xbe27e65a	-0.16396466
166	0xbdc15c7a	-0.09441467
167	0x3c78bb20	0.015181333
168	0x3d93e79a	0.07221909
169	0x3e121929	0.1426741
170	0x3e114581	0.1418667
171	0x3ce1a596	0.027544778
172	0xbd281712	-0.041037627
173	0x3da3de4f	0.080013864
174	0xbd958f1f	-0.07302689
175	0xbd7e13fa	-0.06203077
176	0xbcda019e	-0.0266121
177	0x3d49c92e	0.049264126
178	0x3d241736	0.0400612
179	0xbd8ddd1f	-0.06926941
180	0x3e3a3264	0.18183285
181	0x3e2a5a81	0.16636087
182	0x3d741643	0.059591543
183	0xbd3965ac	-0.045262977
184	0xbd316290	-0.043306887
185	0x3e04c781	0.1296673
186	0x3d78c6aa	0.060736336
187	0x3e460c78	0.19340694
188	0x3e2b8308	0.16749203
189	0x3dc58f91	0.09646524
190	0x3e25888f	0.16165374
191	0x3e0be937	0.13663183
192	0x3dad667f	0.08466815
193	0xbd249250	-0.040178597
194	0x3df54aed	0.119771816
195	0x3de3e512	0.11127676
196	0xbcdb9835	-0.026805976
197	0x3dc65237	0.0968365
198	0xbdaac0b6	-0.08337538
199	0x3d464a0b	0.048410457
200	0x3dfcf089	0.12350566
201	0x3bc01ac2	0.005862565
202	0x3da1220e	0.078678235
203	0xbca3b417	-0.019983334
204	0xbd17e3e4	-0.037082568
205	0x3de6dd9c	0.112727374
206	0x3dfcd6e9	0.12345678
207	0xbd310d07	-0.043225314
208	0x3bfb1d1b	0.0076633818
209	0xbcd82afd	-0.026387686
210	0xbda1576f	-0.07878005
211	0x3d94c34b	0.07263812
212	0x3de0be44	0.1097379
213	0xbd9b6f11	-0.075895436
214	0x3dafd9b6	0.08586447
215	0x3e01a150	0.12659192
216	0x3dc31242	0.09524967
217	0x3d9f7f09	0.07787902
218	0x3e2df780	0.16988945
219	0xbd33091b	-0.043709856
220	0x3e08b8ca	0.13351741
221	0x3dba313b	0.09091421
222	0xbd548049	-0.051880155
223	0xb9cd01c5	-0.00039101965
224	0x3d02b91d	0.03191482
225	0x3d3a73c1	0.045520548
226	0x3da4507c	0.08023164
227	0xbd83ca3c	-0.064350575
228	0xbb8ce07c	-0.0042992216
229	0x3e43be71	0.19115616
230	0x3dc0ee0a	0.09420402
231	0xbce68508	-0.028139606
232	0x3dd023ca	0.10163076
233	0x3e175c65	0.1478134
234	0x3e060204	0.13086706
235	0xbd15db9c	-0.03658639
236	0x3e357979	0.1772212
237	0x3e17c550	0.14821362
238	0x3d15639d	0.03647195
239	0xbbf592b7	-0.0074942964
240	0x3c2d3158	0.0105708465
241	0xbd0f1888	-0.034935504
242	0x3d213e44	0.03936602
243	0xbc550f9d	-0.013004211
244	0xbd26d8f2	-0.04073424
245	0x3df3ebd4	0.11910215
246	0x3e09ef65	0.13470228
247	0xbcac348a	-0.021021146
248	0xbc085143	-0.008320156
249	0xbbb2e51b	-0.0054594404
250	0x3d358a76	0.0443215
251	0x3d2f1cbf	0.042752024
252	0x3e126fbb	0.14300434
253	0x3d289c25	0.041164536
254	0x3de5fcd9	0.112298675
255	0xbd72826b	-0.059206408

features.layers.1.logic.0.layer.0.mlp.0.bias f4 [8]
0	0x3e130b98	0.14359891
1	0x3d851327	0.06497794
2	0xbd7e31e8	-0.062059313
3	0x3d3a3508	0.04546073
4	0x3d5b2f14	0.053511694
5	0x3dd4c874	0.10389796
6	0x3e0a962e	0.13533852
7	0x3c1a609f	0.00942245

features.layers.1.logic.1.layer.0.mlp.0.weight f4 [8, 41]
0	0xbdc4a28e	-0.09601317
1	0xbea041f5	-0.3130032
2	0xbe56cd0c	-0.20976657
3	0x3db80b8a	0.08986576
4	0xbdc5bba4	-0.0965493
5	0x3d956eeb	0.072965465
6	0x3c858c9f	0.016302405
7	0xbe00525d	-0.12531419
8	0xbde77d36	-0.11303179
9	0xbe0038f9	-0.12521733
10	0xbd146dbd	-0.036237467
11	0xbd65956f	-0.056050714
12	0xbd0a10ba	-0.033707358
13	0xbdb9b4c4	-0.090676814
14	0xbdcdef67	-0.10055428
15	0xbc3d5d04	-0.011557821
16	0xbd9ddf27	-0.077085786
17	0xbe83b568	-0.2572434
18	0xbd9b42e0	-0.07581115
19	0x3c7b4663	0.015336606
20	0xbdda1093	-0.106476925
21	0x3c8f2410	0.01747325
22	0x3d256ca3	0.040386807
23	0xbcc06d82	-0.023489717
24	0xbd6a4506	-0.057194732
25	0xbe1a3ad0	-0.15061498
26	0xbe0ce63e	-0.13759705
27	0xbd97785d	-0.07396004
28	0xbbf2897e	-0.0074016443
29	0xbde47947	-0.11155944
30	0xbde911fb	-0.113803826
31	0xbe44cf93	-0.19219808
32	0xbdfd2703	-0.123609565
33	0xbe046ef3	-0.12932949
34	0xbddee9dd	-0.1088445
35	0xbe046b19	-0.1293148
36	0xbe190448	-0.1494304
37	0xbd7af433	-0.061268043
38	0xbe11fcfd	-0.14256664
39	0xbd92ad9f	-0.07162022
40	0xbe07d3ea	-0.13264433
41	0xbd487d10	-0.048947394
42	0xbeb8ce73	-0.36095008
43	0xbeae8eb6	-0.34093255
44	0xbe1ce54d	-0.15321846
45	0xbe21a9d5	-0.15787442
46	0xbe109eb7	-0.14123045
47	0xbe616d47	-0.22014342
48	0xbd5e1d51	-0.054227177
49	0xbd9a2d69	-0.075281925
50	0xbda41009	-0.08010871
51	0x3bcc3937	0.0062324065
52	0x3d4634cc	0.048390195
53	0xbe269e34	-0.16271287
54	0xbdd13e32	-0.10216941
55	0xbc6f9c46	-0.014624661
56	0xbe00205e	-0.12512347
57	0xbd55f0d4	-0.052231625
58	0xbdeb7928	-0.11497718
59	0xbe2c49bb	-0.16825001
60	0xbc8eb6de	-0.017421182
61	0xbdd4a3ec	-0.10382828
62	0xbda51b09	-0.08061797
63	0xbe053682	-0.13009074
64	0xbe102535	-0.14076693
65	0x3cea3380	0.02858901
66	0xbe821a4b	-0.25410685
67	0xbe34ad53	-0.17644243
68	0xbc28e977	-0.010309569
69	0x3cac9c69	0.021070676
70	0xbd6227e0	-0.05521381
71	0x3ce6c0f2	0.028168175
72	0xbe46bab3	-0.19407158
73	0xbe6e9481	-0.23298837
74	0xbd9231e1	-0.0713842
75	0xbe071cf3	-0.13194637
76	0xbdc3907f	-0.09549045
77	0xbe542ce3	-0.20720248
78	0xbe93173b	-0.2872866
79	0xbe27f9c6	-0.16403875
80	0x3d7e9a44	0.062158838
81	0xbd811dc8	-0.063045084
82	0x3dbc2bc6	0.091880366
83	0xbe16a4bf	-0.14711283
84	0xbe78bc14	-0.24290496
85	0x3d997c90	0.074944615
86	0xbe820a64	-0.25398552
87	0x3daec291	0.08533204
88	0xbc0421ca	-0.008064697
89	0x3d85a614	0.065258175
90	0x3cc4b48b	0.02401187
91	0xbde0b0a9	-0.10971195
92	0xbcb20255	-0.021729628
93	0xbdd76899	-0.10517997
94	0xbdabde5b	-0.0839202
95	0xbc7c1f0d	-0.015388262
96	0xbbc8e7f5	-0.006131167
97	0xbe516058	-0.20446908
98	0xbdea7664	-0.114483625
99	0xbdf87673	-0.121319674
100	0xbddf0b6a	-0.10890849
101	0xbd89029a	-0.06689949
102	0x3d836a0f	0.064167134
103	0xbe6fb0cc	-0.23407286
104	0xbca67929	-0.020321446
105	0xbe8597c2	-0.26092345
106	0xbddfe862	-0.109329954
107	0xbe4e2e72	-0.20134905
108	0xbe61903c	-0.22027677
109	0xbda8c794	-0.082411915
110	0x3c28b048	0.010295935
111	0x3cabb91a	0.020962287
112	0x3c15bc31	0.009139107
113	0xbe24ef22	-0.16106847
114	0xbdd454f9	-0.1036777
115	0xbc1e39bb	-0.009657319
116	0xbe03540d	-0.12825032
117	0xbdeb7aba	-0.114980176
118	0xbdcbe260	-0.09955287
119	0xbce1e705	-0.027575979
120	0xbb167a73	-0.002296117
121	0xbb855087	-0.0040684375
122	0xbda557b4	-0.08073369
123	0x3c98376a	0.018581111
124	0x3e6e2f8d	0.23260327
125	0x3eac6c90	0.33676577
126	0x3da68774	0.081313044
127	0x3e8e8263	0.27833852
128	0x3d865eff	0.06561088
129	0x3e2d94ce	0.16951296
130	0x3e2f8f33	0.1714447
131	0xbcb101b2	-0.021607254
132	0xbcd1ad89	-0.025595443
133	0xbcc0bcca	-0.023527522
134	0xbb88a43a	-0.004169968
135	0x3da2b148	0.0794397
136	0x3d8fac56	0.07015292
137	0x3df21ba6	0.1182168
138	0xbd048528	-0.03235355
139	0x3e342df1	0.1759565
140	0x3e2f7765	0.17135389
141	0x3de8eb68	0.11373025
142	0x3e179393	0.14802389
143	0x3dbc0667	0.09180909
144	0xbd15461f	-0.036443826
145	0x3dec8b7f	0.11550044
146	0x3da57bb9	0.08080239
147	0x3d8ea3e6	0.06964855
148	0x3e2c5011	0.16827418
149	0x3dd98d13	0.10622611
150	0x3d8b2fc6	0.067962214
151	0x3e260c40	0.1621561
152	0x3dc7a464	0.09748152
153	0x3e16ac08	0.14714062
154	0x3e826e25	0.2547466
155	0x3b6b91d7	0.0035945082
156	0x3e1fadde	0.15593669
157	0x3dff6bdb	0.12471744
158	0x3e3b9dd4	0.18321925
159	0x3b945359	0.0045265374
160	0x3e8960bd	0.26831618
161	0x3e27691d	0.16348691
162	0x3df3a671	0.118969806
163	0x3e05ad54	0.130544
164	0x3d410595	0.047124464
165	0x3e9c0596	0.30473012
166	0x3e21e67b	0.15810578
167	0x3d5355c4	0.051595464
168	0x3e81cee9	0.25353172
169	0xbd6f307d	-0.05839585
170	0x3e0c3923	0.13693671
171	0xbd990f92	-0.07473673
172	0x3c66cada	0.0140864495
173	0x3dee1a74	0.11626139
174	0x3db4255c	0.08796188
175	0xbc5e9788	-0.013585933
176	0x3e1b34ef	0.15156911
177	0x3d0f905c	0.03504978
178	0xbc03eb1f	-0.008051663
179	0x3e8c3f6a	0.2739213
180	0x3d94b1e5	0.07260493
181	0x3e168c31	0.14701916
182	0x3e2e0f44	0.16998011
183	0xbe05abae	-0.13053772
184	0x3c82dc7d	0.015974278
185	0x3da3f68d	0.0800601
186	0x3deb4bda	0.11489077
187	0x3cda2d50	0.026632935
188	0x3df23771	0.11826981
189	0x3dff04a5	0.12452058
190	0x3ddf6256	0.10907428
191	0xbcb82961	-0.022480669
192	0x3da779ac	0.08177504
193	0x3df402e9	0.119146176
194	0x3b08c08d	0.0020866722
195	0x3dc9a5bd	0.09846065
196	0xbcef17fa	-0.029186238
197	0x3e48a274	0.19593221
198	0x3dd90b1b	0.10597821
199	0x3e4049ee	0.18778202
200	0x3ddf1d20	0.10894227
201	0x3e8dee11	0.27720693
202	0x3b397ca2	0.0028303047
203	0xbe075f7e	-0.13220021
204	0xbd31e096	-0.043427072
205	0x3b11cde4	0.0022247965
206	0xbdd1e8aa	-0.10249455
207	0xbdc02885	-0.093827285
208	0x3d87addb	0.06624957
209	0xbe4b0ab7	-0.19828306
210	0xbd937000	-0.07199097
211	0xbdee2dc3	-0.11629822
212	0xbdfd9fcc	-0.123839945
213	0xbe64f04b	-0.2235729
214	0xbb709191	-0.0036707858
215	0xbd30ae3e	-0.04313492
216	0xbe349e99	-0.17638625
217	0xbe17b5c2	-0.14815429
218	0xbd88179a	-0.06645127
219	0xbdfc7b6b	-0.123282276
220	0xbd6f3f9f	-0.058410283
221	0xbe1cf9a6	-0.15329608
222	0xbdb4e81c	-0.08833334
223	0xbdf4775f	-0.11936831
224	0x3d956d89	0.07296283
225	0xbd6e73e2	-0.058215983
226	0x3ce9243b	0.028459659
227	0xbdc7448a	-0.0972987
228	0xbd8b5041	-0.068024166
229	0xbd650e52	-0.05592186
230	0xbcc71526	-0.024302077
231	0xbe4521f2	-0.1925123
232	0xbe290caf	-0.16508745
233	0xbe738246	-0.23780164
234	0x3d27bfed	0.04095452
235	0x3c328c43	0.010897699
236	0xbddb7fe2	-0.10717751
237	0x3dec9b04	0.115530044
238	0xbdf032ce	-0.1172844
239	0xbe062751	-0.13100936
240	0xbe386525	-0.18007334
241	0xbc382ba6	-0.011240875
242	0xbe72c8a8	-0.23709357
243	0xbb5ee60f	-0.0034011637
244	0xbdd8010e	-0.10547076
245	0x3d1078f3	0.035271596
246	0x3e035736	0.12826237
247	0x3e7bc601	0.24587251
248	0x3dcc3841	0.09971667
249	0x3da07c9a	0.07836266
250	0x3e068033	0.13134842
251	0xbd8af7b9	-0.067855306
252	0xbd828b66	-0.063742444
253	0x3c9d87e3	0.019229835
254	0x3dc49c2d	0.09600101
255	0x3e05e6c9	0.13076319

features.layers.1.logic.1.layer.0.mlp.0.bias f4 [8]
0	0xbddb5cee	-0.10711084
1	0xbdc3a01d	-0.095520236
2	0xbdb80aae	-0.08986412
3	0x3e9fe2b5	0.3122765
4	0x3e7f352d	0.24922629
5	0xbdf7958d	-0.120890714
6	0x3e5fca6b	0.2185456
7	0x3e0c14c0	0.1367979

features.layers.1.logic.2.layer.0.mlp.0.weight f4 [8, 50]
0	0xbc0abd93	-0.00846805
1	0x3d1a2e50	0.037641823
2	0x3bb38ed1	0.0054796715
3	0xbc2c1578	-0.010503165
4	0xbcad0e84	-0.021125086
5	0xbdbca5b8	-0.09211296
6	0x3d261903	0.040551197
7	0x3c2de97e	0.010614751
8	0x3d929092	0.07156481
9	0xbd9db448	-0.077004015
10	0x3cbe0a81	0.023198368
11	0xbdcdac73	-0.10042658
12	0x3dd1802a	0.102295235
13	0xbdf8fa3b	-0.12157103
14	0x3d92317a	0.07138343
15	0xbd996c18	-0.0749132
16	0x3d8e6d4e	0.06954442
17	0xbc1fdd11	-0.009757296
18	0xbe173b73	-0.14768772
19	0xbdee67c3	-0.11640885
20	0xbb7764a3	-0.0037749193
21	0x3d416d78	0.04722354
22	0xbd238341	-0.039920095
23	0x3d3825ab	0.044957798
24	0xbe029d08	-0.12755215
25	0xbdf0e168	-0.11761743
26	0xbc4b6318	-0.0124137625
27	0xbdeb2773	-0.11482134
28	0xbd0c43bb	-0.03424428
29	0xbd81d47c	-0.06339356
30	0xbe09c367	-0.13453446
31	0xbdf99ab0	-0.121877074
32	0xbdee5a8f	-0.116383664
33	0xbd3fb5a2	-0.046804078
34	0x3d0f7e96	0.03503283
35	0xbe2aae7d	-0.16668124
36	0x39ed13cb	0.0004521891
37	0xbc8ba70a	-0.017047424
38	0xbd9da4b8	-0.07697433
39	0x3d1bbc20	0.038021207
40	0xbd54a34b	-0.05191354
41	0xbd294f78	-0.041335553
42	0x3d82cff1	0.06387318
43	0xbc9c8b12	-0.019109283
44	0x3d5090d1	0.050919358
45	0xbe3007f6	-0.17190537
46	0xbd7fe1d7	-0.062471237
47	0xbd97753f	-0.0739541
48	0x3d7a370a	0.061087646
49	0xbb5493f1	-0.0032436813
50	0xbdc5c22a	-0.096561745
51	0x3de44381	0.11145688
52	0x3d4a719f	0.049424764
53	0xbd4b81f4	-0.04968448
54	0xbda8018a	-0.082034186
55	0xbdc02ecd	-0.093839265
56	0x3ce8ef83	0.02843452
57	0x3d1cbb2f	0.03826445
58	0xbe2191f1	-0.15778328
59	0x3d4be5ca	0.04977969
60	0xbe0f3d06	-0.13988122
61	0xbdca9091	-0.09890855
62	0xbd63ce74	-0.05561681
63	0xbc241194	-0.010013957
64	0x3d600375	0.054690797
65	0xbd239f62	-0.03994692
66	0x3cd09505	0.025461683
67	0x3cb45be1	0.022016468
68	0xbc6ac454	-0.014329035
69	0xbe16598e	-0.146826
70	0xbd8cecb2	-0.068810835
71	0xbd51faf0	-0.051264703
72	0x3a20e3e4	0.0006137474
73	0x3dac0ce8	0.08400899
74	0xbd05d594	-0.032674387
75	0xbd335f01	-0.043791775
76	0x3cefe8df	0.029285846
77	0xbd92958f	-0.07157432
78	0xbdafd033	-0.08584633
79	0xbd65dd1b	-0.056119066
80	0x3c9f51b2	0.019448135
81	0xbca5283e	-0.02016079
82	0xbda176f4	-0.07884017
83	0x3d00d20d	0.03145032
84	0xbdd1c9fc	-0.102436036
85	0x3d30073b	0.042975646
86	0x3e025051	0.12725951
87	0x3daf796c	0.08568081
88	0x3dca06cd	0.098645784
89	0x3cf7b954	0.030239739
90	0xbd9229ab	-0.07136854
91	0xbc6ecebf	-0.014575659
92	0xbdd35134	-0.10318223
93	0x3d2d661e	0.042333715
94	0xbd98d7a7	-0.074630074
95	0xbd9fc360	-0.07800937
96	0x3d7f7637	0.062368598
97	0xbe225be3	-0.15855365
98	0xbb4d3a35	-0.0031315212
99	0x3de5adff	0.11214828
100	0x3d8e6241	0.06952334
101	0xbd1e6e26	-0.038679264
102	0x3deaef83	0.114714645
103	0x3dbed1dc	0.09317371
104	0xbd2c197e	-0.0420165
105	0xbd2973d6	-0.041370235
106	0x3e1ded18	0.15422475
107	0x3db7ee4c	0.089809984
108	0xbc25ff45	-0.010131662
109	0x3d1576b0	0.036490142
110	0x3e06ce7b	0.13164704
111	0xbd41148a	-0.04713873
112	0xbca0e4d3	-0.019640362
113	0xbaeb7cb5	-0.0017966243
114	0xbd9f277f	-0.07771205
115	0x3dc1b8f6	0.094591066
116	0x3ca1cedf	0.019751964
117	0xbd94443f	-0.072395794
118	0x3d7dab62	0.06193102
119	0x3c217056	0.009853443
120	0x3d94de20	0.072689295
121	0xbb1dbdf0	-0.002406951
122	0xbcc866ca	-0.024463076
123	0x3e25e0ef	0.16199087
124	0x3ccc347f	0.024927376
125	0x3cd6e62f	0.026232807
126	0xbca517f2	-0.02015302
127	0x3e2349c0	0.15946102
128	0x3d3da8f6	0.04630371
129	0x3dfa85a5	0.12232522
130	0xbcb795a2	-0.022410218
131	0x3dc2664f	0.0949217
132	0x3dc2be05	0.095088996
133	0x3e1aae71	0.15105607
134	0x3e256dbc	0.16155142
135	0x3d3ca5c0	0.04605651
136	0x3da34456	0.079720184
137	0x3997ba86	0.00028939935
138	0xbdad417a	-0.08459754
139	0x3e1d61d1	0.15369345
140	0x3dcba90b	0.09944352
141	0x3dc01315	0.093786396
142	0x3d8d0bce	0.06887017
143	0x3df2aa5c	0.118489
144	0xbe08772f	-0.13326715
145	0xbbdd176c	-0.006747177
146	0x3dfcb05f	0.123383276
147	0x3d9e01ef	0.077152126
148	0x3e2b4678	0.167261
149	0xbac46dc6	-0.0014986328
150	0xbdf89dee	-0.12139498
151	0xbdf28155	-0.118410744
152	0x3da0f50e	0.078592405
153	0xbda0e7ce	-0.07856713
154	0xbcd7f6bd	-0.026362771
155	0xbda79156	-0.081820175
156	0x3d66cfe3	0.0563506
157	0xbdb7933d	-0.0896363
158	0x3d54c8d4	0.051949337
159	0xbd8df958	-0.06932324
160	0xbdb4763f	-0.08811616
161	0xbdad17d8	-0.084518135
162	0xbd9fbd6c	-0.07799801
163	0xbe0b4e55	-0.136041
164	0xbdda6e1b	-0.10665532
165	0x3c7d5309	0.015461692
166	0x3e182286	0.1485692
167	0x3a820ca9	0.0009921986
168	0x3d7ee08e	0.06222587
169	0x3d7b6e65	0.061384577
170	0x3de6cdf0	0.11269748
171	0xbddc90a1	-0.10769773
172	0xbc5e1cce	-0.013556672
173	0xbd0768c8	-0.03305891
174	0x3db060b4	0.08612195
175	0xbdda3c79	-0.106560655
176	0xbc8ccf98	-0.017188832
177	0xbc20f13b	-0.009823139
178	0x3e1773da	0.14790288
179	0x3db50e44	0.088406116
180	0xbd94e2b9	-0.072698064
181	0x3c8bee7d	0.017081494
182	0xbe189b33	-0.14902954
183	0xbd82b20a	-0.063816145
184	0xbdab1583	-0.083537124
185	0x3cdaf62c	0.026728712
186	0x3c980883	0.018558746
187	0xbd3c371c	-0.045950994
188	0xbd96fe99	-0.073727794
189	0xbc2024a7	-0.009774364
190	0x3d6cbb3e	0.057795756
191	0xba9902c0	-0.0011673793
192	0xbda6e641	-0.08149386
193	0x3ce88a47	0.028386248
194	0xbcd150e0	-0.02555126
195	0xbdaa4a80	-0.08314991
196	0x3da96d63	0.08272817
197	0x3d7b005b	0.061279636
198	0xbdc41066	-0.0957344
199	0xbe0634af	-0.13106035
200	0x3d08f031	0.03343219
201	0x3db60bb2	0.088889495
202	0xbc920353	-0.01782385
203	0x3db1fc1c	0.08690664
204	0xbda13793	-0.07871928
205	0x3cb45a89	0.022015827
206	0xbda28af1	-0.07936657
207	0x3de1ffaa	0.11035092
208	0x3dbbb67e	0.09165667
209	0xbd082e99	-0.033247564
210	0x3e458989	0.19290747
211	0x3bd84428	0.0065999217
212	0x3d8e27c3	0.06941178
213	0xbb7e34bb	-0.0038788754
214	0xbcdf77f4	-0.027278878
215	0x3d2002fb	0.039065342
216	0xbdf2a610	-0.1184808
217	0x3dd3644a	0.10321863
218	0x3d02c234	0.031923488
219	0xbdaa6dde	-0.08321737
220	0x3d66e994	0.0563751
221	0x3e203737	0.15646063
222	0x3cf1b4b0	0.029505104
223	0x3da88606	0.08228688
224	0x3c13bc8f	0.009017124
225	0x3dcb16ab	0.09916433
226	0x3d385734	0.04500504
227	0x3d4ea0fd	0.0504465
228	0xbd46d532	-0.048543163
229	0x3d0dd9da	0.034631588
230	0x3d0905cc	0.033452794
231	0x3d873b59	0.066031165
232	0x3d143e31	0.036192123
233	0x3e293373	0.16523533
234	0x3dc0c62e	0.094128
235	0x3d9408c1	0.07228232
236	0xbda8261a	-0.08210392
237	0x3de1e9e2	0.11030938
238	0xbbff8403	-0.0077977194
239	0x3db82356	0.08991115
240	0x3e1c3711	0.15255381
241	0xbc2125e4	-0.009835694
242	0x3d5f07b2	0.0544507
243	0x3db0039c	0.085944384
244	0x3e06c992	0.1316283
245	0xbced22ae	-0.0289472
246	0x3dc473b4	0.09592381
247	0x3d7b1f18	0.06130895
248	0x3dc4f10d	0.09616289
249	0x3c7606f9	0.015016311
250	0x3bc72e34	0.006078506
251	0x3e45e0e3	0.19324069
252	0xbd5f3241	-0.054491285
253	0x3e14b0c7	0.1452056
254	0xbd7fc29e	-0.06244146
255	0x3d042269	0.03225938

features.layers.1.logic.2.layer.0.mlp.0.bias f4 [8]
0	0xbe10682a	-0.14102235
1	0x3d9500e9	0.07275564
2	0x3d457d2e	0.048215084
3	0x3d01f829	0.031730805
4	0x3c70ef1a	0.014705444
5	0x3c4d7663	0.012540433
6	0xbe4a50e6	-0.19757423
7	0x3db563a5	0.08856896

features.layers.1.logic.3.layer.0.mlp.0.weight f4 [8, 48]
0	0x3e2e70c4	0.17035204
1	0x3dbb5d01	0.091485985
2	0x3d8511c3	0.064975284
3	0x3da53f69	0.08068735
4	0x3d94f7fc	0.07273862
5	0x3c49589a	0.012289191
6	0x3ca81f48	0.020522729
7	0x3d8a25b8	0.067454755
8	0xbc8e957c	-0.017405264
9	0x3dbed42b	0.093178116
10	0x3d9279c6	0.07152133
11	0xbdc7428e	-0.09729491
12	0x3d5da885	0.05411579
13	0x3aaa2c80	0.0012983233
14	0xbd5681d6	-0.052369915
15	0x3dc772cc	0.09738693
16	0x3e1ac655	0.1511472
17	0xbc53a2fb	-0.012917276
18	0x3e0b7b94	0.1362136
19	0x3db37a79	0.08763594
20	0x3d8bd028	0.06826812
21	0x3e102435	0.14076312
22	0x3da1b65b	0.0789611
23	0x3d1ac3ec	0.037784502
24	0x3c886220	0.016648352
25	0x3cc2af6f	0.023765294
26	0x3e036bc0	0.12834072
27	0x3b0eb0d4	0.0021772878
28	0xbd57cfd8	-0.05268845
29	0x3d752d05	0.059857387
30	0x3ce8bac4	0.02840937
31	0xbc951362	-0.018197719
32	0x3bb54c3f	0.005532771
33	0xbd714a61	-0.058908824
34	0x3ddd7c93	0.10814776
35	0xbd451301	-0.048113827
36	0x3de3e6a5	0.11127976
37	0x3d9d47e8	0.07679731
38	0xbd40c068	-0.047058493
39	0x3dbafbcd	0.091300584
40	0x3def25fb	0.11677166
41	0x3dfe458b	0.12415608
42	0xbcbd2cfa	-0.023092736
43	0xbb857671	-0.004072957
44	0x3d928f96	0.07156293
45	0x3d68fc77	0.056881394
46	0x3dcc8bc4	0.09987596
47	0xbaea5a12	-0.0017879626
48	0xbd00132a	-0.031268276
49	0x3d97fe24	0.0742152
50	0x3de55ff4	0.11199942
51	0x3ce96715	0.028491536
52	0xbcbc609e	-0.02299529
53	0x3d8c952e	0.06864391
54	0x3e0737f8	0.13204944
55	0x3d557a30	0.05211848
56	0x3c4e2971	0.012583123
57	0x3c90d93f	0.017681716
58	0xbdae5790	-0.08512795
59	0x3e1d9b21	0.15391208
60	0x3d7a6169	0.061128054
61	0x3c789006	0.015171057
62	0xbcbb8416	-0.022890132
63	0xbc9f935c	-0.019479446
64	0xbdd33512	-0.10312857
65	0xbde02ed8	-0.10946435
66	0x3ae6dd06	0.0017613478
67	0xbd1688a0	-0.03675139
68	0x3d0eeaaf	0.03489178
69	0xbd8feed0	-0.07027972
70	0x3d23e453	0.04001267
71	0x3ac5a366	0.0015078604
72	0x3dd93066	0.106049344
73	0x3e06e363	0.13172679
74	0x3dc7da8c	0.097584814
75	0xbe07f0b1	-0.1327541
76	0xbd8e0955	-0.06935374
77	0x3d8a195d	0.06743119
78	0x3d09270a	0.033484496
79	0xbc77148c	-0.015080582
80	0xbdb61c0f	-0.088920705
81	0x3e06e126	0.13171825
82	0xbd4e040f	-0.05029684
83	0x3da74821	0.08168054
84	0xbd6356cc	-0.055502698
85	0x3c7da52b	0.015481274
86	0xbc865a89	-0.016400592
87	0xbd5f8ddb	-0.054578643
88	0xbd9ecf30	-0.07754362
89	0xbcc29f7b	-0.023757687
90	0xbdc560a2	-0.09637572
91	0xbde0054f	-0.109385125
92	0xbb27fec4	-0.002563403
93	0x3ce00f89	0.027351158
94	0xbdb2fc38	-0.08739513
95	0x3ca609fe	0.020268437
96	0x3b6dae5a	0.0036267252
97	0xbdb59f67	-0.08868294
98	0xbd313339	-0.04326174
99	0x3da62ee1	0.0811441
100	0x3c19ffd0	0.009399369
101	0x3dab1075	0.08352748
102	0x3e024eee	0.12725422
103	0x3dec7856	0.1154639
104	0xbd0712cb	-0.032976907
105	0xbc2cb326	-0.010540759
106	0x3db11da0	0.08648229
107	0x3dcf05a0	0.10108495
108	0xbd53e371	-0.051730577
109	0xbd8ee108	-0.06976515
110	0x3dc78ab0	0.097432494
111	0x3d7782e8	0.060427576
112	0x3d3dbfb8	0.046325415
113	0x3ce7cc1d	0.028295571
114	0x3d5d10bb	0.053971034
115	0xbd80290c	-0.06257829
116	0x3d8ac948	0.067766726
117	0x3db8b23e	0.09018372
118	0xbc01e47a	-0.007928008
119	0x3d38aa18	0.04508409
120	0x3e194c9a	0.14970627
121	0xbc634c94	-0.013873238
122	0x3d36b8cd	0.044609834
123	0x3cdb1656	0.026744049
124	0x3d03a762	0.03214205
125	0x3d431f9d	0.04763757
126	0x3c7a1d40	0.015265763
127	0x3d82a1f2	0.06378545
128	0xbcb0c63b	-0.021578899
129	0xbd9554a4	-0.072915345
130	0xbddc9823	-0.10771205
131	0x3ddcf996	0.10789792
132	0xbe065ccb	-0.13121335
133	0xbd0d4d31	-0.034497444
134	0x3c66100a	0.01404191
135	0x3ca9e3c1	0.020738484
136	0x3e16ddde	0.14733073
137	0x3c2e8df0	0.010653958
138	0xbdf1061f	-0.11768746
139	0x3d01253d	0.031529654
140	0x3a7d9604	0.0009673538
141	0x3dd1b292	0.10239138
142	0x3dee7970	0.11644256
143	0x3d55a83d	0.052162398
144	0x3ccc1e11	0.02491668
145	0xbda482c4	-0.08032754
146	0xbdcd9c97	-0.10039633
147	0x3b352c0e	0.0027644667
148	0xbd4037aa	-0.046928085
149	0x3d73e5a8	0.05954519
150	0x3e0aa9e4	0.1354137
151	0x3d69b738	0.057059497
152	0x3d9ce3e0	0.07660651
153	0xbd0d5b34	-0.034510806
154	0x3d6c98eb	0.05776302
155	0x3ac980e1	0.0015373492
156	0x3dcf8759	0.101332374
157	0x3e25492a	0.16141191
158	0xbd092385	-0.03348114
159	0x3e02c115	0.12768967
160	0x3d8e6298	0.06952399
161	0x3b232ccf	0.0024898534
162	0xbd8033e8	-0.062599
163	0xbc54de53	-0.012992459
164	0xbd7ce4f5	-0.061741788
165	0x3d86292a	0.0655082
166	0x3d43580d	0.047691394
167	0xbd92026e	-0.0712937
168	0x3e29401d	0.16528364
169	0x3e084eb9	0.1331128
170	0x3de7beae	0.11315666
171	0x3d4d76f2	0.050162263
172	0x3cd57f29	0.026061611
173	0x3e33affe	0.17547604
174	0x3e098164	0.13428265
175	0x3d1ca010	0.038238585
176	0x3dcab892	0.09898485
177	0xbd8021ec	-0.0625647
178	0x3cac7fcf	0.021057038
179	0xbdce0506	-0.10059552
180	0xbdd6feb6	-0.10497801
181	0x3c8cb1d0	0.017174631
182	0xbdd0ce61	-0.10195614
183	0xbd8d25ea	-0.06891997
184	0x3de0cb5b	0.10976287
185	0xbc84dbc2	-0.01621807
186	0x3d0030ea	0.031296648
187	0xbd556534	-0.052098468
188	0xbccab958	-0.024746582
189	0xbc3c6755	-0.011499246
190	0xbd5c006d	-0.053711344
191	0x3e16671d	0.14687772
192	0x3cbd519e	0.023110207
193	0xbd14e785	-0.036353607
194	0xbd49ebb1	-0.04929704
195	0x3dd5be75	0.104367174
196	0xbd88eb49	-0.06685502
197	0x3e0368f3	0.12833004
198	0xbd4e27e1	-0.050331
199	0x3d00fa93	0.031488966
200	0x3d34a26a	0.044100203
201	0xbcf69263	-0.0300991
202	0x3d3e2994	0.04642637
203	0x3d42f85f	0.047600146
204	0x3d329435	0.043598372
205	0x3c20d091	0.009815351
206	0x3dea5a7c	0.1144304
207	0xbd039f15	-0.032134134
208	0xbd8ca655	-0.06867663
209	0xbbb2d278	-0.0054572187
210	0xbd9d999a	-0.07695313
211	0x3daa579d	0.08317492
212	0x3d75f108	0.06004432
213	0x3e0eda5f	0.1395049
214	0x3dfb86ce	0.12281571
215	0xbd9dd536	-0.077066824
216	0x3da41282	0.080113426
217	0xbdbe4d2b	-0.09292062
218	0xbcf23795	-0.02956752
219	0xbca2c119	-0.019867467
220	0x3d37763c	0.04479049
221	0xbb638620	-0.0034717396
222	0xbdd96d9a	-0.10616608
223	0xbd8d11e8	-0.06888181
224	0xbd077de8	-0.033079058
225	0xbde3e3f0	-0.1112746
226	0x3cca8551	0.024721773
227	0x3da512f2	0.08060254
228	0xbd2447df	-0.040107604
229	0xbc2cb64c	-0.01054151
230	0x3da345c3	0.0797229
231	0xbdce7fc0	-0.1008296
232	0xbd5a4b99	-0.05329475
233	0x3dfb71e6	0.12277584
234	0x3d7d3467	0.061817553
235	0xbca65753	-0.020305311
236	0x3b85baab	0.0040810904
237	0x3c8d8bf4	0.017278649
238	0x3d847118	0.064668834
239	0x3d7e17a5	0.062034268
240	0xbd61687c	-0.055031285
241	0x3de4240e	0.111396894
242	0x3d29101d	0.041275132
243	0xbdb7dc9e	-0.08977626
244	0x3d9fdcc3	0.07805779
245	0xbcadc065	-0.021209905
246	0x3d9d1fc1	0.07672072
247	0x3dd6d69a	0.10490151
248	0x3df2feaa	0.118649796
249	0x3d0a72a9	0.033800755
250	0xbccfa1bb	-0.025345674
251	0x3da0add5	0.07845656
252	0xbd09a193	-0.033601355
253	0x3dcf8d84	0.10134414
254	0x3de5a59b	0.11213227
255	0xbdbb0e2e	-0.09133564

features.layers.1.logic.3.layer.0.mlp.0.bias f4 [8]
0	0x3da6b6f6	0.08140366
1	0xbdc03303	-0.0938473
2	0xbb324951	-0.0027204345
3	0xbb769621	-0.0037626105
4	0xbd0190b5	-0.031632144
5	0x3ba67ab6	0.0050805463
6	0x3e116073	0.14196949
7	0x3d846ba5	0.06465844

features.layers.2.logic.0.layer.0.mlp.0.weight f4 [8, 66]
0	0xbd7de9ae	-0.061990432
1	0x3df68b1e	0.12038253
2	0x3e00a328	0.12562239
3	0x3d9447eb	0.0724028
4	0x3c319019	0.010837578
5	0x3cbae9b2	0.022816513
6	0x3dd6d727	0.10490256
7	0xbd0426b3	-0.03226347
8	0xbd707419	-0.05870447
9	0x3dcee130	0.10101545
10	0xbcb4cd93	-0.022070682
11	0x3b6114f5	0.0034344767
12	0x3e0cfce4	0.13768345
13	0x3da431d0	0.080173135
14	0x3d7e5d0b	0.06210045
15	0x3c5573cd	0.013028097
16	0x3d182c46	0.037151597
17	0x3dc375dd	0.09543965
18	0x3cb51821	0.022106232
19	0x3d4de818	0.05027017
20	0x3cce5a08	0.025189415
21	0xbb16333d	-0.0022918724
22	0x3d05e607	0.032690074
23	0x3e046cb9	0.129321
24	0x3d0f7189	0.035020385
25	0x3d29abce	0.04142361
26	0x3e007142	0.12543204
27	0xbb2f37f3	-0.002673623
28	0x3da08a74	0.07838908
29	0x3deb9ac9	0.11504132
30	0xbd59a83a	-0.05313895
31	0x3d39a020	0.045318723
32	0x3e11a8d2	0.14224556
33	0x3e0ae452	0.1356366
34	0x3c7dcb5e	0.015490381
35	0xbd5eb6be	-0.054373495
36	0xbc01a654	-0.007913191
37	0xbd0b6f88	-0.03404191
38	0xbd6a7f39	-0.057250235
39	0xbd9516f0	-0.072797656
40	0x3e0db786	0.1383954
41	0x3a44036a	0.00074773154
42	0xbd48b002	-0.04899598
43	0xbc6f70e1	-0.014614315
44	0x3d900366	0.07031898
45	0x3e109cdc	0.14122337
46	0x3cc85a21	0.02445704
47	0x3debb8f9	0.1150989
48	0xbd491174	-0.04908891
49	0x3d59ed6e	0.053204946
50	0x3d8b19c8	0.06792027
51	0xbd7b64a4	-0.061375275
52	0xbd1d3ccc	-0.03838806
53	0xbd641bd1	-0.05569059
54	0x3db03599	0.08603973
55	0x3d33d64b	0.043905538
56	0x3d8f91d1	0.07010234
57	0x3e11ce16	0.14238772
58	0x3d547772	0.051871724
59	0x3e28c501	0.16481401
60	0xbaf2c508	-0.0018521855
61	0x3deb47da	0.11488314
62	0x3d391ac5	0.045191545
63	0x3da0c418	0.07849902
64	0x3d903e0b	0.07043084
65	0x3dc7989b	0.09745904
66	0xbd3f2840	-0.046669245
67	0x3daf817b	0.08569618
68	0x3db52dc7	0.08846622
69	0x3da92db5	0.08260671
70	0x3cddffb6	0.027099472
71	0xbd1aa162	-0.037751563
72	0x3d9f503e	0.07778977
73	0x3da97522	0.082742944
74	0x3d746cb3	0.059673976
75	0x3d82559c	0.06363985
76	0x3d939df2	0.0720786
77	0x3dcb2d07	0.09920698
78	0xbd404c47	-0.046947744
79	0x3df02b66	0.117270276
80	0x3de12a69	0.10994417
81	0xbd7105d1	-0.058843438
82	0x3cfc786c	0.03081914
83	0x3d2930ee	0.04130643
84	0xbd066082	-0.03280688
85	0x3dc76498	0.097359836
86	0xbbdb2447	-0.006687674
87	0xbd091ddd	-0.033475745
88	0x3e179be5	0.14805563
89	0x3d855191	0.06509698
90	0x3e1086af	0.14113878
91	0x3dac4691	0.08411897
92	0x3a3b70e6	0.0007150307
93	0x3dab0ae1	0.08351684
94	0x3e05deba	0.13073245
95	0xbd48e093	-0.049042296
96	0x3d0a5d5b	0.033780437
97	0x3e03be3e	0.1286554
98	0x3cf9fd8a	0.030516405
99	0x3dcbae84	0.099453956
100	0x3e113179	0.14179029
101	0x3d82203e	0.06353806
102	0x3dbd6b56	0.09248988
103	0xbd5e6eef	-0.054305013
104	0x3d566d40	0.052350283
105	0x3dce2aaf	0.10066735
106	0x3dede079	0.116150804
107	0x3de8238b	0.11334904
108	0xbd199790	-0.037498057
109	0xbcc3f080	-0.02391839
110	0x3d526b43	0.051371824
111	0x3e07fe62	0.13280633
112	0x3c6d86da	0.014497483
113	0xbd38c890	-0.045113146
114	0xbcf13632	-0.029444788
115	0x3cc3dfa3	0.02391035
116	0xbd76aae6	-0.060221575
117	0xbd5aadcc	-0.053388402
118	0x3dec4711	0.11536992
119	0x3ce0ca0a	0.02744009
120	0x3d253299	0.040331457
121	0xbcbf43cc	-0.023347758
122	0x3d752062	0.059845336
123	0xbcf155e1	-0.029459896
124	0x3de7ea10	0.11323941
125	0x3da74789	0.08167941
126	0x3d83ec50	0.064415574
127	0xbd9cb453	-0.076515816
128	0x3db8e6a1	0.09028364
129	0x3b8bbe5e	0.004264637
130	0x3cea9f98	0.028640553
131	0x3dcd1580	0.100138664
132	0x3d3c455e	0.04596459
133	0xbcb0ff71	-0.021606179
134	0x3de06e86	0.10958581
135	0xbdb4ef84	-0.088347465
136	0xbd8676ea	-0.0656565
137	0x3dd0a530	0.10187757
138	0x3c8c9768	0.01716204
139	0xbd396270	-0.045259893
140	0x3cf1b694	0.029506005
141	0x3cc72067	0.024307443
142	0x3e044d72	0.12920168
143	0xbd8b4cf5	-0.06801788
144	0xbd58ed2a	-0.052960552
145	0x3e07952b	0.13240497
146	0x3bbd514b	0.005777513
147	0xbd46e1ff	-0.04855537
148	0x3c5f3c65	0.013625239
149	0x3db946d9	0.09046716
150	0x3df05611	0.11735166
151	0x3d1125ce	0.035436444
152	0x3e02c07a	0.12768736
153	0xbb57da3d	-0.0032936477
154	0x3d82fdcc	0.06396064
155	0x3d936388	0.071967185
156	0x3cabc0b0	0.020965904
157	0x3de1c621	0.11024118
158	0xbd05cb85	-0.032664794
159	0xbd6eb41f	-0.058277246
160	0xbd20e43c	-0.03928016
161	0x3c5d3236	0.013500741
162	0xbc96f493	-0.018427169
163	0x3e0abab8	0.1354779
164	0x3de4915d	0.11160538
165	0x3b736eb6	0.0037144846
166	0x3ddde4c0	0.10834646
167	0xbb26349f	-0.0025360954
168	0x3b4b49cc	0.0031019328
169	0x3dda82a7	0.10669451
170	0x3c6a668d	0.014306677
171	0x3d9af6d0	0.07566607
172	0x3d274fc2	0.040847547
173	0x3c4ffcb0	0.012694523
174	0xbd8188fc	-0.06324956
175	0x3e039b67	0.1285225
176	0xbd21d6a8	-0.039511353
177	0x3d1facf6	0.038983308
178	0xbcb03102	-0.021507744
179	0x3d86cdf7	0.065822534
180	0x3d11268d	0.035437156
181	0x3db387af	0.08766114
182	0xbc503d9a	-0.012709999
183	0xbc71ff7d	-0.014770386
184	0x3dc5a65b	0.096508704
185	0x3bb5ebd4	0.0055517945
186	0x3d979a16	0.074024364
187	0x3dac6df3	0.08419409
188	0xbd31ece2	-0.0434388
189	0x3c94cccc	0.018164061
190	0x3c33b029	0.010967293
191	0x3e14ee2a	0.14543977
192	0xbd8ef5ce	-0.06980477
193	0xbced723d	-0.028985137
194	0x3db9d530	0.090738654
195	0x3e24bcea	0.1608769
196	0x3dad6b65	0.084677495
197	0x3e015509	0.12630095
198	0xbdde0889	-0.10841472
199	0xbd8252f3	-0.063634776
200	0xbce26d50	-0.027640015
201	0xbddaff4f	-0.106932275
202	0xbcb284e9	-0.021791892
203	0xbd2dcdc9	-0.04243258
204	0x3cec9df2	0.028883908
205	0xbc122100	-0.008919001
206	0xbd904d36	-0.07045977
207	0x3d4f0a3f	0.05054688
208	0xbd3a84d6	-0.04553684
209	0x3cda3996	0.026638787
210	0x3c34f4c9	0.011044689
211	0xbceee1b7	-0.029160364
212	0x3ca515e4	0.02015204
213	0xbca6cd8a	-0.02036168
214	0x3bda1f3a	0.0066565545
215	0xbdf88dbb	-0.12136408
216	0xbc03bc12	-0.008040445
217	0xbd18814f	-0.037232693
218	0x3ceb2d7e	0.028708216
219	0x3d147f73	0.036254358
220	0x3da3a87e	0.07991122
221	0xbe03c073	-0.12866382
222	0xbd3a6aa4	-0.045511857
223	0xbe046879	-0.12930478
224	0xbd88b3fd	-0.06674955
225	0x3d9049bb	0.07045313
226	0xbdce2d2d	-0.1006721
227	0xbc7eeb41	-0.015559019
228	0xbd8534e0	-0.06504226
229	0x3d83e4ca	0.064401224
230	0xbca6d4b4	-0.020365097
231	0xbc1fc3d1	-0.009751276
232	0xbc06e93c	-0.008234318
233	0x3dafbb8c	0.085806936
234	0xbcffbd9b	-0.03121834
235	0x3d0c39a0	0.034234643
236	0xbe0614d4	-0.13093883
237	0xbc23c6eb	-0.009996156
238	0xbd5dfc34	-0.054195598
239	0x3c78c003	0.015182498
240	0x3d7f317e	0.06230306
241	0x3d9bb7be	0.076034054
242	0x3d895509	0.06705672
243	0x3d48cb26	0.049021862
244	0xbdb8ec0b	-0.090293966
245	0x3c26a773	0.010171759
246	0x3d671df3	0.056425046
247	0x3d714ef9	0.058913205
248	0xbda1f7c0	-0.07908583
249	0xbd7f9d42	-0.062405832
250	0x3d3fd25d	0.046831477
251	0xbdaffaeb	-0.08592781
252	0x3d1f6bd1	0.03892118
253	0xba0c6b8c	-0.0005356602
254	0xbd82e1a3	-0.06390693
255	0x3c9447a6	0.01810057

features.layers.2.logic.0.layer.0.mlp.0.bias f4 [8]
0	0x3dbcd6da	0.09220667
1	0x3d450cdb	0.048107963
2	0xbc9cb0d9	-0.019127296
3	0xbdc06006	-0.09393315
4	0x3d8a35b3	0.067485236
5	0x3d1222bf	0.035677668
6	0x3d8a9578	0.0676679
7	0x3d51db0d	0.051234294
