models_every10epochs/checkpoints/checkpoint_80.pth (torch, 178410 bytes, 101 tensors)

features.layers.0.logic.0.layer.0.mlp.0.weight f4 [8, 18]
0	0xbc9b4fd3	-0.018958962
1	0xbd0b8376	-0.034060918
2	0xbd9930ed	-0.07480035
3	0xbdd25c55	-0.10271517
4	0xbd25c3ca	-0.040469922
5	0x3e0c8c8b	0.13725488
6	0xbcbf412b	-0.023346504
7	0xbbb3b7d4	-0.0054845605
8	0x3b21496c	0.0024610413
9	0x3c228e8d	0.009921682
10	0x3dfd3ac2	0.12364723
11	0xbdc06db2	-0.09395923
12	0xbe5b8f04	-0.21441275
13	0x3d3f56ca	0.046713628
14	0xbe1445d4	-0.14479762
15	0xbd02686c	-0.031837866
16	0xbe490108	-0.196293
17	0x3d2c2bb3	0.042033862
18	0x3e00212e	0.12512657
19	0x3df8bfc6	0.12145953
20	0xbdc4697b	-0.09590431
21	0x3e35e18e	0.17761824
22	0x3d9187a7	0.07105952
23	0xbd9003fb	-0.07032009
24	0x3dd73d9a	0.105097964
25	0x3e1c73fa	0.15278617
26	0x3e5e0ce7	0.2168461
27	0xbd661d2e	-0.05618017
28	0x3e087727	0.13326703
29	0xbe0fdd1c	-0.1404919
30	0x3d317b91	0.043330733
31	0xbd4d52b7	-0.05012771
32	0x3bb32fef	0.0054683606
33	0xbda5891a	-0.08082791
34	0x3b9e4d10	0.004830964
35	0x3cb14265	0.021638105
36	0x3e2170c5	0.15765674
37	0xbda3fc55	-0.08007113
38	0x3dee6a48	0.11641365
39	0x3e71ada0	0.23601389
40	0x3cc19c24	0.023634024
41	0x3e0f8e00	0.14019012
42	0x3d485b98	0.048915476
43	0x3d4b5ff3	0.04965205
44	0x3e03f65a	0.12886944
45	0x3e2af0f4	0.16693479
46	0x3db5f762	0.08885075
47	0x3e945121	0.28968146
48	0xbd0e3a61	-0.034723643
49	0x3e047c42	0.12938026
50	0x3e14a212	0.1451495
51	0x3ea10a64	0.3145324
52	0xbd834da7	-0.064112954
53	0x3dfc7662	0.12327267
54	0x3e0ba8d7	0.13638626
55	0x3df717c5	0.120650806
56	0x3dd6be34	0.10485497
57	0xbe37f780	-0.17965508
58	0xbe47c66e	-0.19509289
59	0x3da02a08	0.07820517
60	0xbe438c63	-0.19096522
61	0x3e0e868f	0.13918518
62	0xbd37430b	-0.04474167
63	0x3e0c4db1	0.13701512
64	0x3d7ac9f7	0.061227765
65	0xbbfe3310	-0.007757552
66	0xbe5a7e71	-0.21337296
67	0x3e03a196	0.12854609
68	0xbdd40505	-0.1035252
69	0x3e039325	0.128491
70	0xbd4c4843	-0.0498736
71	0x3d14b76f	0.03630775
72	0x3dd8ddb8	0.105891645
73	0xbccc0e9c	-0.02490931
74	0x3e1ff70e	0.15621588
75	0x3e6ebc25	0.23313959
76	0x3e8683a3	0.26272306
77	0x3d9be184	0.07611373
78	0x3e496ab8	0.19669616
79	0xbd6f7bfa	-0.058467843
80	0xbce31682	-0.027720693
81	0x3e40ca12	0.18827084
82	0xba5d8749	-0.000845064
83	0x3db2d785	0.08732513
84	0xbd6e8369	-0.05823079
85	0x3e53d640	0.20687199
86	0x3dbdffcc	0.09277305
87	0x3e411b24	0.1885801
88	0x3e3ef627	0.18648587
89	0x3e443052	0.19159058
90	0xbddb0ed0	-0.10696185
91	0x3da02239	0.078190275
92	0x3e03e50d	0.12880345
93	0xbe380cb8	-0.17973602
94	0xba1299c1	-0.0005592369
95	0xbe735b7d	-0.23765369
96	0xbd8c052e	-0.068369254
97	0xbda7ce41	-0.08193637
98	0xbe46274f	-0.19350933
99	0xbd0cc410	-0.034366667
100	0x3e1f1cfa	0.15538397
101	0x3def6c7f	0.11690616
102	0x3d7cd02c	0.061721966
103	0xbdb387dc	-0.087661475
104	0xbe0efd47	-0.13963805
105	0xbe21d4d3	-0.15803842
106	0xbe1d8a8a	-0.1538488
107	0x3de80b76	0.11330311
108	0x3ddc3811	0.10752881
109	0xbd627f13	-0.05529697
110	0x3e0f0845	0.13967998
111	0xbe0afaf2	-0.1357229
112	0x3e0c7996	0.13718256
113	0x3dcffde5	0.101558484
114	0xbca4b898	-0.020107552
115	0xbe1940a8	-0.1496607
116	0xbd7e61a7	-0.062104847
117	0x3debf7a9	0.11521847
118	0x3e187f87	0.14892398
119	0xbe2d2476	-0.1690844
120	0xbde9e510	-0.11420643
121	0xbdf78b8c	-0.12087163
122	0x3de5e892	0.11226
123	0x3dfd2bba	0.12361856
124	0xbdb08a03	-0.08620074
125	0xbd98238c	-0.07428655
126	0xbdafbb27	-0.08580618
127	0xbe06f625	-0.13179834
128	0x3d925019	0.07144184
129	0xbc67b126	-0.014141357
130	0x3d9b358d	0.075785734
131	0x3d18b4d3	0.037281822
132	0xbdd92c8f	-0.10604202
133	0xbde1e97d	-0.110308625
134	0xbde6ee4d	-0.11275921
135	0xbdabcc66	-0.08388595
136	0x3d815766	0.06315498
137	0xbe2d665a	-0.16933575
138	0xbe2755c4	-0.1634131
139	0xbb2daa59	-0.002649924
140	0xbe3026ca	-0.17202297
141	0xbd8d14c2	-0.06888725
142	0x3bf1f24d	0.007383621
143	0x3e2000b7	0.15625273

features.layers.0.logic.0.layer.0.mlp.0.bias f4 [8]
0	0x3ca51721	0.02015263
1	0x3cd620d6	0.026138704
2	0x3db86e6d	0.09005437
3	0xbd8893a4	-0.06668785
4	0xbd14edcf	-0.036359604
5	0x3e27e1b7	0.16394697
6	0xbc8c1b76	-0.017102938
7	0x3df84127	0.12121802

features.layers.0.logic.1.layer.0.mlp.0.weight f4 [8, 9]
0	0x3da9eeb7	0.08297484
1	0x3c557b7d	0.01302993
2	0x3e1dc72a	0.15408006
3	0x3e8b1c52	0.27170044
4	0x3e13b57f	0.14424704
5	0x3e462550	0.19350171
6	0x3e184838	0.148713
7	0x3eac6841	0.3367329
8	0x3eb87e82	0.36034018
9	0x3daa56fc	0.08317372
10	0x3ea8f01f	0.32995698
11	0x3e8ccf11	0.2750173
12	0x3df33d51	0.118769296
13	0x3d96f521	0.073709734
14	0x3dc6d06f	0.09707724
15	0x3dbdfab7	0.09276336
16	0x3dd87a62	0.10570218
17	0x3ef22708	0.47295403
18	0xbdffea7b	-0.124958955
19	0x3bd2f6b5	0.006438101
20	0xbd864c0e	-0.06557475
21	0xbeb0dd04	-0.34543622
22	0xbd1ed2b0	-0.038775146
23	0xbe722b4c	-0.23649329
24	0xbe94f4de	-0.2909307
25	0xbec2c6b8	-0.38042235
26	0xbe864d42	-0.26230818
27	0xbed5a874	-0.41730082
28	0xbe09697a	-0.13419142
29	0xbecbba1b	-0.39790425
30	0xbe090d99	-0.13384093
31	0xbd78ecf8	-0.060772866
32	0xbec0927e	-0.37611765
33	0x3ddb1abc	0.106984586
34	0xbdc235de	-0.094829306
35	0x3d2aef25	0.041731972
36	0x3e021f32	0.12707213
37	0xbe91e7f4	-0.2849728
38	0xbe4e57b2	-0.2015064
39	0xbeb0aacb	-0.34505305
40	0xbea98e13	-0.33116207
41	0xbe07b444	-0.1325236
42	0xbdcc2258	-0.09967488
43	0x3cd93579	0.026514756
44	0xbd3ba3f5	-0.04581066
45	0x3cc61ec5	0.024184594
46	0x3e34fa6e	0.17673656
47	0x3e8e666f	0.27812526
48	0x3d0706c7	0.032965448
49	0x3e597a65	0.21238096
50	0x3e8b0738	0.27153945
51	0x3e447493	0.19185095
52	0x3e77771d	0.24166532
53	0xbd4e5e63	-0.050382983
54	0x3e484059	0.19555797
55	0x3e8ff215	0.2811438
56	0x3e6695ec	0.22518128
57	0x3c48e227	0.01226095
58	0x3ccc95e5	0.024973819
59	0x3e62d5a0	0.22151804
60	0x3e04076a	0.12893453
61	0x3db28141	0.087160595
62	0x3e9e6538	0.309366
63	0x3d35809d	0.04431211
64	0xbea2eea6	-0.318227
65	0xbe8d6023	-0.2761241
66	0xbe813707	-0.25237295
67	0xbda0bb0c	-0.07848176
68	0x3e0c6479	0.13710202
69	0xbdd4f3c5	-0.10398058
70	0xbea1bfb4	-0.3159157
71	0xbea66de9	-0.3250573

features.layers.0.logic.1.layer.0.mlp.0.bias f4 [8]
0	0x3ecfff5a	0.40624505
1	0x3e8549bf	0.26032826
2	0xbef7c759	-0.48394278
3	0xbe2c95c9	-0.16854014
4	0xbecb17da	-0.39666635
5	0x3ece2769	0.40264443
6	0x3e0ddd80	0.13854027
7	0x3dea6ca6	0.11446504

features.layers.0.logic.2.layer.0.mlp.0.weight f4 [8, 18]
0	0x3e4392df	0.19098996
1	0x3e435354	0.19074756
2	0x3dfbc189	0.12292773
3	0x3d63b323	0.05559076
4	0xbd970fe1	-0.073760755
5	0x3df0e905	0.11763195
6	0x3c0af2db	0.008480753
7	0x3d74f014	0.05979927
8	0xbd417eb7	-0.047239985
9	0x3d9696ab	0.073529564
10	0x3e139607	0.144127
11	0xbd6b9760	-0.05751741
12	0x3d291666	0.041281126
13	0x3d5f7dee	0.054563455
14	0xbd2f1f19	-0.042754266
15	0x3e31fd06	0.17381677
16	0x3e6c505c	0.2307753
17	0xbcf3a26b	-0.029740533
18	0xbd8e9e1b	-0.0696375
19	0x3e05dbde	0.13072154
20	0x3e6a9701	0.22909166
21	0x38f87a83	0.00011848381
22	0xbd0b9285	-0.03407528
23	0x3c068946	0.0082114395
24	0xbdd4bfff	-0.10388183
25	0xbd81d275	-0.063389696
26	0xbde21cf0	-0.11040676
27	0x3cc20074	0.023681857
28	0x3e81f2cc	0.25380552
29	0x3dd6d78e	0.104903325
30	0x3d87f087	0.06637674
31	0xbc58d160	-0.013233513
32	0x3c998517	0.01874022
33	0x3e42ee3f	0.19036196
34	0x3bb7dfd0	0.0056113973
35	0xbb5f69ed	-0.0034090236
36	0x3d9d7160	0.0768764
37	0xbe1ef476	-0.15522942
38	0x3d291035	0.04127522
39	0xbd7b1978	-0.061303586
40	0xbdbee6cd	-0.093213655
41	0xbdc351d9	-0.095370956
42	0xbce5d38e	-0.028054979
43	0xbe150339	-0.1455201
44	0x3de5e75a	0.112257674
45	0x3da165d8	0.07880753
46	0xbd85a227	-0.06525069
47	0xbbc511eb	-0.006014099
48	0xbd2fca75	-0.042917687
49	0xbdd324bf	-0.10309743
50	0xbd0f4a57	-0.034983005
51	0xbdffce41	-0.12490512
52	0x3de71cc4	0.112847835
53	0xba875055	-0.0010323623
54	0xbd166ff5	-0.036727864
55	0xbdc5e7cf	-0.096633546
56	0x3da1d04b	0.07901057
57	0xbd88fe1f	-0.06689095
58	0xbcc76903	-0.024342066
59	0xbdaca6df	-0.08430266
60	0x3dddc04f	0.108276956
61	0xbe2a0837	-0.16604696
62	0x3e2c5143	0.16827874
63	0x3e2f4391	0.17115618
64	0xbc374372	-0.011185514
65	0x3e236f76	0.15960488
66	0x3e2a1e9b	0.16613238
67	0x3c022111	0.007942454
68	0xbd18e7c2	-0.037330396
69	0xbe254947	-0.16141234
70	0x3d428af1	0.047495786
71	0x3e29d757	0.16586052
72	0x3da2d4e8	0.07950765
73	0xbc0b6db0	-0.008510038
74	0x3df54cdc	0.119775504
75	0x3e29b65f	0.16573475
76	0x3e260e7e	0.16216466
77	0xbe07c199	-0.13257445
78	0x3d373118	0.044724554
79	0xbdb59b31	-0.08867491
80	0xbcbd778c	-0.023128293
81	0x3e3eac39	0.18620385
82	0xbe092825	-0.1339422
83	0x39674885	0.00022056892
84	0x3db88581	0.09009839
85	0x3ded7b45	0.115957774
86	0xbc2c0bd3	-0.010500866
87	0x3df98510	0.12183583
88	0x3dd1a6da	0.102369025
89	0x3e021cc0	0.1270628
90	0x3dacc6ca	0.084363535
91	0xbe010bf7	-0.1260222
92	0x3d44464a	0.047918595
93	0x3c372697	0.011178634
94	0xbd8ae80c	-0.06782541
95	0xbdf3131a	-0.11868878
96	0x3e475d17	0.19469105
97	0x3d37f42d	0.0449106
98	0xbca57231	-0.020196052
99	0xbde2a1cf	-0.11066019
100	0x3c8227be	0.015888091
101	0x3e5bba2e	0.2145774
102	0xbd7fde4c	-0.06246786
103	0xbd15bd0e	-0.03655725
104	0x3d9fd178	0.07803625
105	0x3e6b80f1	0.22998406
106	0xbdb01308	-0.0859738
107	0x3e694cbe	0.22783181
108	0xbdb3c8c2	-0.08778526
109	0x3d6c5afc	0.057703957
110	0xbdc4036f	-0.095709674
111	0xbcd46fb1	-0.025932165
112	0x3dd7880e	0.10523997
113	0x3cf350b6	0.029701572
114	0x3dd3b714	0.10337654
115	0xbe193f55	-0.14965566
116	0x3e338bcb	0.17533796
117	0xbdb5b19f	-0.08871769
118	0x3e5dd8d9	0.21664752
119	0xbd06e518	-0.032933325
120	0x3e311430	0.17292857
121	0x3e4ca27b	0.19983856
122	0x3e05057c	0.12990373
123	0x3df00db2	0.11721362
124	0xbd66ea63	-0.056375872
125	0xbcc58538	-0.024111375
126	0xbe36e443	-0.17860512
127	0xbdbfd7d9	-0.093673415
128	0x3c311a3e	0.010809479
129	0xbdadfce3	-0.084955
130	0x3c955ea7	0.01823361
131	0xbe23cb53	-0.15995531
132	0x3e004b4e	0.12528726
133	0xbdede091	-0.11615098
134	0xbcf98b97	-0.03046207
135	0xbdbca591	-0.09211267
136	0xbd91469a	-0.07093544
137	0xbd99e2ff	-0.07513999
138	0xbddcf567	-0.10788994
139	0xbe54f269	-0.20795597
140	0x3d29a1b4	0.041413978
141	0xbe3d5c35	-0.18492205
142	0x3d2e3b61	0.042537097
143	0xbe0025fe	-0.12514493

features.layers.0.logic.2.layer.0.mlp.0.bias f4 [8]
0	0x3e7ac2d4	0.24488384
1	0xbcb9d867	-0.022686196
2	0x3dfe6e80	0.1242342
3	0xbd2df692	-0.042471476
4	0x3e33bd94	0.17552787
5	0x3e3ac268	0.18238223
6	0x3d4b7e42	0.049680956
7	0xbe1590ef	-0.14606069

features.layers.1.logic.0.layer.0.mlp.0.weight f4 [8, 42]
0	0xbd59c8f6	-0.053170167
1	0x3d7f815b	0.062379222
2	0x3d08e40f	0.03342062
3	0xbcd3415e	-0.025788005
4	0x3e06615b	0.13123076
5	0xbd51c5e7	-0.051214125
6	0x3defcea7	0.11709338
7	0x3db7afaf	0.08969056
8	0xbcf06eda	-0.029349733
9	0xbcaa549f	-0.020792304
10	0x3e0f8bf3	0.1401823
11	0x3dae38ba	0.085069135
12	0x3dd2fdcc	0.10302314
13	0x3dc7e517	0.09760492
14	0x3de923f7	0.11383813
15	0xbd9ad25f	-0.07559656
16	0x3e0e78f5	0.13913329
17	0x3e02bf8d	0.12768383
18	0x3daa1139	0.08304066
19	0xbb87da4c	-0.004145896
20	0x3db32044	0.087463886
21	0x3dcbf1f0	0.09958255
22	0xbd402f42	-0.04692007
23	0x3d1ae1cd	0.037812997
24	0x3e10f432	0.14155653
25	0x39e8038d	0.00044253134
26	0xbd0400d5	-0.032227356
27	0x3dd7baac	0.10533652
28	0xbdaa44ee	-0.083139285
29	0xbcae03c4	-0.02124203
30	0xbd341392	-0.043963976
31	0xbd724667	-0.059149172
32	0x3db2b4fc	0.08725926
33	0x3cbf9183	0.023384815
34	0xbd1cbdab	-0.03826682
35	0x3d4384ba	0.047734
36	0x3a8aef95	0.0010599965
37	0xbd464cce	-0.04841309
38	0x3d79a611	0.06094939
39	0x3c852590	0.016253263
40	0x3bbd3316	0.005773912
41	0xbcd17161	-0.025566759
42	0xbd143fe4	-0.036193743
43	0x3d2e59af	0.042565998
44	0x3dbffc02	0.093742386
45	0x3ce37ab6	0.027768474
46	0x3a79a6a8	0.000952343
47	0x3db3411f	0.08752655
48	0xbd908162	-0.07055928
49	0xbd9f6137	-0.07782214
50	0xbc1e7d71	-0.009673462
51	0xbd9ace2d	-0.07558856
52	0xbca18ebe	-0.019721385
53	0x3db2634a	0.08710344
54	0x3e0f9c05	0.1402436
55	0x3d68748f	0.056751784
56	0x3d773327	0.060351517
57	0x3cdfdf2c	0.027328096
58	0x3d124196	0.03570708
59	0x3d3ecf2a	0.046584286
60	0x3e178f43	0.14800744
61	0x3cf71d72	0.030165408
62	0x3d56d3d4	0.05244811
63	0xbd2681eb	-0.040651243
64	0x3d8168ab	0.06318792
65	0x3dff72c3	0.12473061
66	0x3d179427	0.037006523
67	0x3d6be35a	0.057589866
68	0xbd0b8219	-0.034059618
69	0x3dca1dbf	0.09868955
70	0x3e0b7d00	0.13621902
71	0xbcfdfe99	-0.03100519
72	0x3d934d04	0.07192424
73	0xbcef7dd6	-0.029234808
74	0x3df3d249	0.11905343
75	0xbc0922f5	-0.008370151
76	0x3d2a608b	0.041595977
77	0x3decf6d2	0.11570515
78	0x3d0b397d	0.033990372
79	0x3e41e587	0.18935214
80	0x3cbbef2e	0.022941198
81	0x3dccb8fa	0.09996219
82	0xbd085670	-0.03328556
83	0x3dad3103	0.08456614
84	0xbd6d17dd	-0.057884086
85	0x3d0ba9d0	0.034097493
86	0x3cea2e14	0.028586425
87	0xbdda55a1	-0.10660864
88	0x3c0b9209	0.008518704
89	0x3c865c0a	0.01640131
90	0x3e07a8be	0.13247964
91	0xbaba56ed	-0.001421658
92	0x3dc80b76	0.09767811
93	0x3cb7862a	0.022402842
94	0x3d8ebe34	0.06969872
95	0x3dc47fad	0.09594665
96	0xbd90837a	-0.07056327
97	0xbc5ed167	-0.01359973
98	0x3dee0c6b	0.11623462
99	0x3d5bfc2c	0.053707287
100	0x3dbcbfe1	0.092162855
101	0xbbbe91a3	-0.005815701
102	0x3d4c3989	0.049859557
103	0xbd678fa6	-0.05653348
104	0x3da28179	0.07934851
105	0x3e102bf0	0.14079261
106	0x3c6b56ed	0.014363986
107	0xbdba1c83	-0.090874694
108	0x3d755629	0.05989662
109	0x3dbf8c1f	0.09352898
110	0x3d83ba60	0.064320326
111	0x3e2ce69c	0.16884845
112	0x3df21b6a	0.11821635
113	0xbc6cc71b	-0.014451767
114	0x3d9be14f	0.076113336
115	0xbaee328f	-0.0018173027
116	0xbc169d0a	-0.0091927145
117	0x3dd6308f	0.104584806
118	0x3dcba95a	0.099444106
119	0xbca0093b	-0.019535651
120	0xbd07028c	-0.032961413
121	0x3e521255	0.20514806
122	0xbd841e3b	-0.064510785
123	0x3de0f73e	0.10984658
124	0x3e090cc1	0.13383771
125	0x3d56cc43	0.052440893
126	0x3cd05a03	0.025433546
127	0xbe41404b	-0.18872182
128	0xbd66f36f	-0.0563845
129	0xbc8e10b7	-0.017341955
130	0x3c5f94e3	0.013646337
131	0xbe13205b	-0.14367811
132	0x3d4941c9	0.049135003
133	0x3d971a7b	0.073780976
134	0x3b3966c4	0.0028290013
135	0xbe3158b2	-0.17318991
136	0xbde428a2	-0.111405626
137	0x3d0c8f4f	0.034316357
138	0xbe2fe79f	-0.171782
139	0xbd750e2d	-0.059827972
140	0xbd3b8493	-0.04578073
141	0x3d7c6ae7	0.061625388
142	0x3d0803e0	0.03320682
143	0xbe05b6b3	-0.13057975
144	0xbd0fad6d	-0.0350775
145	0xbe091532	-0.13386992
146	0xbb9e4831	-0.004830383
147	0xbda36d4c	-0.07979831
148	0x3be623fb	0.007023332
149	0x3c735eb7	0.014854125
150	0xbde74a71	-0.112934954
151	0x3d346404	0.044040695
152	0xbd898351	-0.067145
153	0xbd0d74a4	-0.034535065
154	0x3c1fb3c0	0.009747446
155	0x3d34ed1b	0.044171434
156	0xbe176f29	-0.14788498
157	0xbe07c4b8	-0.13258636
158	0xbd17f7d9	-0.0371016
159	0xbce684d6	-0.028139513
160	0xbe0b3abe	-0.13596627
161	0x3c575296	0.013142249
162	0xbd898c7c	-0.067162484
163	0xbda9e9f3	-0.082965754
164	0xbd9e8830	-0.077408195
165	0xbe213ef9	-0.15746678
166	0xbdb76bb1	-0.089560874
167	0x3c6bd92e	0.014395041
168	0x3d8c429c	0.06848642
169	0x3e0bc6e4	0.1365009
170	0x3e0b1624	0.13582665
171	0x3cd61355	0.026132265
172	0xbd1b0261	-0.037844066
173	0x3d9b807a	0.07592864
174	0xbd8ca0be	-0.06866597
175	0xbd70da94	-0.058802202
176	0xbcb24e44	-0.021765836
177	0x3d4142e6	0.04718294
178	0x3d29d08f	0.041458663
179	0xbd85aab5	-0.065267004
180	0x3e341ef3	0.17589931
181	0x3e222662	0.15834954
182	0x3d75993d	0.059960593
183	0xbd2e0cbc	-0.042492613
184	0xbd1a0cca	-0.037609853
185	0x3dfd0f83	0.12356474
186	0x3d7a540e	0.061115317
187	0x3e3c2be3	0.18376116
188	0x3e262708	0.16225827
189	0x3dbc8713	0.09205451
190	0x3e207ada	0.15671864
191	0x3e055a37	0.13022695
192	0x3dab9c3d	0.083794095
193	0xbd18ae3b	-0.037275534
194	0x3deac9a7	0.114642434
195	0x3dda8304	0.106695205
196	0xbcc779c7	-0.02435006
197	0x3dbe52fd	0.092931725
198	0xbda1e637	-0.07905238
199	0x3d3c059e	0.045903794
200	0x3deff183	0.117159866
201	0x3bb62a91	0.0055592735
202	0x3d98dc57	0.074639015
203	0xbc9b39c3	-0.018948441
204	0xbd0b8e62	-0.034071334
205	0x3ddd912b	0.10818704
206	0x3df20a36	0.11818354
207	0xbd2262a5	-0.039644856
208	0x3beeec9e	0.0072913906
209	0xbcccf985	-0.025021324
210	0xbd98f9cb	-0.07469519
211	0x3d8f216c	0.069887966
212	0x3dd763b1	0.105170615
213	0xbd935ce2	-0.0719545
214	0x3da899dd	0.08232472
215	0x3df5edc6	0.12008242
216	0x3db9ee17	0.09078615
217	0x3d9743cf	0.0738598
218	0x3e282fb3	0.16424446
219	0xbd27f7cd	-0.041007806
220	0x3e04eb77	0.12980448
221	0x3db17f9c	0.08666918
222	0xbd3c7244	-0.04600741
223	0x394e0a2e	0.00019649483
224	0x3d08db3a	0.033412196
225	0x3d323029	0.04350296
226	0x3da250de	0.079255804
227	0xbd779ec0	-0.06045413
228	0xba6c5a1a	-0.0009016112
229	0x3e39eda8	0.18157065
230	0x3dbd6381	0.092474945
231	0xbcd5f985	-0.026119957
232	0x3dcbd772	0.09953202
233	0x3e1018b5	0.14071925
234	0x3e025888	0.12729084
235	0xbd0b636d	-0.034030367
236	0x3e2d0201	0.16895296
237	0x3e10ec61	0.14152671
238	0x3d115e1e	0.035490148
239	0xbbc9e8cc	-0.0061617848
240	0x3c245042	0.010028901
241	0xbd07afb6	-0.033126555
242	0x3d190c16	0.03736504
243	0xbc4a06c8	-0.012330718
244	0xbd1e19db	-0.038598876
245	0x3de74a87	0.11293512
246	0x3e03bcd7	0.12865005
247	0xbc9a7400	-0.018854141
248	0xbbe326a5	-0.006932097
249	0xbb85327c	-0.004064856
250	0x3d2c3983	0.042047035
251	0x3d260b8b	0.040538352
252	0x3e0adc43	0.13560586
253	0x3d247ec0	0.04015994
254	0x3ddca082	0.10772802
255	0xbd65e718	-0.05612859

features.layers.1.logic.0.layer.0.mlp.0.bias f4 [8]
0	0x3e0c3992	0.13693836
1	0x3da44a49	0.08021981
2	0xbd66ff44	-0.056395784
3	0x3d2d1283	0.042253982
4	0x3d543468	0.05180779
5	0x3dcb9e73	0.09942331
6	0x3e046b2b	0.12931506
7	0x3c2e3868	0.0106335655

features.layers.1.logic.1.layer.0.mlp.0.weight f4 [8, 41]
0	0xbdbfdde4	-0.09368494
1	0xbeaffec0	-0.34374046
2	0xbe7a62d6	-0.24451765
3	0x3da4f546	0.08054595
4	0xbdfbb93f	-0.12291192
5	0x3d82e4e5	0.063913144
6	0xbdaaa1d6	-0.08331649
7	0xbe030b81	-0.12797357
8	0xbdd961bc	-0.106143445
9	0xbdf97b02	-0.12181665
10	0xbd47a43e	-0.048740618
11	0xbd9064a0	-0.07050443
12	0xbd32545f	-0.043537494
13	0xbdc1289b	-0.09431573
14	0xbddbb47e	-0.107277855
15	0xbce38d98	-0.027777478
16	0xbda5d134	-0.08096543
17	0xbe8c4c4d	-0.27401963
18	0xbdd4d9b6	-0.103930876
19	0x3c6cad01	0.014445544
20	0xbdd0aefd	-0.10189626
21	0x3c74448b	0.01490892
22	0x3c53ae35	0.012919952
23	0xbd5bbd83	-0.05364753
24	0xbd5f31a1	-0.05449069
25	0xbe33b6fb	-0.1755027
26	0xbe271907	-0.16318141
27	0xbdc402de	-0.095708594
28	0xbd338442	-0.043827303
29	0xbde890a8	-0.11355716
30	0xbde398fb	-0.11113163
31	0xbe57892e	-0.21048424
32	0xbe191603	-0.14949803
33	0xbe1a36d5	-0.1505998
34	0xbe0b5a5a	-0.13608685
35	0xbe204c16	-0.15654024
36	0xbe4e53e1	-0.20149185
37	0xbdbb6ae7	-0.091512494
38	0xbe259c0a	-0.16172805
39	0xbd9c7bf3	-0.07640829
40	0xbe0296b1	-0.12752797
41	0xbd489c01	-0.048976902
42	0xbec260fc	-0.37964618
43	0xbeb66be9	-0.35629204
44	0xbe198837	-0.14993368
45	0xbe3619f5	-0.1778334
46	0xbe0f5d99	-0.14000548
47	0xbe8c353d	-0.27384368
48	0xbd77290a	-0.060341872
49	0xbd9fa6c0	-0.07795477
50	0xbdb75f85	-0.08953766
51	0xbb7ec899	-0.003887689
52	0x3cd3c099	0.025848674
53	0xbe2c1c56	-0.16807684
54	0xbdccabe1	-0.09993721
55	0xbd098be6	-0.033580683
56	0xbdfceb28	-0.1234954
57	0xbd6b07f2	-0.057380624
58	0xbe0ab74c	-0.13546485
59	0xbe3e2fad	-0.18572874
60	0xbc871b72	-0.01649258
61	0xbdc945a5	-0.09827737
62	0xbd9d689e	-0.0768597
63	0xbe16e483	-0.14735608
64	0xbe1f3a72	-0.15549639
65	0x3cd9ac89	0.026571529
66	0xbe891e83	-0.2678109
67	0xbe452369	-0.19251789
68	0xbd0a40a7	-0.033753064
69	0xbc8fbaaf	-0.017545072
70	0xbd679d79	-0.056546662
71	0x3cd0f523	0.025507515
72	0xbe56883e	-0.2095041
73	0xbe838739	-0.25689104
74	0xbdc13762	-0.094343916
75	0xbe20058e	-0.15627119
76	0xbdeddc9b	-0.11614343
77	0xbe868d66	-0.26279753
78	0xbe9d6eab	-0.30748495
79	0xbe41f513	-0.18941145
80	0x3d583b23	0.052790772
81	0xbd7dea8c	-0.06199126
82	0x3da5b423	0.08090999
83	0xbe2996c6	-0.16561422
84	0xbe832e83	-0.25621423
85	0x3d6e1659	0.05812678
86	0xbe870886	-0.2637369
87	0x3d983f68	0.07433969
88	0xbd97a4f1	-0.07404507
89	0x3cf5208f	0.029922752
90	0x3c8dfd8b	0.017332813
91	0xbdee7278	-0.11642927
92	0xbd310fcc	-0.043227956
93	0xbdee88e1	-0.11647201
94	0xbdafcb1d	-0.08583663
95	0xbcea566f	-0.028605668
96	0xbc8b4047	-0.016998423
97	0xbe44401d	-0.19165082
98	0xbe0454b1	-0.12922932
99	0xbe0db6f0	-0.13839316
100	0xbe019b23	-0.12656836
101	0xbd8234c3	-0.0635772
102	0x3d7933b0	0.06084031
103	0xbe63a66a	-0.2223145
104	0xbd28f604	-0.041250244
105	0xbe8a63d8	-0.270293
106	0xbdde1982	-0.10844709
107	0xbe5b2578	-0.21401012
108	0xbe6da370	-0.23206878
109	0xbdce4991	-0.100726254
110	0xbcec5933	-0.028851127
111	0x3c04799b	0.008085634
112	0x3b1b43a0	0.002369143
113	0xbe36daa9	-0.1785685
114	0xbe12a33e	-0.14320084
115	0xbd07ba29	-0.03313652
116	0xbe19bc5a	-0.15013257
117	0xbe0afd05	-0.13573082
118	0xbe044aae	-0.12919113
119	0xbd4af141	-0.049546484
120	0xbcf10065	-0.029419133
121	0xbc05dfb1	-0.008171008
122	0xbdb05c7d	-0.08611391
123	0x3ce43361	0.02785653
124	0x3e7b0825	0.24514826
125	0x3eaf8de8	0.34287953
126	0x3dc323a8	0.09528285
127	0x3e92f7e9	0.28704765
128	0x3d952bc7	0.072837405
129	0x3e8e362c	0.27775705
130	0x3e39a935	0.18130954
131	0xbc6bd4b3	-0.014393973
132	0xbc4b236d	-0.012398583
133	0xbc1c0597	-0.009522817
134	0x3c49a829	0.012308159
135	0x3da7342c	0.08164248
136	0x3d9d6b06	0.07686429
137	0x3df43ea3	0.119260095
138	0xbc92c79e	-0.01791745
139	0x3e26e3bc	0.16297811
140	0x3e3e803c	0.18603605
141	0x3e05b399	0.13056792
142	0x3e0faad5	0.14030011
143	0x3db287e6	0.08717327
144	0xbd0e00cb	-0.034668725
145	0x3e05f608	0.13082135
146	0x3dc6404f	0.09680235
147	0x3d89a5a7	0.06721049
148	0x3e3b1563	0.18269877
149	0x3dfbaae0	0.12288451
150	0x3daf6541	0.085642345
151	0x3e3810b0	0.17975116
152	0x3dc29377	0.09500783
153	0x3e0f444e	0.139909
154	0x3e869106	0.2628252
155	0x3c9c34ed	0.019068206
156	0x3e2e184e	0.17001459
157	0x3e1b5337	0.15168463
158	0x3e49d840	0.19711399
159	0x3d24cdb1	0.040235225
160	0x3e8e9d25	0.27854267
161	0x3e337789	0.17526068
162	0x3de8132b	0.11331781
163	0x3dffae30	0.124843955
164	0x3d4801b3	0.048829746
165	0x3ea22874	0.31671488
166	0x3e33743e	0.17524812
167	0x3d6ce9cd	0.057840157
168	0x3e877aec	0.2646097
169	0xbd3e3b55	-0.046443302
170	0x3e7ad414	0.24494964
171	0xbd6b27ac	-0.05741088
172	0x3cc44d60	0.023962677
173	0x3df73d63	0.120722555
174	0x3dc53417	0.09629076
175	0x3ba35a7a	0.004985151
176	0x3e1bafd2	0.15203789
177	0x3d3852ad	0.04500072
178	0x3c562818	0.0130710825
179	0x3e86a68c	0.2629894
180	0x3da02a55	0.07820574
181	0x3e27ebd6	0.16398558
182	0x3e3e4b69	0.18583454
183	0xbdfd8aff	-0.12380027
184	0x3c776741	0.015100301
185	0x3d9c0420	0.07617974
186	0x3e0addae	0.13561127
187	0x3d47d0ca	0.0487831
188	0x3dec44ff	0.115365975
189	0x3e11a32f	0.14222406
190	0x3e025751	0.12728621
191	0x3b9f9fb9	0.0048713353
192	0x3de6d5ea	0.112712696
193	0x3df9615b	0.12176772
194	0x3bcc5d16	0.0062366826
195	0x3df88ee9	0.12136633
196	0x3ca9e434	0.020738699
197	0x3e5b1db7	0.21398054
198	0x3e0e1c3b	0.13877957
199	0x3e54f7e8	0.20797694
200	0x3e267442	0.16255286
201	0x3e937c50	0.2880578
202	0x3d1dd89e	0.03853666
203	0xbdf4da79	-0.11955733
204	0xbd1dcf16	-0.03852757
205	0x3a1ef16f	0.0006063198
206	0xbdfa736d	-0.12229047
207	0xbdea3dba	-0.11437555
208	0x3d7a76f7	0.06114861
209	0xbe531219	-0.20612372
210	0xbd93d873	-0.07219019
211	0xbe4bd5af	-0.19905733
212	0xbdfef4d2	-0.124490395
213	0xbe5bf425	-0.21479852
214	0xbc916a3c	-0.017750852
215	0xbd64978f	-0.0558086
216	0xbe3d88f6	-0.18509278
217	0xbe16dfc3	-0.14733796
218	0xbd9cb59e	-0.07651828
219	0xbe00f1e0	-0.12592268
220	0xbd80bc0f	-0.06285869
221	0xbe23e120	-0.16003847
222	0xbdd56179	-0.10418982
223	0xbe07e75b	-0.13271849
224	0x3d8cd3c6	0.0687633
225	0xbd6558a9	-0.055992756
226	0x3cd180fe	0.025574204
227	0xbde1c951	-0.11024726
228	0xbdb4ebcb	-0.088340364
229	0xbd65fd67	-0.056149866
230	0xbd298d46	-0.041394494
231	0xbe530573	-0.20607547
232	0xbe36ed1f	-0.17863892
233	0xbe85966c	-0.26091325
234	0x3cffaa43	0.031209117
235	0x3bf0ee99	0.007352662
236	0xbe073f01	-0.13207628
237	0x3d640821	0.055671815
238	0xbe0cca13	-0.1374896
239	0xbe333b0a	-0.1750299
240	0xbe4d2eb6	-0.2003735
241	0xbda17b45	-0.0788484
242	0xbe7a8b18	-0.24467123
243	0xbccfbef6	-0.025359612
244	0xbdd7c3cf	-0.105353944
245	0x3d048ede	0.03236281
246	0x3dfff4cb	0.124978624
247	0x3e887431	0.26651147
248	0x3dfcf8b5	0.123521246
249	0x3da7180a	0.08158882
250	0x3e183708	0.14864743
251	0xbd786f0b	-0.060652774
252	0x3d0b72c8	0.03404501
253	0x3cdbd6c9	0.026835816
254	0x3dda3efd	0.10656545
255	0x3e0998f9	0.1343726

features.layers.1.logic.1.layer.0.mlp.0.bias f4 [8]
0	0xbe080921	-0.13284732
1	0xbdf3083f	-0.11866807
2	0xbddd5f88	-0.10809237
3	0x3ea37129	0.31922272
4	0x3e856341	0.26052287
5	0xbe07cade	-0.13260981
6	0x3e6cde70	0.23131728
7	0x3e19fb42	0.15037253

features.layers.1.logic.2.layer.0.mlp.0.weight f4 [8, 50]
0	0xbc0a4778	-0.008439891
1	0x3d1424d1	0.036167923
2	0x3ba3c815	0.004998217
3	0xbc293d0e	-0.010329498
4	0xbc988767	-0.018619252
5	0xbdb29de4	-0.087215215
6	0x3d1fdddd	0.039029945
7	0x3c1f7eaf	0.009734794
8	0x3d8bbf00	0.0682354
9	0xbd95d9aa	-0.07316907
10	0x3cb31cde	0.02186435
11	0xbdc306b9	-0.095227666
12	0x3dc6aa7f	0.09700488
13	0xbdec2a03	-0.115314506
14	0x3d8a60f3	0.06756773
15	0xbd91ccf2	-0.07119168
16	0x3d871309	0.065954275
17	0xbc195de4	-0.009360764
18	0xbe0f6c34	-0.1400612
19	0xbde24ac7	-0.11049419
20	0xbb76f170	-0.003768053
21	0x3d371db1	0.04470605
22	0xbd1c2f78	-0.038131207
23	0x3d2f0436	0.042728625
24	0xbdf7a637	-0.1209225
25	0xbde494f7	-0.11161225
26	0xbc3c6918	-0.011499666
27	0xbddeb862	-0.10875012
28	0xbd068412	-0.032840796
29	0xbd77c379	-0.06048915
30	0xbe022c89	-0.12712301
31	0xbdeb7d2a	-0.114984825
32	0xbde1042f	-0.10987126
33	0xbd3a7ad3	-0.04552729
34	0x3d0740d8	0.033020824
35	0xbe220e44	-0.15825754
36	0x39d9fd0a	0.00041577994
37	0xbc841608	-0.016123787
38	0xbd957965	-0.07298545
39	0x3d1332ca	0.035937108
40	0xbd4b1d4d	-0.04958849
41	0xbd20ec56	-0.039287888
42	0x3d77b8b3	0.060478877
43	0xbc92c0f5	-0.017914275
44	0x3d437520	0.04771912
45	0xbe27942b	-0.16365115
46	0xbd732a11	-0.05936629
47	0xbd8ece53	-0.06972947
48	0x3d6cbae2	0.057795413
49	0xbb4ffdd0	-0.0031736977
50	0xbdbbad21	-0.09163881
51	0x3dd2f03a	0.10299726
52	0x3d3e7581	0.04649878
53	0xbd35b9c3	-0.04436661
54	0xbda27e8a	-0.07934292
55	0xbdb7ed22	-0.08980776
56	0x3ce47bb2	0.027891014
57	0x3d134a8f	0.035959776
58	0xbe17682e	-0.14785835
59	0x3d40d149	0.04707459
60	0xbe07f722	-0.13277867
61	0xbdc01839	-0.0937962
62	0xbd57a19a	-0.05264435
63	0xbc1d18ce	-0.009588433
64	0x3d53c611	0.051702563
65	0xbd1b9226	-0.037981175
66	0x3cc52ee7	0.024070216
67	0x3ca882bc	0.020570152
68	0xbc675ecc	-0.014121722
69	0xbe0df183	-0.1386166
70	0xbd85912d	-0.06521831
71	0xbd47a53c	-0.048741564
72	0x3ae40a04	0.0017398004
73	0x3da23cf8	0.07921785
74	0xbcfde4cd	-0.03099289
75	0xbd29e9dd	-0.041482795
76	0x3cd80de7	0.026373817
77	0xbd86c3f9	-0.065803476
78	0xbdabd645	-0.08390478
79	0xbd6cef52	-0.05784542
80	0x3c8dc822	0.017307345
81	0xbc80409b	-0.015655806
82	0xbd99d72e	-0.075117454
83	0x3ce035ad	0.027369345
84	0xbdc75e33	-0.09734764
85	0x3d2634fe	0.04057788
86	0x3df73deb	0.12072357
87	0x3da68014	0.08129898
88	0x3dbf8998	0.09352416
89	0x3ce93d23	0.028471535
90	0xbd8b3e41	-0.06798983
91	0xbc6287a1	-0.013826282
92	0xbdc8afa6	-0.09799127
93	0x3d22ed5c	0.039777145
94	0xbd8ee964	-0.069781095
95	0xbd9440f1	-0.07238949
96	0x3d732703	0.059363376
97	0xbe16fa09	-0.14743818
98	0xbb5f237e	-0.0034048255
99	0x3dda22da	0.10651179
100	0x3d8b4b6d	0.06801496
101	0xbd05cd8b	-0.032666724
102	0x3de32391	0.11090768
103	0x3db93b98	0.0904457
104	0xbd16f12d	-0.036851097
105	0xbd1a07d1	-0.03760511
106	0x3e17e8aa	0.14834848
107	0x3db267a5	0.08711175
108	0xbbcbc00a	-0.006217961
109	0x3d2155cf	0.039388474
110	0x3e03fb23	0.1288877
111	0xbd36f98d	-0.044671584
112	0xbc975ba9	-0.018476324
113	0xbad717af	-0.0016410257
114	0xbd8f39dd	-0.069934584
115	0x3dc17d49	0.09447724
116	0x3c99a35f	0.01875466
117	0xbd836c19	-0.06417102
118	0x3d8404ad	0.06446204
119	0x3c2363d6	0.009972533
120	0x3d95cd8e	0.07314597
121	0x3b0860c4	0.002080963
122	0xbc8efaff	-0.017453669
123	0x3e20e59e	0.15712592
124	0x3cc2cec0	0.023780227
125	0x3cef313a	0.029198278
126	0xbc771219	-0.015079998
127	0x3e1c94fb	0.15291207
128	0x3d422cf9	0.04740617
129	0x3df4fb01	0.11961938
130	0xbc8b491e	-0.017002638
131	0x3dbf3f45	0.093382396
132	0x3dbf1544	0.09330228
133	0x3e154899	0.14578475
134	0x3e2123dc	0.15736336
135	0x3d42ca9d	0.04755651
136	0x3d9ada67	0.07561188
137	0x399cb18a	0.00029886916
138	0xbda3fdfb	-0.08007427
139	0x3e1a7d61	0.15086891
140	0x3dcfce06	0.10146718
141	0x3db6d855	0.08927981
142	0x3d8eb7fc	0.06968686
143	0x3df44969	0.119280644
144	0xbe00d0bb	-0.12579624
145	0xbb1e73bd	-0.0024177872
146	0x3df9eb35	0.12203065
147	0x3da3dacd	0.08000717
148	0x3e25d84f	0.16195796
149	0xbab1a73f	-0.0013553872
150	0xbdebb1ee	-0.11508547
151	0xbde24463	-0.110482
152	0x3d988730	0.0744766
153	0xbd994e3e	-0.07485627
154	0xbcbe65d1	-0.02324191
155	0xbd9c2406	-0.076240584
156	0x3d5f5797	0.05452689
157	0xbdac955f	-0.08426928
158	0x3d4ab9e0	0.04949367
159	0xbd838cce	-0.06423341
160	0xbda88e34	-0.08230248
161	0xbda420d6	-0.080140755
162	0xbd975b68	-0.07390481
163	0xbe04145f	-0.12898396
164	0xbdcbcf1d	-0.09951613
165	0x3c837ac0	0.016049743
166	0x3e106842	0.14102271
167	0x3b196aea	0.0023409673
168	0x3d76d443	0.060261022
169	0x3d6d2a18	0.05790147
170	0x3ddc54cb	0.107583605
171	0xbdcfa50f	-0.10138904
172	0xbc420b6d	-0.011843544
173	0xbcf13195	-0.029442588
174	0x3da6fa22	0.08153178
175	0xbdcebc3c	-0.100944966
176	0xbc8119cd	-0.015759373
177	0xbc17b75f	-0.009260028
178	0x3e1115d8	0.14168489
179	0x3daf7d7c	0.08568856
180	0xbd8bbe1f	-0.06823372
181	0x3c953f33	0.018218612
182	0xbe0f7945	-0.14011104
183	0xbd7279f4	-0.059198335
184	0xbd9dd8d2	-0.07707371
185	0x3cdd166c	0.02698823
186	0x3c9021ad	0.017594183
187	0xbd3220be	-0.043488257
188	0xbd8f3d27	-0.06994086
189	0xbc02afc6	-0.007976478
190	0x3d680ac5	0.056650896
191	0xba8cd748	-0.0010745311
192	0xbd9b2f00	-0.07577324
193	0x3ce9325a	0.028466392
194	0xbcc92cad	-0.024557436
195	0xbda0d80c	-0.07853708
196	0x3da44e9b	0.08022805
197	0x3d748ce4	0.059704676
198	0xbdb63549	-0.08896882
199	0xbdfe3d66	-0.124140546
200	0x3d04ce46	0.03242328
201	0x3db0a0d7	0.08624428
202	0xbc8354ab	-0.016031584
203	0x3dad0c1f	0.084495775
204	0xbd923e54	-0.071407944
205	0x3cb1a74a	0.021686215
206	0xbd963e4b	-0.073361
207	0x3dd75d97	0.10515898
208	0x3db751f5	0.08951179
209	0xbcdf9010	-0.027290374
210	0x3e3ee7ab	0.18643062
211	0x3bcd69ed	0.006268731
212	0x3d86f2e4	0.065892965
213	0xbb7424ed	-0.0037253455
214	0xbcbde2a2	-0.023179356
215	0x3d2408f2	0.040047593
216	0xbde6139a	-0.112342075
217	0x3dce75b2	0.10081042
218	0x3d059493	0.032612395
219	0xbda0a860	-0.07844615
220	0x3d674d42	0.056470163
221	0x3e1a4eed	0.1506917
222	0x3d0226fa	0.031775452
223	0x3da86ec1	0.0822425
224	0x3c0bfb27	0.008543766
225	0x3dc52432	0.09626044
226	0x3d3bb692	0.04582841
227	0x3d4b09ca	0.049569882
228	0xbd32376b	-0.043509882
229	0x3d164d1c	0.03669463
230	0x3d102ab8	0.03519699
231	0x3d86e5b2	0.0658678
232	0x3d1e8c0b	0.038707774
233	0x3e232a72	0.1593416
234	0x3dbe78e6	0.09300403
235	0x3d9462df	0.07245421
236	0xbd9f89a6	-0.07789926
237	0x3dd670d9	0.10470743
238	0xbbf39b5c	-0.0074342918
239	0x3db8d896	0.090256855
240	0x3e1c31c8	0.15253365
241	0xbc15d1d1	-0.009144262
242	0x3d5d47f5	0.0540237
243	0x3dafa5b9	0.08576531
244	0x3dff96d3	0.12479939
245	0xbcd41331	-0.025888057
246	0x3dc0cc92	0.09414019
247	0x3d7d4d14	0.061841086
248	0x3dc2f55f	0.09519457
249	0x3c65530f	0.0139968535
250	0x3bd88d37	0.006608631
251	0x3e3e810d	0.18603916
252	0xbd50063b	-0.05078719
253	0x3e0f9203	0.14020543
254	0xbd6979ef	-0.05700105
255	0x3d01e077	0.031708207

features.layers.1.logic.2.layer.0.mlp.0.bias f4 [8]
0	0xbe091ac0	-0.1338911
1	0x3d8cf882	0.068833366
2	0x3d4a5882	0.049400814
3	0x3d013bee	0.031551294
4	0x3c904c38	0.017614469
5	0x3c775d8e	0.015097989
6	0xbe40fdb5	-0.18846782
7	0x3db53fd3	0.08850064

features.layers.1.logic.3.layer.0.mlp.0.weight f4 [8, 48]
0	0x3e273813	0.16329984
1	0x3db550f5	0.08853332
2	0x3d7c964c	0.06166677
3	0x3d9f75cd	0.077861406
4	0x3d90bb1e	0.0706694
5	0x3c59ede0	0.013301343
6	0x3cad1b20	0.021131098
7	0x3d82fe38	0.06396145
8	0xbc70a1cf	-0.014687016
9	0x3db83548	0.089945376
10	0x3d8b4227	0.06799727
11	0xbdb97ca9	-0.0905698
12	0x3d581453	0.052753758
13	0x3b3493e0	0.002755396
14	0xbd448b5f	-0.047984477
15	0x3dbd26e0	0.092359304
16	0x3e14647c	0.14491457
17	0xbc294228	-0.010330714
18	0x3e04457b	0.1291713
19	0x3dac4a75	0.08412639
20	0x3d87d153	0.06631722
21	0x3e0a6590	0.13515306
22	0x3d9cf5fb	0.076641046
23	0x3d12c4a9	0.03583208
24	0x3c8eae3e	0.01741707
25	0x3cc7ea66	0.024403762
26	0x3df97927	0.12181311
27	0x3b4d41a5	0.0031319645
28	0xbd45b402	-0.048267372
29	0x3d7060a9	0.058685932
30	0x3ceb7c69	0.028745847
31	0xbc8d5c93	-0.017256057
32	0x3be7b928	0.007071633
33	0xbd5c1c8f	-0.053738173
34	0x3dd258d2	0.102708474
35	0xbd33c83f	-0.04389214
36	0x3ddc0dc6	0.107448146
37	0x3d9876ae	0.07444511
38	0xbd2fb447	-0.042896535
39	0x3db146a3	0.08656051
40	0x3de63323	0.11240222
41	0x3df5ec94	0.12008014
42	0xbcb21dff	-0.021742819
43	0xbb388873	-0.0028157502
44	0x3d8ed195	0.06973568
45	0x3d651436	0.055927478
46	0x3dc5bc2f	0.09655034
47	0xbade62ac	-0.0016966662
48	0xbcddac5a	-0.027059723
49	0x3d9521fa	0.07281871
50	0x3dd9d141	0.10635615
51	0x3ced3396	0.028955262
52	0xbc9f547d	-0.019449467
53	0x3d8ac864	0.06776503
54	0x3e02bf7c	0.12768358
55	0x3d4a7d10	0.049435675
56	0x3c667604	0.014066223
57	0x3c9f5306	0.019448768
58	0xbda4ed1e	-0.08053039
59	0x3e184af6	0.14872345
60	0x3d770260	0.060305
61	0x3c8652c0	0.01639688
62	0xbc9c0546	-0.019045483
63	0xbc97343e	-0.018457528
64	0xbdc346aa	-0.095349625
65	0xbdce51e1	-0.10074211
66	0x3ae88248	0.0017739022
67	0xbd07f20d	-0.033189822
68	0x3d11dcee	0.035611086
69	0xbd82a961	-0.06379963
70	0x3d25b002	0.040451057
71	0x3abc9c00	0.0014389753
72	0x3dd2ccf7	0.10293
73	0x3e02bb9b	0.12766878
74	0x3dbdd97f	0.0927
75	0xbdfea938	-0.1243462
76	0xbd811e54	-0.06304613
77	0x3d88e12c	0.06683573
78	0x3d0d08f9	0.034432385
79	0xbc6a3dec	-0.01429699
80	0xbda7ea4a	-0.08198984
81	0x3e02cf23	0.12774329
82	0xbd4292a3	-0.047503125
83	0x3da3c373	0.07996263
84	0xbd4c3cc9	-0.049862657
85	0x3c887ab0	0.016660064
86	0xbc54ecb1	-0.012995885
87	0xbd53e4e1	-0.051731948
88	0xbd91fa66	-0.07127838
89	0xbca4cfbc	-0.020118587
90	0xbdbabac1	-0.09117652
91	0xbdd0e35d	-0.10199616
92	0x39b0eddc	0.00033746555
93	0x3ce921d2	0.02845851
94	0xbda45b50	-0.08025229
95	0x3c9d844f	0.019228129
96	0x3bc016a6	0.005862075
97	0xbda79782	-0.08183195
98	0xbd277f52	-0.040892906
99	0x3da0b4c5	0.07846979
100	0x3c37f68b	0.011228214
101	0x3da7e7bc	0.08198497
102	0x3dfbd7ea	0.12297042
103	0x3de03c34	0.10948983
104	0xbceb6e0d	-0.028739
105	0xbc0017af	-0.007818147
106	0x3da8a955	0.082354225
107	0x3dc89c87	0.0979548
108	0xbd3fc2b6	-0.04681655
109	0xbd838095	-0.064210095
110	0x3dc13d81	0.09435559
111	0x3d6ac43e	0.057316057
112	0x3d3d6660	0.04624021
113	0x3cebc5d4	0.028780855
114	0x3d5259d8	0.051355213
115	0xbd6b1fde	-0.057403438
116	0x3d88797b	0.066637956
117	0x3db3b6f1	0.08775128
118	0xbba9ace9	-0.005178083
119	0x3d2f2180	0.042756557
120	0x3e13aed6	0.14422163
121	0xbc2f1beb	-0.0106878085
122	0x3d2ec4bd	0.042668093
123	0x3cde9a19	0.027173089
124	0x3d06033f	0.03271794
125	0x3d434f52	0.047683068
126	0x3c894a3e	0.016759034
127	0x3d77c290	0.060488284
128	0xbc943ba1	-0.01809484
129	0xbd898999	-0.06715698
130	0xbdd08bff	-0.10182952
131	0x3dd690a7	0.10476809
132	0xbdfa03b3	-0.12207737
133	0xbcfc34b3	-0.030786848
134	0x3c7fdcde	0.015616624
135	0x3ca13d8d	0.01968267
136	0x3e115bc4	0.14195162
137	0x3c4f9d66	0.012671804
138	0xbde41905	-0.111375846
139	0x3d01c837	0.03168508
140	0x3b524869	0.0032086617
141	0x3dccf4a1	0.10007597
142	0x3de6f903	0.11277964
143	0x3d4a9a04	0.049463287
144	0x3cd773f1	0.026300402
145	0xbd94a420	-0.07257867
146	0xbdc2c169	-0.09509546
147	0x3b98137d	0.004640995
148	0xbd2a4b21	-0.041575555
149	0x3d72dd85	0.05929329
150	0x3e06e7db	0.13174383
151	0x3d5dab5d	0.054118503
152	0x3d9b8444	0.07593587
153	0xbcf0a29d	-0.029374415
154	0x3d61857a	0.055058934
155	0x3b9107c3	0.004425974
156	0x3dcbab2d	0.099447586
157	0x3e1f8696	0.15578684
158	0xbcea4c7b	-0.028600922
159	0x3df7f35c	0.12106964
160	0x3d8d2f16	0.068937466
161	0x3bc122da	0.005894047
162	0xbd72d024	-0.05928053
163	0xbc241f2a	-0.010017196
164	0xbd6366c6	-0.055517934
165	0x3d84c0fb	0.064821206
166	0x3d464f28	0.048415333
167	0xbd8a77ef	-0.06761157
168	0x3e23b1a1	0.15985729
169	0x3e0599ab	0.13046901
170	0x3ddc8943	0.10768368
171	0x3d4b5016	0.049636923
172	0x3ce761d7	0.028244896
173	0x3e2dafc1	0.16961576
174	0x3e05d858	0.1307081
175	0x3d1482bb	0.036257487
176	0x3dc71114	0.09720054
177	0xbd63ca85	-0.05561306
178	0x3ca7b82c	0.020473562
179	0xbdbc92fb	-0.09207722
180	0xbdc5ec5f	-0.09664225
181	0x3c9b9291	0.018990787
182	0xbdbfd056	-0.09365909
183	0xbd85caf6	-0.06532852
184	0x3ddad901	0.106859215
185	0xbc3c60be	-0.0114976745
186	0x3cf5c5f2	0.030001614
187	0xbd42f486	-0.047596477
188	0xbca556e9	-0.020183044
189	0xbbfab5e9	-0.00765108
190	0xbd43a83a	-0.047767855
191	0x3e0e9f17	0.13927875
192	0x3cc86e8c	0.024466775
193	0xbd035dc0	-0.03207183
194	0xbd3edafb	-0.046595555
195	0x3dcf0500	0.101083755
196	0xbd79b452	-0.060962982
197	0x3dfe75a0	0.12424779
198	0xbd38d3c0	-0.045123816
199	0x3cf4b1ec	0.029869996
200	0x3d367538	0.044545382
201	0xbcd53fe7	-0.026031448
202	0x3d35eeb9	0.044417117
203	0x3d42588e	0.047447734
204	0x3d336582	0.043797977
205	0x3c3dc43a	0.011582429
206	0x3de37caf	0.11107766
207	0xbcf94b20	-0.03043133
208	0xbd805d42	-0.062677875
209	0xbb09c783	-0.002102346
210	0xbd951955	-0.07280222
211	0x3da5a4f0	0.080881
212	0x3d74e409	0.059787784
213	0x3e0a289d	0.13492055
214	0x3df3f6e5	0.11912326
215	0xbd95a980	-0.0730772
216	0x3da085aa	0.078379944
217	0xbdae76a4	-0.08518723
218	0xbce4e250	-0.027939945
219	0xbc8d663e	-0.017260667
220	0x3d38da72	0.0451302
221	0xba12d2e1	-0.00056008814
222	0xbdc8cf9c	-0.09805223
223	0xbd85c59f	-0.06531834
224	0xbceaaf13	-0.028647935
225	0xbdd27194	-0.102755696
226	0x3cc425e2	0.023943845
227	0x3da1ce66	0.079006955
228	0xbd1093a8	-0.035297066
229	0xbbf9eabe	-0.0076268604
230	0x3d9ff386	0.0781012
231	0xbdc3b764	-0.09556463
232	0xbd444ecf	-0.04792672
233	0x3df45c15	0.11931626
234	0x3d712603	0.05887414
235	0xbc8fbddd	-0.017546589
236	0x3bd540c4	0.006507965
237	0x3c9dd28b	0.019265434
238	0x3d8313c3	0.064002536
239	0x3d70ed36	0.058819972
240	0xbd4d7bdd	-0.050166953
241	0x3ddd3c03	0.10802462
242	0x3d20573c	0.039145693
243	0xbdab75f0	-0.08372104
244	0x3d9b1ed7	0.075742416
245	0xbc933583	-0.017969852
246	0x3d996668	0.074902356
247	0x3dcbb9c5	0.09947542
248	0x3deab7a5	0.11460809
249	0x3d0c3ca6	0.034237526
250	0xbcc247c3	-0.02371586
251	0x3d9c0b0c	0.076192945
252	0xbcf3ce8d	-0.029761577
253	0x3dc81661	0.097698934
254	0x3dddcfc5	0.108306445
255	0xbdb16212	-0.086612836

features.layers.1.logic.3.layer.0.mlp.0.bias f4 [8]
0	0x3da19a2b	0.07890733
1	0xbdb0f456	-0.086403534
2	0xb93f3786	-0.00018235864
3	0xb9d91966	-0.0004140839
4	0xbce056c1	-0.027385117
5	0x3bdca4f7	0.0067335325
6	0x3e0c5077	0.1370257
7	0x3d810e93	0.06301608

features.layers.2.logic.0.layer.0.mlp.0.weight f4 [8, 66]
0	0xbd70bdfa	-0.058774926
1	0x3debcd51	0.1151377
2	0x3df5de98	0.12005347
3	0x3d8ca066	0.06866531
4	0x3c367680	0.011136651
5	0x3cb1a04b	0.021682879
6	0x3dcca874	0.099930674
7	0xbcfa7f27	-0.03057821
8	0xbd6078a4	-0.054802552
9	0x3dc6669a	0.096875384
10	0xbca42c2f	-0.0200406
11	0x3b55f8ce	0.003264952
12	0x3e069235	0.13141711
13	0x3d9d7456	0.07688205
14	0x3d74b8a8	0.059746414
15	0x3c589a8c	0.013220441
16	0x3d1b00fb	0.037842732
17	0x3db9ed8e	0.09078513
18	0x3cc174dd	0.023615295
19	0x3d4499de	0.0479983
20	0x3cd9992f	0.026562301
21	0xbae07ddb	-0.0017127352
22	0x3d09a97d	0.033608902
23	0x3dfb7051	0.12277282
24	0x3d12ae93	0.03581102
25	0x3d2339e1	0.03985012
26	0x3df8f632	0.12156333
27	0xbb185971	-0.002324667
28	0x3d9d8351	0.07691062
29	0x3de0477b	0.10951134
30	0xbd438e9d	-0.04774343
31	0x3d327669	0.043569956
32	0x3e0ce235	0.13758166
33	0x3e049088	0.1294576
34	0x3c7ec560	0.015549988
35	0xbd4f6e5f	-0.050642367
36	0xbbd9af62	-0.0066432217
37	0xbd0095d7	-0.0313929
38	0xbd5e559a	-0.054280855
39	0xbd8d5eac	-0.06902823
40	0x3e066db1	0.13127781
41	0x3a39ecb7	0.0007092463
42	0xbd3e3d34	-0.046445087
43	0xbc630a1c	-0.013857391
44	0x3d8a5c63	0.067559026
45	0x3e0a3648	0.13497269
46	0x3cc573d8	0.02410309
47	0x3de1ca90	0.11024964
48	0xbd3e993f	-0.046532866
49	0x3d4ea4b7	0.050450053
50	0x3d83e9ae	0.06441055
51	0xbd6e5e2b	-0.058195274
52	0xbd151151	-0.036393467
53	0xbd584af0	-0.05280584
54	0x3da71bc0	0.0815959
55	0x3d2a885b	0.041633945
56	0x3d89f74d	0.06736622
57	0x3e0b5390	0.13606095
58	0x3d4d1bd4	0.050075367
59	0x3e21193d	0.15732284
60	0xbae5e880	-0.0017540604
61	0x3ddf1916	0.10893457
62	0x3d33256d	0.043736864
63	0x3d9a7dd2	0.075435296
64	0x3d8a8fa1	0.06765676
65	0x3dbf3923	0.0933707
66	0xbd353bea	-0.04424659
67	0x3da89cb8	0.08233017
68	0x3dadf1e2	0.08493401
69	0x3da0719a	0.07834168
70	0x3cda0e91	0.026618274
71	0xbd126ad6	-0.035746418
72	0x3d981d63	0.0742748
73	0x3da0b70d	0.07847414
74	0x3d6b8e06	0.05750849
75	0x3d7c01ae	0.06152504
76	0x3d8df237	0.069309644
77	0x3dc0ac4a	0.094078615
78	0xbd328c63	-0.043590914
79	0x3de59ff7	0.112121515
80	0x3dd765a3	0.105174325
81	0xbd60bb97	-0.0548664
82	0x3d03042c	0.0319864
83	0x3d2235cf	0.039602097
84	0xbce7ee55	-0.028311888
85	0x3dbe0b05	0.092794456
86	0xbb6819f6	-0.0035415865
87	0xbcffb234	-0.031212904
88	0x3e129225	0.14313562
89	0x3d7d4693	0.061834883
90	0x3e0bd5be	0.13655755
91	0x3da4c7f1	0.08045948
92	0x3b64adec	0.0034893705
93	0x3da2775b	0.079329215
94	0x3e01b39a	0.12666169
95	0xbd3d036e	-0.04614585
96	0x3d0e9208	0.034807235
97	0x3dfb0820	0.12257409
98	0x3d02227d	0.03177117
99	0x3dc2ce51	0.09512008
100	0x3e0a9ec6	0.1353713
101	0x3d7ad46f	0.06123775
102	0x3db58009	0.088623114
103	0xbd4f0074	-0.05053754
104	0x3d4b5937	0.04964563
105	0x3dc37dd0	0.09545481
106	0x3de1a9dc	0.11018726
107	0x3ddc1e68	0.10747987
108	0xbd1197e7	-0.035545256
109	0xbcb9cabf	-0.022679685
110	0x3d4b6201	0.04965401
111	0x3e021bf0	0.1270597
112	0x3c715e98	0.014732026
113	0xbd2a3cb6	-0.041561805
114	0xbce4996a	-0.027905185
115	0x3cb9bb46	0.022672307
116	0xbd69dd72	-0.057095952
117	0xbd4f58e0	-0.050621867
118	0x3de00e8d	0.10940275
119	0x3cd528e9	0.026020484
120	0x3d1cb107	0.038254764
121	0xbcb558b1	-0.022137018
122	0x3d6c60c9	0.05770949
123	0xbcdb7e96	-0.02679376
124	0x3ddddd12	0.108331814
125	0x3da0f240	0.078587055
126	0x3d7a320e	0.061082892
127	0xbd949721	-0.07255388
128	0x3db145f9	0.08655924
129	0x3ba84401	0.00513506
130	0x3ce630a8	0.028099373
131	0x3dc49dec	0.09600434
132	0x3d329f68	0.043609053
133	0xbc90fd47	-0.017698897
134	0x3ddb2aaa	0.10701497
135	0xbdab76d8	-0.08372277
136	0xbd774185	-0.06036522
137	0x3dc620ae	0.09674202
138	0x3c949959	0.018139528
139	0xbd2f8322	-0.042849667
140	0x3cf4ccd3	0.029882824
141	0x3ce30606	0.027712833
142	0x3dff982f	0.124801986
143	0xbd840ad1	-0.064473756
144	0xbd45de13	-0.04830749
145	0x3e028375	0.1274546
146	0x3bf1ae21	0.007375494
147	0xbd34a4bb	-0.04410241
148	0x3c811b3b	0.015760055
149	0x3db1562f	0.08659016
150	0x3de9d186	0.114169165
151	0x3d0e652c	0.034764454
152	0x3dfde4e1	0.12397171
153	0xbae1ebb7	-0.0017236386
154	0x3d81fbf3	0.063468836
155	0x3d8bc01a	0.0682375
156	0x3cb9fe89	0.02270438
157	0x3dd8f0b2	0.10592784
158	0xbce5c06f	-0.028045861
159	0xbd6181c6	-0.055055402
160	0xbd0d0f4e	-0.034438424
161	0x3c5f8d4d	0.013644529
162	0xbc6f3ff6	-0.014602652
163	0x3e04c4c8	0.12965691
164	0x3ddebb97	0.10875624
165	0x3bb34f4e	0.0054721003
166	0x3dd64c58	0.1046378
167	0x36ddecec	6.6138946e-06
168	0x3b9e8e0b	0.00483871
169	0x3dd389bc	0.10329005
170	0x3c5e6246	0.013573235
171	0x3d92f0af	0.07174813
172	0x3d1f0ad7	0.038828697
173	0x3c453b9c	0.012038138
174	0xbd75b232	-0.059984393
175	0x3df995fe	0.12186812
176	0xbd115f04	-0.035491005
177	0x3d267d4b	0.040646832
178	0xbc947c26	-0.018125605
179	0x3d88a0a3	0.06671264
180	0x3d09d01e	0.03364574
181	0x3daa3c05	0.08312229
182	0xbc452fa6	-0.012035286
183	0xbc655836	-0.013998082
184	0x3dbb728c	0.091527075
185	0x3baca11e	0.00526823
186	0x3d8fce01	0.07021714
187	0x3da382da	0.07983942
188	0xbd1fbb73	-0.038997125
189	0x3caa99e6	0.020825338
190	0x3c4cf939	0.012510591
191	0x3e10dc06	0.14146432
192	0xbd878a4a	-0.066181734
193	0xbce123a3	-0.027482813
194	0x3db45fb7	0.08807319
195	0x3e1f7963	0.15573649
196	0x3da89cba	0.08233018
197	0x3dfaac79	0.12239928
198	0xbdd268c8	-0.10273892
199	0xbd4e43d5	-0.05035766
200	0xbc838538	-0.016054735
201	0xbdcf5f08	-0.10125548
202	0xbc334d2f	-0.010943695
203	0xbd227c7d	-0.039669503
204	0x3d07435a	0.033023216
205	0xbc07cb92	-0.008288281
206	0xbd69ec3f	-0.057110067
207	0x3d6e51dd	0.05818354
208	0xbd089a70	-0.033350408
209	0x3ccf8e22	0.025336329
210	0x3ca61dc8	0.020277873
211	0xbc92bf7a	-0.017913569
212	0x3cec9b08	0.028882518
213	0xbc1b41e0	-0.009476155
214	0x3d38e343	0.04513861
215	0xbde30a37	-0.11085933
216	0x3d013549	0.031544957
217	0xbd0388da	-0.032112934
218	0x3d89c9e6	0.06727962
219	0x3d1e2602	0.038610466
220	0x3de9b51d	0.11411498
221	0xbdfc2617	-0.123119526
222	0xbbc13a0e	-0.0058968132
223	0xbde8792c	-0.11351237
224	0xbcc09c36	-0.023511987
225	0x3d8a9c00	0.06768036
226	0xbd6c9f43	-0.05776907
227	0xbbe4b25e	-0.006979271
228	0xbcb0832d	-0.021546924
229	0x3d88541d	0.06656668
230	0x3cabe96f	0.020985333
231	0x3b2532fb	0.0025207389
232	0x3afa1231	0.0019078908
233	0x3dbb274f	0.09138357
234	0xbca312c2	-0.019906405
235	0x3d2dfd5f	0.04247796
236	0xbdfe2d02	-0.12410928
237	0xbc1b4b2a	-0.00947837
238	0xbd4fcc61	-0.05073202
239	0x3c6bed5c	0.014399853
240	0x3d71b484	0.059010044
241	0x3d93a886	0.07209878
242	0x3d962d37	0.07332843
243	0x3d674aec	0.056467935
244	0xbd9b22c9	-0.07574994
245	0x3ca50bc5	0.020147214
246	0x3d5abbdf	0.053401824
247	0x3d64d223	0.055864464
248	0xbd9977ca	-0.07493551
249	0xbd725096	-0.059158884
250	0x3d362a41	0.04447389
251	0xbda6da28	-0.08147079
252	0x3d17a304	0.0370207
253	0xba00ae8d	-0.00049088226
254	0xbd4fb35a	-0.050708152
255	0x3cdf287e	0.027240988

features.layers.2.logic.0.layer.0.mlp.0.bias f4 [8]
0	0x3db4d263	0.088291906
1	0x3d3e9ea5	0.046538014
2	0xbc8517ed	-0.01624676
3	0xbda290d2	-0.079377785
4	0x3d85bc7e	0.06530093
5	0x3d0f7a20	0.035028577
6	0x3da48b14	0.080343395
7	0x3d475ab4	0.048670486
